N0-Noise/weight_6/best_model_no_noisse_weight_6.pth (torch, 8135 bytes, 5 tensors)

layers.0.fc_neigh.weight f4 [64, 9]
00000000: 054f adbe 79b5 3abe d0dd 523d bd87 a5be
00000010: 3962 4fbe b01a 9cbc 5c8e 033f 75f5 8bbe
00000020: 5a45 1300 8733 06c0 716c d53e 1209 623e
00000030: 9f42 183f 4359 7dbc 4067 3cbb 40a5 d9bf
00000040: 8f88 bc3f 568b 3980 02f2 8d3f dc61 53bf
00000050: c75e cab9 2366 81be f456 6ebf 1b8f 0cb8
00000060: fce3 563e 605a a0bd c08e 2200 79f5 023f
00000070: c31b 9fbe d973 7dbf e0af 0b3f 4cc4 d4be
00000080: f17d a53e 9ef5 8a3d e3ec 623f b22d 2900
00000090: 0d20 9bbc 5c2b 873e 08a7 563c 7652 603c
000000a0: 77dc 3bc0 33cb ac38 8620 8d3f 2937 023f
000000b0: fd76 1e00 49d6 06be 804e 3b3e a947 89be
000000c0: 9e69 ac3d e915 09bf 2e3c 7ab8 eb78 30bf
000000d0: 96f3 debf 929f 0800 9f43 8abe 2d15 3dbf
000000e0: ada2 8d3d 3e24 1bbd c149 b23e 50e5 95bc
000000f0: 5c83 92be e63c aebe b098 2100 a7be 943d
00000100: ab73 aebf ff1d 273d 165a 3fbf b7d4 b4bf
00000110: cb58 bebf f031 ffbe a566 933d 6d28 3900
00000120: bc50 28bf 3e01 83bf 2ac8 e03d 886f 69bd
00000130: d225 e9be 1121 dc3d 1ead 74be 40bb 5d3b
00000140: bac7 2380 3b9e b7bd d904 ecbe 487e 933c
00000150: fe5a e2bd f618 0abd 2784 66be bf00 eebb
00000160: 4cbb 283f c9c3 3580 9404 35be 13e5 68be
00000170: 0130 3f3d 5d53 693e 260a abbf c369 08bd
00000180: 8abb 3f3e 343b 0ebe 2806 3980 f383 293e
00000190: ee77 8cbf 6e78 6abd 6e00 82bd 730c 6c3d
000001a0: 09f8 103e 8b3d acbd 4b52 a3bd 324b 2880
000001b0: 4888 16be fdd1 1dbf 66d7 663d 3e11 803e
000001c0: 7a60 05bf f16a e63d ca7e 8abe a937 713f
000001d0: c096 4200 3dba adbc c338 863f ac6a 7fbd
000001e0: cb2a 0e3f a0f5 283f aa3f 63bc 798d d7be
000001f0: 34d4 af3e 527f 2a80 ee65 1dbe 3db3 59bf
00000200: a19d 02c0 1d95 e2bd 044b ee3e 28f6 ba3c
00000210: 311d 01bf 4967 1cbf 09d7 1180 125b 88bd
00000220: a3cd 3e3e 3f8d 413c cd03 413d 18ba 38c0
00000230: 1248 6539 cc66 b63e 9c56 bd3e 8645 1e00
00000240: 0a17 8c3e 89ac 703f 2efe d23d 2bb5 c3be
00000250: 9c8d bcbe 7ec8 8c3e 1a9f 03bf 4f14 e4bd
00000260: 89c2 2680 2f1a aabe 6be4 c5bf 29ad 963d
00000270: a7d3 efbe 15a3 2a3d 7bf8 a0be fa09 d03e
00000280: a94b 8b3e ea08 0500 9385 0f3f f6b8 a53e
00000290: 157c 1f3d 46c1 553d 7b92 c5bf 6f7e aaba
000002a0: 881a 613e 2699 773f 98db 2580 ca60 f9bf
000002b0: 6e36 963f 5ff1 0e3f d241 8f3f b659 26bd
000002c0: 6d60 c33a 14c1 debf 2af9 593f ecf7 1a80
000002d0: 8f11 f4bd 3324 7d3e 0016 87bc d5d7 22bf
000002e0: 7c8c 963e 229c ee3d bee8 e63e e9a7 89be
000002f0: 5884 2100 8058 f03e 0cc7 fabf 08af f53c
00000300: e20d 52bf f8ac b23e 07e1 c6bb 1f47 5b3f
00000310: 4920 72be 3781 0a80 a215 fd3e fd36 31be
00000320: b839 13bf 5b2c 00bf 94c2 2dbf 7df6 58bc
00000330: f817 233d c52c 293f 4a4f 0300 b764 9e95
00000340: 9e7e 1b96 3915 3f97 980d 2097 7020 9696
00000350: 8274 6e9a 003e 8994 0328 b194 4666 4280
00000360: 2120 d7bc 3a7e b63f 6733 3b3c 1cda 1cbe
00000370: 819e d8be 7dc5 e9ba 626a 08c0 720d 9a3f
00000380: c9d4 1b00 3ac9 eabd 287d 10be 4bf1 8bbb
00000390: 06d9 10bd 040b 913e 0c9e 20bd 6f20 473e
000003a0: 04b0 cabc 3f81 2180 6630 f4bd e606 ab3e
000003b0: 4def c83b a61d 043e a45a b6bf 4ed9 16b9
000003c0: 8b94 863d fcbf fe3e 25ad 2400 ee5f 05c0
000003d0: b65f 0b3f 1908 103e 4541 a13e dd48 81be
000003e0: 047d 76ba bf2f 0bc0 117d ad3f 5b54 4280
000003f0: a248 4ebc 4530 c13e 95ea 1e3e 2743 a3be
-0.3384935 -0.18233289 0.051481068 -0.32330123 -0.20252313 -0.019055694 0.513891 -0.27335706
1.769753e-39 -2.096895 0.41684297 0.22073773 0.59476656 -0.015463176 -0.0028748065 -1.7003555
1.4729174 -5.284608e-39 1.108948 -0.82571197 -0.00038599057 -0.25273237 -0.9310143 -3.351188e-05
0.20985407 -0.07829738 3.173616e-39 0.5115581 -0.31075868 -0.99004894 0.5456524 -0.41556013
0.32322648 0.06785129 0.8864271 3.781648e-39 -0.018936181 0.26400268 0.013101347 0.013691535
-2.935331 8.239448e-05 1.102555 0.5086542 2.79775e-39 -0.13167681 0.18291664 -0.26812485
0.084185824 -0.5354906 -5.966069e-05 -0.68934506 -1.7418087 7.91927e-40 -0.27004716 -0.73860437
0.069157936 -0.03787636 0.34821895 -0.018297821 -0.28615844 -0.34030837 3.085345e-39 0.072629265
-1.3629049 0.04080009 -0.74746835 -1.4127415 -1.4870847 -0.49842787 0.07197312 5.249125e-39
-0.6574819 -1.0234754 0.10975678 -0.05699113 -0.45536667 0.107484944 -0.23894164 0.0033833534
-3.285891e-39 -0.08965727 -0.46097448 0.018004552 -0.11052512 -0.03371521 -0.2251135 -0.0072632725
0.6591079 -4.937516e-39 -0.17677528 -0.22743635 0.04667664 0.22785707 -1.3362472 -0.033303987
0.18723884 -0.13889772 -5.236832e-39 0.16554241 -1.09741 -0.057243757 -0.06347738 0.05762906
0.14157118 -0.08410176 -0.079746805 -3.700395e-39 -0.14700425 -0.6164854 0.056357764 0.25013155
-0.52100337 0.11250866 -0.27049857 0.94225556 6.115222e-39 -0.02120697 1.0486072 -0.06235759
0.55534047 0.65999794 -0.013870159 -0.42100123 0.34341586 -3.902765e-39 -0.15370914 -0.8503912
-2.040871 -0.11063597 0.46541607 0.022822455 -0.5043517 -0.610951 -1.638344e-39 -0.06657995
0.18633132 0.011813461 0.047122765 -2.8863583 0.0002186599 0.35625303 0.3698014 2.780005e-39
0.27361327 0.9401327 0.10302387 -0.38224158 -0.3682679 0.27496713 -0.51414645 -0.11136686
-3.559535e-39 -0.33223101 -1.5460333 0.073572464 -0.46841165 0.041659433 -0.31439576 0.40632612
0.27206162 4.62375e-40 0.56063193 0.32367676 0.038936693 0.052186273 -1.5435327 -0.0013007651
0.21982777 0.9671806 -3.476689e-39 -1.9482663 1.1735361 0.55837053 1.1191962 -0.0406129
0.0014906056 -1.7402673 0.8514582 -2.47666e-39 -0.119174115 0.2472084 -0.016489983 -0.63610584
0.29404056 0.11650874 0.45099443 -0.26885918 3.078047e-39 0.4694252 -1.9591994 0.029990688
-0.82052433 0.3489759 -0.006069306 0.856554 -0.23645128 -9.64709e-40 0.49430567 -0.17306133
-0.57509947 -0.5006768 -0.6787503 -0.013242361 0.03981778 0.6608394 3.0395e-40 -6.397459e-26
-1.2560754e-25 -6.1742215e-25 -5.1715946e-25 -2.4254278e-25 -4.931136e-23 -1.385792e-26 -1.7888215e-26 -6.097832e-39
-0.026260437 1.4257271 0.0114258295 -0.15317577 -0.4230843 -0.0017835345 -2.131493 1.2035353
2.555891e-39 -0.11464162 -0.14110243 -0.0042707077 -0.03536322 0.28328717 -0.039213225 0.19445966
-0.024742134 -3.076936e-39 -0.11923294 0.334037 0.0061320425 0.12901935 -1.4246411 -0.00014386067
0.06571301 0.49755847 3.36819e-39 -2.08398 0.5444292 0.14065589 0.3149511 -0.25250903
-0.0009402784 -2.1747892 1.3553792 -6.091404e-39 -0.012590559 0.3773214 0.15519173 -0.3188717

layers.0.fc_self.weight f4 [64, 9]
00000000: 77c0 85bf 7903 cb3d 8724 fabe e2f8 03bf
00000010: e5c4 513f e316 a7ba 05f4 2bbd 3021 98bd
00000020: f6dd 143a dfb9 6fbe eab5 2bbd a40d 9c3d
00000030: 1d4d 903f c6e5 24bf d0e7 9c3a 7c38 9f3c
00000040: a2a6 603e 9337 0680 048e 91be d3bf 993f
00000050: c12d 1f3a 00f2 1abf 52a6 6fbf 2207 2d39
00000060: 9e2e dfbc cf59 bdbe aeb5 703a 714f f1be
00000070: 957d 923f 59d9 4ebd 413d a2bb 6b74 babe
00000080: 7b7c a0be 51c7 1f3d a3ad 243e be19 12b9
00000090: ece3 11be c7e8 cd3d 3c5c 2cbc cad5 953d
000000a0: bd9f 22c0 3de2 3fb9 a78b f0bd 05a3 7abf
000000b0: b440 3537 f24e b43c 4ff0 34bd 0c45 34bd
000000c0: f7eb 7cbd 2753 523f 3ff5 3c39 f38b 2400
000000d0: 168b 0780 de47 0380 3b33 7ebd 4244 01bf
000000e0: 1807 df3c 2391 e2be 1eb7 c13d 6975 c1bc
000000f0: a08f debe 6b1d e2bc 64d2 0aba 41da 45be
00000100: 6a1d 563f 4149 063a 2d31 88be 1b53 7dbe
00000110: fb7d 91b9 b677 56bc b2ef 963d 4df6 793b
00000120: 9d7e f4be 2e61 7ebe 5e8b a2be 5d84 77be
00000130: 4d21 98be 7687 dcbd 7494 1e00 0eac 3c00
00000140: 3e02 2d00 8829 e3bc 64cc b83e c597 63bc
00000150: 19c2 b23d 4cea c9bc d8a8 72bc b93a ea3e
00000160: fdda 2f3f ada8 2a3b 7ad4 22bf f9eb cc3d
00000170: b334 843c d7f8 d63d f2da 2cbf 8d90 60ba
00000180: 444f 3880 9c06 2300 96da 0500 0ce2 91bd
00000190: fa62 8fbf a73b 9f3c 289f ab3d 97aa 513f
000001a0: c382 10be 0e28 3100 9817 0a00 5f3a 2b00
000001b0: 204e 0abf 17a3 973f e70c bb3c a363 64bd
000001c0: d0ff 6ebe ce85 ddbd 0d90 0fbe 39c1 99bd
000001d0: 138c a0b9 ff56 3abe 74aa c73e 9620 6b3d
000001e0: 23a4 f53d 69e5 033f 17ea f5bd 6e1f 32be
000001f0: b620 ad3c d00d 1fba c125 39bf 3581 98bf
00000200: 426a 4e3b 0ea9 a63d 8bd4 5f3f b189 b8bc
00000210: 96fe 3900 0978 2400 9bff 0880 1e85 133b
00000220: 955d adbc dde2 e13b f488 253d 925f 07c0
00000230: 9df5 a2b9 8617 ccbe 8b27 7dbf 3bca 9737
00000240: f6e0 de3e 619d 893f 3119 a2bd e19c 55bf
00000250: 03ba 933d 7516 87be 3623 c33b f195 44be
00000260: 02c3 7539 838f 0cbe 6030 53bf 3567 a3ba
00000270: b009 173e a329 403f 5eeb ef38 62db 3f3e
00000280: d3c7 52be 8d91 5a3b 42a7 cb3d 6c00 893e
00000290: 02dc b33c 7fee e0be 6058 90bf 4dca b339
000002a0: ca6e e03e f151 f63e ac77 023b bcbb 59bf
000002b0: b20a 893f 13f1 4c3e 4e79 be3f bc09 d7be
000002c0: fb5f 8bba a7fc 913b 2505 d43d a266 3880
000002d0: 2648 1ebf 1968 cf3e 8228 543c 6f76 0bbf
000002e0: ab9c 0d3f 0928 e4bd 6f4a 6cbe cfc1 2400
000002f0: 017c 3780 f87c 70be 25a9 d6be 46a2 3f3c
00000300: 2175 d6bd 0fca 243f 400b 5839 f8ca f03e
00000310: 6a74 65be 7068 b23a c1b9 803e 4e9f c3be
00000320: 0218 08bd 9305 c43e 188d 3abf 35d8 1639
00000330: e204 9d3e cccf 1fbe bcd0 3c3b e632 ad95
00000340: 4e03 4396 7348 9396 11ba 6497 59fa c296
00000350: 59c6 969a 77fc 8b93 f380 cd93 d845 2785
00000360: d373 83bf 7d87 d4be 7ae5 fdbd 8527 753e
00000370: d259 123d 943a ab39 4896 4dbe 6831 f9bd
00000380: 5470 aeb9 65e4 623d fa12 b23c ec2a 353c
00000390: 15cd 29bd d57f dc3e 17ac 09be 4bb5 873e
000003a0: 85a8 563f b393 003b e3de ac3b 3de5 49bd
000003b0: f0b8 403a c95c b0bd 3f06 e5bf 6184 66b8
000003c0: b6d5 3040 ddae adbe 947c c837 809d 1abe
000003d0: 9c3d 513f ba31 8c3d cc41 393f 2d61 55bf
000003e0: 9b11 6b3a 40a4 b13d e518 8a3e 019c 8bb8
000003f0: a9fd 63bf 4c29 023e 8783 03be 8d97 d3be
-1.0449361 0.09912772 -0.48855993 -0.5155164 0.8194106 -0.001274791 -0.041980762 -0.07428205
0.0005678827 -0.23410748 -0.041921534 0.07619789 1.1273533 -0.64413106 0.0011970941 0.019436114
0.21938565 -5.70949e-40 -0.28428662 1.2011665 0.00060721865 -0.6052551 -0.9361316 0.00016501223
-0.027243908 -0.3698258 0.0009182346 -0.4713092 1.1444575 -0.050500248 -0.0049511497 -0.36416945
-0.3134497 0.039008442 0.16081862 -0.00013933235 -0.14247102 0.100541644 -0.010520037 0.07316168
-2.5409997 -0.0001829946 -0.117453866 -0.97905 1.0803506e-05 0.0220103 -0.04417449 -0.04401116
-0.06174847 0.8215813 0.00018020438 3.356282e-39 -6.92743e-40 -3.01288e-40 -0.062060576 -0.5049478
0.027225062 -0.44251356 0.09458755 -0.023615556 -0.43468952 -0.027601918 -0.0005295633 -0.19321539
0.8363863 0.000512261 -0.26600018 -0.24738733 -0.00027750418 -0.013090065 0.07369937 0.0038141191
-0.47752848 -0.24841759 -0.31746954 -0.24171586 -0.29712906 -0.107680246 2.80832e-39 5.571851e-39
4.133402e-39 -0.027729765 0.36093438 -0.013891165 0.087284274 -0.024647854 -0.014810763 0.45747927
0.68693525 0.002604048 -0.63605464 0.10005946 0.01613841 0.10496681 -0.67521584 -0.00085664616
-5.171223e-39 3.216613e-39 5.37591e-40 -0.07123193 -1.120208 0.019437624 0.08379966 0.81900924
-0.14112382 4.514308e-39 9.26819e-40 3.969866e-39 -0.5402546 1.1846646 0.0228333 -0.055759083
-0.23339772 -0.10816537 -0.14019795 -0.075075574 -0.00030621942 -0.18197249 0.38997233 0.057404123
0.11994197 0.5152193 -0.1200754 -0.17394802 0.021133762 -0.0006067427 -0.7232323 -1.1914431
0.003149644 0.081377134 0.8743369 -0.022526594 5.325952e-39 3.349138e-39 -8.26378e-40 0.0022509764
-0.021162787 0.0068934993 0.04041381 -2.1152081 -0.00031082044 -0.39861697 -0.9888846 1.8094774e-05
0.43531007 1.0751153 -0.07914961 -0.83442503 0.07213213 -0.2638432 0.005955125 -0.19197823
0.00023437667 -0.1372662 -0.8249569 -0.0012466671 0.14749789 0.7506353 0.000114402486 0.18736032
-0.2058404 0.0033350915 0.09944011 0.26758134 0.021955494 -0.43931958 -1.127697 0.00034292266
0.43834525 0.4810939 0.0019907756 -0.85052085 1.0706389 0.20013838 1.4880769 -0.41999614
-0.0010633463 0.0044551673 0.10352544 -5.179606e-39 -0.6182884 0.40509108 0.012949111 -0.5447759
0.5531718 -0.111404486 -0.23075269 3.375603e-39 -5.095437e-39 -0.23485172 -0.41925922 0.011696404
-0.10471559 0.64370817 0.00020603556 0.47029853 -0.2240769 0.0013611447 0.2514172 -0.38207477
-0.03322602 0.38285503 -0.7287154 0.00014385658 0.30667788 -0.15606612 0.0028810939 -6.995445e-26
-1.5753017e-25 -2.3794853e-25 -7.390562e-25 -3.1500382e-25 -6.2358994e-23 -3.5337483e-27 -5.187643e-27 -7.8651305e-36
-1.0269722 -0.4150962 -0.12397285 0.23940857 0.03573019 0.00032659306 -0.20076859 -0.121676266
-0.00033271557 0.055393595 0.021737564 0.011057597 -0.041455347 0.43066278 -0.13444553 0.26505503
0.8385089 0.0019619286 0.0052755936 -0.049290884 0.00073517766 -0.08611447 -1.7892531 -5.495956e-05
2.7630439 -0.33922473 2.389987e-05 -0.15099144 0.81734633 0.06845422 0.72366023 -0.83351403
0.0008967162 0.08673906 0.26972118 -6.6570945e-05 -0.8905893 0.12711066 -0.12843142 -0.41326562

layers.0.fc_self.bias f4 [64]
00000000: 7e9b ed3d b9f3 a4bc b134 f93e 8707 813e
00000010: 9901 aa3f f02e 1ac0 69f6 573d 40b7 f8b9
00000020: 759f 86be 0741 9e3f 4691 77be 6390 2ec0
00000030: 0ee3 8d3e 8ad9 383e 4f82 0dc0 04db dd3f
00000040: 38cd 963e e868 813e 61ae 863f 2a67 75bd
00000050: 8a7b b6be 4ca9 7bbe 830b 8e3e 7168 0596
00000060: 9585 aa3e b47c 323f b136 db3f 42ca 6a3d
00000070: 72c9 ba3c 75dc 19c0 3875 2e3e 1011 19bf
00000080: eaa7 72bf 06c0 a398 1d3a 47bc e055 9e3e
00000090: bcd4 a3be a226 f6bf 2cc8 c9be bfb2 aa3f
000000a0: fd00 943e 1913 e4bd bd30 2d3e db1f 6dbe
000000b0: a6e8 5e3f 47ef 1f3f 8442 f83e 2420 cb3e
000000c0: 0af2 193e ebad f1bf dbf6 853e 584c eb3e
000000d0: 316d 09bf a935 19c0 414f ab3e 931b 1fbf
000000e0: 4af1 0140 403f 25c0 9e99 3e3e e51d 0240
000000f0: fefc c43e 9c5d 34be 095f 3abe f769 8f3f
0.116019234 -0.020135747 0.48673013 0.25201055 1.3281738 -2.4091148 0.05272523 -0.00047438778
-0.2629353 1.2363595 -0.24176511 -2.7275627 0.2771229 0.18051735 -2.2110784 1.7332463
0.29453444 0.2527535 1.0521966 -0.059912838 -0.35641128 -0.245763 0.27743158 -1.077661e-25
0.3330504 0.6972153 1.7126065 0.057321794 0.022801135 -2.4040806 0.17036903 -0.5979166
-0.94787467 -4.2328407e-24 -0.012159851 0.30924892 -0.3199824 -1.923054 -0.39410532 1.3335799
0.28907004 -0.11136455 0.16913123 -0.23156683 0.87073743 0.62474483 0.48488247 0.3967296
0.15033737 -1.88812 0.26164898 0.45956683 -0.5368224 -2.3939002 0.33458903 -0.6215145
2.030352 -2.5819855 0.18613288 2.0330746 0.38474268 -0.17613834 -0.18200316 1.1204213

layers.1.fc_neigh.weight f4 [1, 64]
00000000: e24d 15bf 0e27 873c 0a23 f93e 6122 353d
00000010: 2819 8fbe 17fb 5cbf e134 a9be 31e4 263f
00000020: ae45 b5be 0c20 0e3d 5bba c73e 6605 91be
00000030: 8821 e73d e439 c73d bf05 96bf b47c 2cbe
00000040: 6119 2d3e d790 53be 6d94 a23c c418 d83b
00000050: 57a4 e3be 0a31 6fbf 8b4d 2abe 78a9 089b
00000060: cd9e 9f3e 2f1c 0b3b 9556 35bd 0ecf eb3c
00000070: 9d1a 273e f6f9 02c0 ba8d 97be 0b68 c9bc
00000080: 8519 1cbf 2111 9199 bb85 f33e 667f c4bd
00000090: 8c26 fa3e dc66 c8bd ca04 1abf 632c acbf
000000a0: 13ae 42bf 21ce 0b3f 1701 39bf cd53 e33f
000000b0: 6fdf 00be 6921 8fbe 43eb d7be 1d17 453e
000000c0: 4512 173f c8f4 acc0 3ea5 923e 1122 893b
000000d0: c6a9 213d e3f7 31c0 4e93 033e 61cd bd3b
000000e0: d6e1 f8bc 3e9c 9cc0 d4f9 183c 321e 01be
000000f0: 96a8 fb3e f8c4 833b e1d4 9b3e 0f8f 4cbf
-0.58321965 0.016498115 0.48659545 0.04422224 -0.2794888 -0.8632063 -0.33048156 0.6519194
-0.35404724 0.03469853 0.39009365 -0.2832443 0.112856925 0.09727839 -1.1720504 -0.16844445
0.16904213 -0.20660721 0.019846166 0.006594749 -0.4446132 -0.934342 -0.16631143 -1.1304415e-22
0.31175843 0.0021226516 -0.044272024 0.028785255 0.16318746 -2.0465064 -0.29600316 -0.024585744
-0.6097644 -1.4999567e-23 0.47562966 -0.09594612 0.48857534 -0.09785244 -0.6016356 -1.3451046
-0.76046866 0.546114 -0.7226729 1.7759949 -0.12585233 -0.27955177 -0.42171678 0.19247098
0.5901225 -5.4048805 0.28641695 0.0041849692 0.03946855 -2.7807548 0.12849161 0.0057923053
-0.030381124 -4.8940725 0.009336907 -0.12609175 0.49152058 0.0040212832 0.3043585 -0.7990579

layers.1.fc_self.weight f4 [1, 64]
00000000: 1b84 f8bd 0c0e 273c d66c 29be 3ea4 d43c
00000010: e606 93c0 06a9 91bf 27e8 673e 0e43 fdbf
00000020: d797 4bbf 5aa6 4ebf f6b3 63bf 617a 95be
00000030: 5132 8f3d f531 f93d bd5b 66bf 05c5 85c0
00000040: 6391 5abd 5022 a5bf 55b7 dfbe d257 563b
00000050: 6ee6 8dbd 1124 39bf 8d87 a7bf 14f7 2f9b
00000060: 42dd 863d 3e70 07c0 5943 50c0 ff45 8e3c
00000070: 4d7f 6c3e fbf3 13c0 cf8d 8cbf e4e2 1b3f
00000080: 7f05 2abf f325 4199 d0e9 4b3e 66f5 84bf
00000090: 4f48 743e 5e80 24bc 3fc8 4abe 9c93 88bf
000000a0: 73f2 90c0 3a02 3dbf 01cf 0abe fe25 643e
000000b0: 263a 4cbd 47b2 1cbe b887 63be 2449 7b3d
000000c0: 0ef1 a83e 5c5b 8ac0 1bc9 e3bf 5666 c5bf
000000d0: 6c35 543e 9ddd 66c0 05f4 aa3d 94b0 8f3b
000000e0: 7829 c4be fd44 b9c0 8fab 1c3b 9681 22bf
000000f0: 1e79 1b3f 99f5 193b e00c 67bc b0ea 0ec0
-0.12134572 0.01019622 -0.16545424 0.025957223 -4.594592 -1.1379707 0.22647153 -1.9786088
-0.79528564 -0.8072258 -0.88946474 -0.2919493 0.06992019 0.12167732 -0.8998373 -4.1803
-0.053361308 -1.2901096 -0.4369456 0.0032706154 -0.069287166 -0.7232066 -1.3088242 -1.4555496e-22
0.0658517 -2.1162257 -3.2541106 0.017367361 0.23095436 -2.3117664 -1.0980777 0.6089308
-0.66414636 -9.98553e-24 0.19913411 -1.038739 0.23855709 -0.010040371 -0.1980295 -1.0670047
-4.529596 -0.7383152 -0.13555528 0.22280118 -0.049860142 -0.15302382 -0.22219741 0.06134905
0.3299641 -4.3236523 -1.7795748 -1.5421855 0.20723504 -3.6072762 0.08347324 0.0043850634
-0.38312888 -5.7896714 0.0023905968 -0.6347898 0.60731685 0.0023492335 -0.014102191 -2.2330742
