N0-Noise/weight_9/best_model_no_noisse_weight_9.pth (torch, 8135 bytes, 5 tensors)

layers.0.fc_neigh.weight f4 [64, 9]
0	0xbebd0481	-0.369175
1	0x3f26346b	0.64923733
2	0x3debbad1	0.11510242
3	0xbf2488ac	-0.64271045
4	0xbf3babc5	-0.73308975
5	0xbd1ed2d9	-0.0387753
6	0xbeaad9c3	-0.33369264
7	0x3d2caa2a	0.04215447
8	0x0033507a	4.71248e-39
9	0xbfff4d57	-1.9945477
10	0x3eea9b7d	0.45821753
11	0x3e80875b	0.25103268
12	0x3f2f8881	0.68567663
13	0x3c8f6082	0.017502073
14	0xbb70082a	-0.003662596
15	0xbfe8c50f	-1.8185138
16	0x3f8fc9a0	1.1233406
17	0x000b6cea	1.049261e-39
18	0x3f937d33	1.1522583
19	0xbf1a83f8	-0.6035762
20	0xb930a9ec	-0.00016847969
21	0xbeaea195	-0.34107652
22	0xbf94e1dc	-1.1631427
23	0xb9b1ca0c	-0.00033910607
24	0x3e47b6a1	0.19503261
25	0xbd6d6d23	-0.05796541
26	0x00241560	3.313746e-39
27	0x3e99bd81	0.30027393
28	0x3e33632b	0.17518298
29	0xbf4d1fdd	-0.80126745
30	0x3efcaf85	0.4935266
31	0xbf23ffbf	-0.6406211
32	0x3ea57278	0.32313895
33	0xbea8813d	-0.329111
34	0x3edd49a6	0.43220252
35	0x001de312	2.744687e-39
36	0xbda58443	-0.080818675
37	0x3e5d8461	0.2163253
38	0x3c62aec1	0.01383561
39	0x3b4bb56d	0.003108348
40	0xc045dc9e	-3.0915904
41	0x392d2805	0.00016513474
42	0x3f63fb70	0.8905554
43	0x3eaac71a	0.33355027
44	0x80268143	-3.536119e-39
45	0xbe085d5b	-0.13316862
46	0x3db148e9	0.08656485
47	0xbe6f0b6c	-0.23344201
48	0x3da963b1	0.08270968
49	0xbee526fc	-0.44756305
50	0xb90a79be	-0.00013206058
51	0xbf11bec1	-0.5693169
52	0xbfd81bbb	-1.6883463
53	0x803c58ae	-5.541942e-39
54	0xbeab13b7	-0.3341348
55	0xbf4290cd	-0.760022
56	0x3d301d5a	0.04299674
57	0xbe4a5bed	-0.1976163
58	0x3eb31f18	0.3498466
59	0xbd31c654	-0.04340203
60	0x3f092e1f	0.53586
61	0xbe2b5ab7	-0.16733824
62	0x80235f90	-3.248524e-39
63	0x3e923e51	0.2856317
64	0xbf6a5a7d	-0.91544324
65	0x3b81c133	0.0039597987
66	0x3e0eefed	0.13958712
67	0xbe4e14f3	-0.20125179
68	0x396e9e74	0.00022756477
69	0x3d9e0679	0.07716078
70	0xbd820028	-0.06347686
71	0x000d848d	1.241412e-39
72	0xbf1caa08	-0.6119695
73	0xbf86a8b7	-1.0520238
74	0x3df96adc	0.12178585
75	0xbd94e3fe	-0.072700486
76	0xbed3b301	-0.41347507
77	0x3df872d9	0.121312805
78	0xbe7e0be4	-0.24809223
79	0xbbe5039f	-0.006988957
80	0x8022dd5a	-3.201813e-39
81	0xbd79834a	-0.060916223
82	0xbee8e6ae	-0.45488495
83	0x3ca12f9a	0.019676019
84	0xbe8f3788	-0.27972054
85	0xbe58fc79	-0.2119006
86	0xbf3f5a93	-0.7474758
87	0x3e51f99a	0.20505372
88	0x3f242217	0.64114517
89	0x000f3477	1.396353e-39
90	0xbea399e6	-0.31953353
91	0xbe807d7f	-0.25095746
92	0x3d714447	0.058903005
93	0x3e01488c	0.1262533
94	0xbf9aee4b	-1.2103971
95	0xbe8012ca	-0.25014335
96	0x3ecb76bb	0.39739022
97	0x3ca94a33	0.020665264
98	0x000bf218	1.097037e-39
99	0xbcbce1f3	-0.02305696
100	0xbfae0b9e	-1.3597295
101	0xbf6ea854	-0.932256
102	0xbd6c3d43	-0.05767561
103	0x3e8df91f	0.27729127
104	0x3e0dc725	0.13845499
105	0xbd920b65	-0.071310796
106	0xbd9b7239	-0.075901456
107	0x001cad0e	2.633474e-39
108	0xbe88008f	-0.26562926
109	0xbece0a02	-0.4024201
110	0x3c3510f7	0.011051408
111	0x3e5aaa8a	0.21354118
112	0xbf27e171	-0.6557837
113	0x3de55a6d	0.11198888
114	0xbf004a33	-0.5011322
115	0x3f319156	0.6936239
116	0x80026180	-2.18647e-40
117	0x3ce8c0c4	0.02841223
118	0x3f977330	1.1832027
119	0xbd1c8330	-0.038211048
120	0x3f52d931	0.8236266
121	0x3f26a05f	0.65088457
122	0x3c2e6c08	0.010645874
123	0xbea83fe4	-0.32861245
124	0x3ee0ccbe	0.43906206
125	0x801c2772	-2.585544e-39
126	0xbf09f612	-0.538911
127	0xbea1cac7	-0.3160002
128	0xbecd2a66	-0.4007141
129	0xbdf993e9	-0.12186415
130	0x3e2af6c2	0.16695693
131	0x3d51d48f	0.051228102
132	0xbf9e2524	-1.2355084
133	0xc04f1184	-3.235444
134	0x8034ef69	-4.86133e-39
135	0xbd60d944	-0.0548947
136	0x3ea08c49	0.3135703
137	0x3c724ca5	0.014788781
138	0x3e573514	0.21016341
139	0xc023d13e	-2.5596461
140	0xb9871569	-0.00025765158
141	0xbf4a42ad	-0.7900799
142	0x3f6c740a	0.9236456
143	0x8026b2ba	-3.553864e-39
144	0x3e5eaf4a	0.21746555
145	0x3f49d0f2	0.7883445
146	0x3d736b1e	0.059428327
147	0xbea1368f	-0.31486937
148	0xbd954e8a	-0.07290371
149	0x3e8ae181	0.2712517
150	0xbe62b36b	-0.22138755
151	0xbe4a2b47	-0.19743071
152	0x001e35b7	2.774334e-39
153	0xbd883c8c	-0.066521734
154	0xbff0d8e5	-1.8816191
155	0x3db63917	0.08897608
156	0xbf359eae	-0.7094525
157	0x3ec7fdd7	0.39060852
158	0xbe0fe098	-0.1405052
159	0x3d88e62b	0.06684526
160	0x3f191907	0.59803814
161	0x803fef56	-5.871494e-39
162	0xbe880537	-0.2656648
163	0xbe62bcc3	-0.2214232
164	0x3d4760b8	0.048676223
165	0xbe98ea31	-0.29866174
166	0xbf9535f5	-1.1657091
167	0xbea54fc6	-0.32287425
168	0x3c7d6de6	0.015468096
169	0xbef3a2b0	-0.47585058
170	0x8020ab78	-3.000247e-39
171	0xbfedbdf3	-1.8573593
172	0x3f59acdd	0.85029393
173	0x3ee67069	0.45007637
174	0x3fa3c3cb	1.2794126
175	0x3c9a282a	0.01881798
176	0xbb8577c8	-0.004073117
177	0xbff29147	-1.8950585
178	0x3f2c89d2	0.673978
179	0x002a0054	3.857209e-39
180	0x3e0501ad	0.1298892
181	0x3e7b1701	0.24520494
182	0xbd406708	-0.04697326
183	0xbf1e3019	-0.6179214
184	0x3ebbf43b	0.3670977
185	0x3deddc2e	0.116142616
186	0x3e7142b6	0.23560604
187	0xbc47cc7c	-0.012194749
188	0x00257bf8	3.442385e-39
189	0x3ef5678d	0.47930565
190	0xbff3e2a8	-1.9053545
191	0x3cf0fd8e	0.02941778
192	0xbf5a3bf5	-0.8524774
193	0x3eb95f47	0.36205503
194	0xbb9e7cf7	-0.0048366743
195	0x3f56b537	0.8387026
196	0xbe666dfe	-0.22502896
197	0x803c3f97	-5.532942e-39
198	0x3d1c5656	0.038168274
199	0x3f34efcc	0.706784
200	0x3b7c6a83	0.0038515634
201	0xbea39188	-0.3194697
202	0xbfe2ba4a	-1.7713101
203	0xba6e8ab7	-0.00090996496
204	0x3e2ecb0a	0.17069641
205	0x3f52ce9b	0.82346505
206	0x0043b3aa	6.21743e-39
207	0x8c026348	-1.0044712e-31
208	0x8c806bd2	-1.9786415e-31
209	0x8ce0e9d2	-3.465339e-31
210	0x8d8f542c	-8.833319e-31
211	0x8d03f112	-4.065767e-31
212	0x90ae1632	-6.8665096e-29
213	0x8ab53d2d	-1.7452678e-32
214	0x8abed1fa	-1.8375319e-32
215	0x000291fa	2.36038e-40
216	0xbd3d0ce1	-0.04615486
217	0x3fb5cd8f	1.4203357
218	0x3c53be63	0.01292381
219	0xbe30a8e0	-0.1725192
220	0xbebfa0cb	-0.37427363
221	0xbb0b8f14	-0.0021294998
222	0xbff3e4d2	-1.9054205
223	0x3f8d6ea2	1.1049387
224	0x80292377	-3.777978e-39
225	0xbe18af71	-0.14910676
226	0xbe76e68e	-0.24111387
227	0x3acb2d23	0.0015501123
228	0x3d4ac9b5	0.04950877
229	0x3e3ca026	0.18420467
230	0xbde9248d	-0.11383925
231	0x3e5ddf6b	0.21667258
232	0x3e07ffcd	0.13281174
233	0x802578df	-3.441274e-39
234	0x3d943144	0.07235959
235	0xbcced674	-0.025248744
236	0x3c594789	0.013261684
237	0x3ea42b69	0.3206437
238	0xbeb31212	-0.34974724
239	0xb9705cce	-0.00022922756
240	0x3e2c87a6	0.16848621
241	0x3eb6f941	0.3573704
242	0x80204b1b	-2.965679e-39
243	0xc003e383	-2.0607612
244	0x3f000a60	0.5001583
245	0x3e314691	0.17312075
246	0x3ed2e1de	0.41187948
247	0xbe3964e6	-0.18104896
248	0xbb185cc7	-0.002324866
249	0xc00bfb0b	-2.1871974
250	0x3f89c9fe	1.0764768
251	0x0002a3e5	2.42465e-40
252	0xbd21a4b2	-0.039463706
253	0x3eba1b7f	0.36349103
254	0x3e1e28f8	0.15445316
255	0xbeab0bb5	-0.3340737

layers.0.fc_self.weight f4 [64, 9]
0	0xbd2cb896	-0.042168222
1	0xbe551f7a	-0.20812789
2	0xbf3be8b8	-0.73401976
3	0xbf2d3be0	-0.67669487
4	0xbd7367d9	-0.05942521
5	0xbc815bf1	-0.015790911
6	0x00292038	3.776813e-39
7	0x003b2f33	5.435226e-39
8	0x00169da2	2.076929e-39
9	0xbee141da	-0.43995553
10	0x3e6fff3d	0.2343721
11	0x3d980919	0.0742361
12	0x3fa47216	1.2847316
13	0xbf0d4e93	-0.5519802
14	0x3aad9bb4	0.0013245256
15	0x3d4be202	0.049776085
16	0x3e2fc74a	0.17165866
17	0xb691fec8	-4.350997e-06
18	0xbe8bc34d	-0.2729744
19	0x3f8e3953	1.1111244
20	0x3ac9346a	0.0015350704
21	0xbf2300c8	-0.6367307
22	0xbf68e4c8	-0.9097409
23	0x39513239	0.00019950503
24	0xbda05180	-0.07828045
25	0xbef177b2	-0.47161633
26	0x3a53123a	0.0008051727
27	0xbe43a62b	-0.19106357
28	0x3fc04ca1	1.5023385
29	0xbc814c4f	-0.015783457
30	0xbd1dcaaf	-0.038523372
31	0xbefe36a4	-0.49651062
32	0xbe9f9372	-0.3116718
33	0x3d805f33	0.06268158
34	0x3db00e93	0.0859653
35	0xb8d79278	-0.00010279281
36	0xbdd5c550	-0.10438025
37	0x3d572339	0.052523825
38	0x3b22f504	0.002486528
39	0x3d80d1df	0.0629003
40	0xc01834a9	-2.3782141
41	0xb94ab1eb	-0.00019330501
42	0xbe8de61d	-0.27714625
43	0xbf969716	-1.1764858
44	0x35a89699	1.2560805e-06
45	0x3d0415ec	0.03224747
46	0xbd504f6f	-0.050857004
47	0xbc3a88e4	-0.011385176
48	0xbd86bfa1	-0.06579519
49	0x3f4aa490	0.7915735
50	0x39263bf4	0.00015853328
51	0x0011c21a	1.630834e-39
52	0x001b4564	2.504451e-39
53	0x0041b062	6.032581e-39
54	0xbea74a61	-0.32673934
55	0xbea4ea9a	-0.32210237
56	0x3c328dea	0.010898093
57	0xbeba2c99	-0.3636215
58	0x3f1aec4a	0.605168
59	0xb89f721a	-7.602964e-05
60	0xbe78ec72	-0.24308947
61	0xbe351ce1	-0.17686798
62	0x3a6623ed	0.0008779157
63	0x3eef6bce	0.46761936
64	0xbe9398ae	-0.28827423
65	0x3bdbd907	0.0067092213
66	0xbe909904	-0.28241742
67	0x3d8ea41e	0.069648966
68	0xba46b17d	-0.00075795484
69	0x3f2ee9db	0.68325585
70	0x3e5f4c58	0.21806467
71	0x390faf54	0.00013702858
72	0xbeff3b36	-0.49849862
73	0xbe8297f2	-0.2550655
74	0xbed269af	-0.41096255
75	0xbe8c3dbc	-0.2739085
76	0xbe414329	-0.18873276
77	0xbdff2641	-0.12458468
78	0x802665b3	-3.526232e-39
79	0x80084c32	-7.62018e-40
80	0x8017f602	-2.200467e-39
81	0x3d0d231d	0.034457315
82	0x3ece1a9d	0.4025468
83	0x3bb6d5a6	0.005579668
84	0xbc9ee2ce	-0.019395258
85	0xbd2df777	-0.04247233
86	0xbc1bd4aa	-0.009511152
87	0x3ea272e1	0.3172827
88	0x3ef4d94c	0.47822034
89	0x3ade264d	0.001694867
90	0xbf276bb9	-0.65398747
91	0x3de19105	0.110139884
92	0x3c451f76	0.012031427
93	0x3ce5aa0c	0.028035186
94	0xbeccb8a9	-0.39984635
95	0xbafe71c5	-0.0019412568
96	0x000a2c96	9.3435e-40
97	0x8021f1a4	-3.117256e-39
98	0x803f1daa	-5.796278e-39
99	0xbeb93e97	-0.36180565
100	0xbf8c995c	-1.0984302
101	0x3d0eac70	0.034832418
102	0x3da68266	0.0813034
103	0x3f757cb5	0.9589341
104	0xbe0ca303	-0.13734059
105	0x00044764	3.92952e-40
106	0x0031d418	4.576024e-39
107	0x8019bde1	-2.364003e-39
108	0xbea078b8	-0.313421
109	0x3faf8d14	1.3714929
110	0x3cb23623	0.02175433
111	0xbda71178	-0.08157629
112	0xbe9dd8b3	-0.3082939
113	0xbddc0788	-0.10743624
114	0xbd0e62fe	-0.034762375
115	0xbde15ee3	-0.11004426
116	0xb9adf84f	-0.00033182136
117	0xbe6fff0d	-0.23437138
118	0x3ef3abef	0.47592112
119	0x3dcbfc3a	0.09960218
120	0x3e61342b	0.21992557
121	0x3e8eba78	0.2787664
122	0xbe29d97c	-0.1658687
123	0xbda9511c	-0.082674235
124	0x3dc6b151	0.09701789
125	0xba318f39	-0.0006773356
126	0x3f69a8ad	0.91273004
127	0xbe80921e	-0.2511148
128	0xbe83afbe	-0.25720018
129	0x3db3d4e2	0.087808385
130	0x3de22f25	0.11044148
131	0xbd54e69e	-0.051977746
132	0xbdc26090	-0.09491074
133	0xbda60f14	-0.08108345
134	0xbb3cad27	-0.002878973
135	0x3da4a683	0.08039572
136	0x3da44710	0.080213666
137	0x3bdcd2d3	0.0067389994
138	0xbe13e22a	-0.14441743
139	0xc0106746	-2.2563033
140	0x38d3cb91	0.00010099181
141	0xbf031892	-0.51209366
142	0xbf628f5a	-0.8849999
143	0x378aa30b	1.6526805e-05
144	0x3e8b7bfa	0.27243024
145	0x3f5daaa0	0.8658848
146	0xbb8a8364	-0.0042270888
147	0xbf5bb7f8	-0.8582759
148	0x3d46bd6c	0.04852049
149	0xbe8590eb	-0.26087126
150	0x3d622fc9	0.055221353
151	0xbe5f4d71	-0.21806885
152	0x39a2247f	0.0003092624
153	0x3e2d8723	0.16946082
154	0xbf216aff	-0.6305389
155	0xba4027a2	-0.00073301245
156	0x3ecd0533	0.4004303
157	0xbe89a55f	-0.2688398
158	0x39e3db7b	0.0004346034
159	0x3d0f6397	0.035007086
160	0xbe88d4b6	-0.26724786
161	0x3b6fdad7	0.0036598945
162	0xbf848cde	-1.0355489
163	0x3e6c6732	0.23086241
164	0xbf2c0416	-0.67193735
165	0xbf08a619	-0.53378445
166	0xbe2b8248	-0.16748917
167	0x3b128691	0.002235804
168	0xbd9d1c49	-0.076714106
169	0x3e73dd40	0.23814869
170	0x0018fddb	2.295118e-39
171	0xbf3ead5e	-0.7448329
172	0x3f878c3e	1.0589674
173	0x3dea1528	0.114298165
174	0x3fc71e20	1.5556068
175	0xbf0a8e1a	-0.5412308
176	0x395b06d0	0.00020888005
177	0xbc4f19de	-0.012640445
178	0x3dbb3a65	0.09141997
179	0xb856a59b	-5.1175808e-05
180	0xbf235636	-0.6380342
181	0x3e90b4cf	0.28262946
182	0x3cd57365	0.026056001
183	0xbeff7c5a	-0.4989956
184	0x3ef531bd	0.4788951
185	0xbde39c83	-0.111138366
186	0xbf7b0baf	-0.980647
187	0x003dcde1	5.675821e-39
188	0x000d7c3f	1.238433e-39
189	0xbe5b1165	-0.21393354
190	0xbed96cf2	-0.4246593
191	0x3c251048	0.0100746825
192	0xbda92fd2	-0.08261074
193	0x3f1f5ff4	0.6225579
194	0x39a249db	0.00030954074
195	0x3ee19ebd	0.4406642
196	0xbe36cf8f	-0.17852615
197	0x387b3da3	5.9900467e-05
198	0x3cdc4555	0.026888529
199	0xbe530b31	-0.20609738
200	0x3bc6a696	0.006062339
201	0x3e87b40f	0.2650456
202	0xbfb5ee8f	-1.4213427
203	0xba2de44e	-0.00066334463
204	0x3c18ef1e	0.009334354
205	0xbeb66f8e	-0.35631984
206	0x3b2daa38	0.0026499163
207	0x8bed371b	-9.137199e-32
208	0x8c9ecec5	-2.44682e-31
209	0x8cbb04d1	-2.881481e-31
210	0x8dc31862	-1.2023673e-30
211	0x8d365463	-5.6184657e-31
212	0x910ab305	-1.0941445e-28
213	0x898f1da6	-3.445388e-33
214	0x899cdc0b	-3.776256e-33
215	0x0041bab8	6.03629e-39
216	0xbf8a89f2	-1.0823348
217	0xbef92a25	-0.48664966
218	0xbdbb1e4e	-0.091366395
219	0x3e7f52e6	0.24933967
220	0x3d5e15c3	0.054219972
221	0x3a229f91	0.0006203587
222	0xbe205b15	-0.15659745
223	0xbdecd476	-0.11563961
224	0xb9c30047	-0.00037193505
225	0x3d8128ba	0.06306596
226	0x3db8df14	0.09026924
227	0x3cc5d9ed	0.024151767
228	0x3dc2f596	0.09519498
229	0x3eca2fdc	0.3948964
230	0xbdf4613a	-0.11932607
231	0x3e80cba6	0.2515537
232	0x3f33ffcb	0.70312184
233	0x3b3f958c	0.0029233424
234	0x3d014e01	0.03156853
235	0x3c3f411d	0.011673239
236	0x3c336e2f	0.010951563
237	0xbe7a5edd	-0.2445025
238	0xbf87f728	-1.0622301
239	0x37a5d68d	1.976944e-05
240	0x40101b96	2.2516837
241	0x3e3a88be	0.18216226
242	0x38ecab79	0.00011285296
243	0xbec7b28b	-0.39003405
244	0x3f7ceba1	0.9879704
245	0x3d8f1643	0.06986668
246	0x3f63772d	0.8885372
247	0xbf2cbdd1	-0.67477137
248	0x3ac4420b	0.0014973296
249	0x3da143ef	0.078742854
250	0x3e6bcb38	0.2302674
251	0xb8f7cec9	-0.000118163945
252	0xbf5e1ce5	-0.8676284
253	0x3ddbb75a	0.10728331
254	0xba5e2688	-0.00084743695
255	0xbed4cb04	-0.4156114

layers.0.fc_self.bias f4 [64]
0	0xbeeca8a7	-0.46222422
1	0xba39856f	-0.0007077073
2	0x3f28c7d1	0.65929896
3	0x3e942058	0.28930926
4	0x3fd1d891	1.6394216
5	0xc0253095	-2.5810902
6	0x3e34a002	0.17639163
7	0xbd3bcec5	-0.045851488
8	0xbea38af2	-0.31941944
9	0x3f868ec0	1.0512314
10	0xbe9d2dac	-0.30698907
11	0xc02e43ba	-2.7228837
12	0x3e8b67fb	0.27227768
13	0x3e573dab	0.21019618
14	0x3e120b22	0.1426206
15	0x3fcd7111	1.605013
16	0x3e8bafac	0.27282465
17	0x3efa0ce7	0.4883797
18	0xbda4e283	-0.08051016
19	0x3d582da9	0.05277792
20	0xbe64fb75	-0.22361548
21	0xbe73a828	-0.23794615
22	0x3f252140	0.6450386
23	0x8c47fd65	-1.5406656e-31
24	0x3e98ae06	0.2982027
25	0x3f3863ea	0.72027457
26	0x3fbad6b9	1.4596778
27	0x3c8b4c12	0.017004047
28	0x3d0949cb	0.03351764
29	0xc0172576	-2.3616614
30	0x3e7e7a21	0.24851276
31	0xbf3683e9	-0.7129503
32	0x3e8e49e0	0.27790737
33	0x3e5f6ab4	0.21818048
34	0xbd3fd83e	-0.046837084
35	0x3ee14b0b	0.44002566
36	0xbea2175f	-0.31658456
37	0xc0129256	-2.2901816
38	0x3c25feaf	0.010131522
39	0x3ef487c8	0.47759843
40	0x3ec630c7	0.3870909
41	0x3e1b5d18	0.15172231
42	0x3e38c0cc	0.18042296
43	0xbddbba8b	-0.107289396
44	0x3f58cf88	0.8469167
45	0x3e0184dc	0.12648338
46	0xbe4e1e9b	-0.20128863
47	0x3eb7b0f7	0.358772
48	0x3dc381eb	0.09546264
49	0xbff2651f	-1.893711
50	0x3dd9b989	0.10631091
51	0x3ed542d2	0.41652542
52	0xbeefbf3a	-0.46825582
53	0xc01a166e	-2.407619
54	0x3e885929	0.26630524
55	0xbf095b06	-0.53654516
56	0x3ffcda15	1.9754053
57	0xc01e83d7	-2.4767969
58	0x3e8e4c3a	0.2779253
59	0x3ffefc80	1.9920807
60	0x3eb0f4f6	0.3456189
61	0x3f3d21aa	0.7387949
62	0x3c2425cd	0.010018778
63	0x3f8afdfe	1.0858762

layers.1.fc_neigh.weight f4 [1, 64]
0	0x3e13838d	0.14405651
1	0x3c6d8f63	0.014499518
2	0x3ee2b694	0.4427992
3	0x3d3a63a7	0.045505192
4	0xbe663b54	-0.2248357
5	0xbf890767	-1.0705384
6	0xbf174054	-0.5908253
7	0xbdfe7d21	-0.1242621
8	0xbe9cc47d	-0.3061866
9	0x3d342ef9	0.04399011
10	0x3e86224e	0.26198047
11	0xbe66e7cd	-0.22549362
12	0x3dff30b1	0.12460459
13	0x3d877d6b	0.066157185
14	0x3f5af5aa	0.85531104
15	0xbe27ba00	-0.16379547
16	0x3e315959	0.1731924
17	0xbdcae269	-0.099064656
18	0x3e29f5b3	0.16597633
19	0x3c0bb5a9	0.008527198
20	0xbea2e328	-0.3181393
21	0xbf5c599f	-0.8607425
22	0xbe60ad81	-0.21941186
23	0x8d8027c1	-7.898179e-31
24	0x3e958fa7	0.2921116
25	0x3bcc4e5f	0.0062349285
26	0xbc4ddaac	-0.0125643425
27	0x3caf68fb	0.021412363
28	0x3e402bcf	0.18766712
29	0xbff179ef	-1.8865336
30	0xbe52e0a4	-0.20593506
31	0xbd5e7686	-0.05431225
32	0x3b7f49ae	0.0038953829
33	0x3e301681	0.17196085
34	0x3ef5cb36	0.480066
35	0xbd92ba98	-0.07164496
36	0x3e8d0dc5	0.27549568
37	0xbe46c9c7	-0.1941291
38	0xbe9b6410	-0.3034978
39	0x3e8df444	0.27725422
40	0xbf4011ef	-0.75027364
41	0x3d3607b3	0.044440936
42	0xbf755fce	-0.9584931
43	0x3fc6bff3	1.5527328
44	0xbdde642f	-0.10858952
45	0xbf0d8ece	-0.5529603
46	0xbf03c42c	-0.5147121
47	0x3e3e6547	0.18593322
48	0x3f3badaf	0.73311895
49	0xc0aa3ab9	-5.3196683
50	0x3ed70b1d	0.42000666
51	0xbbb9a38b	-0.005665248
52	0x3ceb3d33	0.028715705
53	0xc026e9ef	-2.6080282
54	0x3de53f03	0.11193659
55	0x3c0aa41e	0.00846198
56	0xbcc470a3	-0.02397949
57	0xc0bddb18	-5.932995
58	0x3c1cce03	0.009570601
59	0xbf2b6306	-0.6694797
60	0x3eebf97d	0.46088782
61	0xbab9fe73	-0.0014190212
62	0x3e5f1037	0.21783529
63	0xbeec3e6a	-0.46141368

layers.1.fc_self.weight f4 [1, 64]
0	0x3f0f15f7	0.5589289
1	0x3c1a1c4b	0.00940616
2	0xbe58a8ce	-0.21158144
3	0x3ccc47d7	0.0249366
4	0xc09935c8	-4.787815
5	0xbfb36602	-1.4015505
6	0xbe07e4cd	-0.13270874
7	0xbf8db62a	-1.1071217
8	0xbf44ef67	-0.769278
9	0xbf6590f3	-0.896743
10	0xbf4cdcff	-0.80024713
11	0xbe7cd973	-0.24692325
12	0x3d9a3ae2	0.07530762
13	0x3dc86ca7	0.09786349
14	0x3f19e991	0.6012202
15	0xc06f171d	-3.7357857
16	0xbd2711f5	-0.04078861
17	0xbf9cf679	-1.2262717
18	0xbe1784d7	-0.14796768
19	0x3bb5f30e	0.005552656
20	0xbd92ae63	-0.07162168
21	0xbf0c29b0	-0.5475111
22	0xc015cdbc	-2.340682
23	0x8dddacf8	-1.3661817e-30
24	0x3dac7e12	0.084224835
25	0xbfdff257	-1.7495831
26	0xbfbfe390	-1.4991322
27	0x3c63adb6	0.013896396
28	0x3e7e2034	0.24816972
29	0xc007eaae	-2.1236987
30	0xbfd45bde	-1.6590536
31	0x3f203d8d	0.6259392
32	0xbfaf18fd	-1.3679501
33	0x3d8d2299	0.068913646
34	0x3e44e334	0.19227296
35	0xbf6a00ff	-0.9140777
36	0x3e2d8a11	0.169472
37	0xbdd17b82	-0.10228635
38	0xbdd08859	-0.10182256
39	0xbf989102	-1.1919253
40	0xc09a6d9a	-4.825879
41	0xbfb0cd1f	-1.3812598
42	0xbe8bd900	-0.27313995
43	0x3e64e3ce	0.22352526
44	0xbd5844f8	-0.05280015
45	0xbf087559	-0.5330406
46	0xbe8a7a77	-0.27046558
47	0x3ce9ff85	0.028564224
48	0x3eb1714a	0.34656745
49	0xc086e077	-4.2149005
50	0xbfc73b29	-1.5564929
51	0xbfa6fce5	-1.3045927
52	0x3e472c44	0.1945048
53	0xc05667ad	-3.3500779
54	0x3d8b8d37	0.06814044
55	0x3bdceabe	0.0067418506
56	0xbed87095	-0.42273393
57	0xc0c4911c	-6.1427135
58	0x3ae365c5	0.0017349055
59	0xbfbdc58a	-1.4825909
60	0x3f0167ef	0.50549215
61	0xbb3d08c9	-0.0028844348
62	0xbd2b240e	-0.04178243
63	0xbfb96a00	-1.4485474
