N0-Noise/weight_0/best_model_no_noisse_weight_0.pth (torch, 8135 bytes, 5 tensors)

layers.0.fc_neigh.weight f4 [64, 9]
-0.0014295051 -0.004243126 0.13438448 0.074794345 -0.021559749 -0.095409796 -0.010488822 -0.025082361
2.946844e-39 1.3247536e-06 6.8197332e-06 -0.0205361 -0.010631092 0.016284693 0.41094217 0.00057145377
0.0014944095 -4.107517e-39 -0.0046343682 -6.317644e-05 0.10273476 -4.4975015e-05 -0.00015857088 -0.30567545
-0.00016757204 -0.004202101 4.350707e-39 -5.744994e-07 -1.564698e-08 -2.1337906e-08 0.08920676 -0.024518024
0.31180966 1.7484204e-17 -1.6455382e-16 4.958738e-39 0.0020233372 0.0042815735 0.046560552 0.047485303
0.037530508 0.0782252 0.0008944363 0.0045518936 1.620659e-39 -2.4068739e-05 0.00019513596 -0.007387113
0.00023524235 -0.00014571764 -0.009491586 0.0017545052 0.0048676366 -3.85164e-40 0.044994365 0.06118322
0.0979769 0.29839206 -0.0067065354 0.18285502 0.0019045342 -0.0005474888 1.90799e-39 -4.5060548e-05
1.1713456e-06 -0.0019652438 -0.0002234029 0.0004808847 -0.00017259875 0.00016571363 0.00056664535 6.356151e-39
-0.031357784 -0.012903132 0.09904343 -0.031188954 0.03671199 0.30888033 0.00051343546 0.0006272369
-4.462981e-39 -7.2689814e-05 2.7863928e-06 -0.002145744 3.9658435e-06 -9.539633e-06 -4.2022904e-05 0.0011376829
0.003195322 -3.760425e-39 -0.03593801 0.0003867949 0.09012818 -0.043584492 -0.09754452 -0.036384087
0.00051838986 0.0017583792 -4.059741e-39 0.0058645774 -0.0007112576 0.11711162 0.0039367457 -0.06331381
0.3743597 0.00129502 0.034123875 -2.523304e-39 -0.09415845 0.063168846 -0.008958405 0.14537293
-0.12876722 0.14732152 -0.00091214146 -0.0012296904 4.938131e-39 -6.654165e-06 -3.1089402e-07 0.036003184
-1.5558184e-07 -4.2054242e-07 -1.4701901e-06 -4.619129e-05 -7.6052376e-05 -5.079855e-39 -0.008434327 0.002605139
-0.026563948 -0.120681174 0.09277633 0.06599556 -0.0005484428 -0.0012514456 -2.815434e-39 -0.00545407
0.02528455 -0.0038309975 -0.071856655 -0.26539338 -0.070965245 0.0010343407 0.0025785083 1.602914e-39
-0.00046131003 0.001126863 -0.000714973 0.29943454 0.27852285 0.3315349 -3.1392425e-10 -4.5866222e-10
-2.32612e-39 2.6733655e-06 4.3102804e-07 0.03959813 1.732648e-07 5.1366834e-07 -0.0022789517 -5.649551e-05
-0.00015952466 -7.14715e-40 0.069929086 -0.008886982 0.25523314 -0.13067909 -0.0770442 -0.20107521
-0.0027901581 -0.0054691136 -4.653376e-39 -2.706218e-05 -1.3603511e-05 -0.0015611018 -0.07252852 -0.11520085
-0.11607095 -5.698941e-05 -0.00015312993 -1.29957e-39 0.015815463 -0.0024836145 0.062156178 -0.32088235
0.11953973 0.20387894 0.0007743897 0.0022915925 4.255138e-39 -0.00010442514 -0.00046022175 0.22868837
-0.1270137 0.27632272 0.11800334 0.0006319704 0.00055924343 -2.141799e-39 1.907805e-05 0.07021702
-0.03797311 0.03133229 0.08822099 0.0127062965 0.0020833877 0.015237932 1.481041e-39 -9.382762e-23
-4.199722e-24 -4.4494405e-11 -2.3107858e-24 -3.727448e-24 -8.973312e-24 -1.3293907e-15 -6.1264474e-15 -4.920741e-39
1.4886126e-05 -2.8613407e-09 0.08314934 -5.4564197e-07 -3.4050772e-06 -7.5683274e-05 -1.5537276e-07 -2.47835e-07
1.3788e-39 2.5457313e-05 1.2534958e-05 0.0018552338 7.801921e-06 2.1702961e-05 4.621014e-05 0.0017664991
0.0044602943 -4.254027e-39 0.001085103 0.0041546277 0.0052182665 0.009179547 0.008004435 0.022313165
0.001887789 0.005146083 2.1911e-39 -0.009299615 -0.0024522652 0.16122797 -0.21717516 0.058712557
0.26727867 9.620903e-05 0.00017275134 -4.914313e-39 -0.0014792909 -2.8027498e-05 0.13394952 -8.220977e-07
00000000: 3b5e bbba ec09 8bbb 169c 093e c72d 993d
00000010: 129e b0bc 3666 c3bd 4fd9 2bbc 8679 cdbc
00000020: 9a16 2000 30ce b135 10d5 e436 533b a8bc
00000030: 082e 2ebc 7a67 853c 0367 d23e 9dcd 153a
00000040: 10e0 c33a 16ba 2c80 e6db 97bb 987d 84b8
00000050: 9a66 d23d 8ea3 3cb8 0c46 26b9 7e81 9cbe
00000060: 47b6 2fb9 c7b1 89bb 0060 2f00 4c37 1ab5
00000070: 1368 86b2 8d4a b7b2 09b2 b63d 06da c8bc
00000080: 84a5 9f3e 6943 a123 b7b7 3da5 f2fe 3500
00000090: f799 043b 714c 8c3b 47b6 3e3d f37f 423d
000000a0: 97b9 193d 8934 a03d 9b78 6a3a 0d28 953b
000000b0: bda5 1100 39e7 c9b7 699d 4c39 980f f2bb
000000c0: 63ab 7639 c8cb 18b9 9982 1bbc 6df7 e53a
000000d0: b280 9f3b ae31 0480 034c 383d 429b 7a3d
000000e0: 1da8 c83d d8c6 983e 7fc2 dbbb 593e 3b3e
000000f0: 90a1 f93a 5a85 0fba b3c6 1400 65ff 3cb8
00000100: 2137 9d35 52cb 00bb 4241 6ab9 401f fc39
00000110: a0fb 34b9 6ac3 2d39 ed8a 143a 5d36 4500
00000120: 0571 00bd a867 53bc 48d7 ca3d fa7f ffbc
00000130: 505f 163d 9025 9e3e 1298 063a 286d 243a
00000140: fa98 3080 0c71 98b8 ddfd 3a36 9c9f 0cbb
00000150: 5612 8536 690c 20b7 c041 30b8 4e1e 953a
00000160: 9b68 513b 89f2 2880 bc33 13bd bcca ca39
00000170: 2095 b83d a785 32bd 6cc5 c7bd 7b07 15bd
00000180: 8ee4 073a 6a79 e63a e834 2c80 a42b c03b
00000190: b173 3aba 38d8 ef3d d1ff 803b acaa 81bd
000001a0: 13ac bf3e a9bd a93a 7ac5 0b3d f279 1b80
000001b0: 25d6 c0bd ab5e 813d 46c6 12bc a4dc 143e
000001c0: 8edb 03be 74db 163e c71c 6fba 902d a1ba
000001d0: 80c5 3500 d846 dfb6 f3e8 a6b4 1378 133d
000001e0: 030e 27b4 e9c6 e1b4 5953 c5b5 85bd 41b8
000001f0: 4f7e 9fb8 9250 3780 2230 0abc fbba 2a3b
00000200: a39c d9bc b127 f7bd 8401 be3d ae28 873d
00000210: 60c5 0fba 8c07 a4ba 49a8 1e80 0eb8 b2bb
00000220: 8b21 cf3c 7911 7bbb 9529 93bd a4e1 87be
00000230: 3a56 91bd b792 873a 31fc 283b 4674 1100
00000240: fcdb f1b9 3fb3 933a 076d 3bba 7c4f 993e
00000250: 8c9a 8e3e f1be a93e e994 acaf f826 fcaf
00000260: 4754 1980 1268 3336 0b68 e734 a631 223d
00000270: aa0a 3a34 05e3 0935 775a 15bb 98f5 6cb8
00000280: 1346 27b9 56c8 0780 fb36 8f3d b49a 11bc
00000290: ebad 823e bdd0 05be 59c9 9dbd a9e6 4dbe
000002a0: 16db 36bb 4036 b3bb b8ab 3280 9703 e3b7
000002b0: a33a 64b7 e29d ccba d589 94bd 6cee ebbd
000002c0: 9bb6 edbd ea07 6fb8 8191 20b9 ac26 0e80
000002d0: 6e8f 813c 23c4 22bb 7a97 7e3d b14a a4be
000002e0: 3fd1 f43d a4c5 503e 6a00 4b3a 8b2e 163b
000002f0: 9855 2e00 d2fe dab8 eb49 f1b9 492d 6a3e
00000300: e10f 02be 2c7a 8d3e bcab f13d d1aa 253a
00000310: 319a 123a 7752 1780 cd09 a037 f1cd 8f3d
00000320: b189 1bbd 4a56 003d 35ad b43d 122e 503c
00000330: 7289 083b 85a8 793c 8a20 1000 7cdc e29a
00000340: 0878 a298 3fb0 43ae d4c9 3298 db32 9098
00000350: b091 2d99 dc95 bfa6 81ba dca7 0695 3580
00000360: 6dbf 7937 3da1 44b1 334a aa3d 3b78 12b5
00000370: c882 64b6 26b8 9eb8 8ad4 26b4 2f0e 85b4
00000380: 8903 0f00 2a8d d537 3c4d 5237 512b f33a
00000390: ffe4 0237 c10e b637 c3d1 4138 e089 e73a
000003a0: a927 923b 7f52 2e80 043a 8e3a 8b23 883b
000003b0: fefd aa3b d065 163c 0925 033c 19ca b63c
000003c0: b06f f73a 79a0 a83b e5db 1700 6a5d 18bc
000003d0: 2fb6 20bb f218 253e 2a63 5ebe 947c 703d
000003e0: c0d8 883e d4c3 c938 9624 3539 1b83 3580
000003f0: c4e4 c1ba 981c ebb7 102a 093e 20ae 5cb5

layers.0.fc_self.weight f4 [64, 9]
0.011067895 -0.04430494 -0.040988944 -0.17583373 0.15372327 0.035832673 -1.4632494e-06 -9.967344e-17
1.056758e-25 0.004313801 0.0018263583 0.003948594 0.12518826 -0.0058748657 0.34355736 0.059711304
0.20878465 0.0256569 -0.0104480395 0.0027581912 0.17353673 -0.0048170416 -0.056449737 0.19901589
0.009271274 0.026289457 0.0041673225 -1.4190671e-13 -5.791468e-07 0.0009005586 -0.08503414 -0.02294768
-0.30074787 0.005464485 0.01853074 0.0023723678 0.0299097 0.018707614 0.04246619 0.055822015
0.0264134 0.14046836 0.07796793 0.27864063 0.034712743 0.007104151 0.0055445614 0.033299077
-0.0033849482 0.03726102 -0.012517381 0.13038644 0.50326777 0.08196983 0.004163347 0.11239755
0.07589082 -0.027394062 0.060951997 0.12919687 0.12870343 0.3826044 0.043184932 0.0013415297
0.0007074142 0.00040783407 -0.0001776158 -0.0012961759 0.0130296 0.021979634 0.077052616 0.009289974
-0.014140287 0.0030411412 -0.10334993 -0.16988094 0.24994847 0.07147265 1.077517e-05 4.394713e-39
2.956311e-39 0.0051692487 0.0036846674 0.10654021 0.0030369135 0.001139715 -0.0072597484 0.098192886
0.28807613 0.04253127 0.0029108915 -0.0058120396 -0.006940689 -0.17801334 0.17972782 0.29814306
0.0029531321 0.0048569087 0.0012656706 0.07509801 0.041609064 -0.008368803 0.104755506 0.0041708983
0.08850514 0.13050342 0.41609263 0.04942835 -0.04910582 0.015802747 0.13854177 -0.12465469
0.30607307 -0.08938487 -8.009968e-06 4.93795e-39 -4.52616e-39 -0.00014335735 -9.422198e-05 0.085783705
-8.238762e-05 -5.5215554e-05 -0.0039004316 -2.503931e-07 3.245276e-39 8.410479e-28 -0.001211903 -0.02484264
-0.012505411 0.074709006 0.020494042 -0.006320705 -7.805871e-06 4.526229e-39 1.1639279e-22 0.016735125
-0.0015130136 0.053564742 -0.21881585 -0.124281876 0.1536375 0.10101408 0.34720108 0.05000085
-3.865284e-08 0.0003897044 0.0072429245 -0.36458084 -0.17225628 -0.23433502 0.0155762145 0.02408038
0.0046584783 -0.00026882594 -0.00019513576 0.03175831 -0.00015902167 -6.890498e-05 -0.0017764935 -6.046499e-07
-1.0352535e-13 -2.0378293e-15 -0.10328419 -0.008198836 -0.0631595 -0.3828898 -0.21154137 0.2506344
-8.673905e-07 3.2275457e-05 -1.9658431e-23 -0.00028583297 -0.00016911341 -0.0001443625 -0.012534908 -0.039069824
0.20948726 -7.3379584e-07 8.0957747e-16 9.38189e-40 -0.0031948404 0.0050903126 0.0024086614 -0.22591695
0.05271457 -0.01916582 0.09455737 0.31577545 0.03866805 0.040187635 0.00283102 -0.0036297515
0.17464997 0.33200586 0.23005088 0.021931743 0.14958064 0.006784696 0.14256884 0.0024112663
0.03693378 0.41102785 0.2139776 0.19629385 0.18002026 0.50559515 0.06611085 -2.5715975e-15
-7.073993e-15 -7.822901e-15 -6.266879e-15 -1.5637498e-15 -1.3717342e-14 -1.7762981e-15 -1.0512702e-10 -4.3821046e-14
-1.8323729e-07 -6.714632e-07 -4.6330015e-06 2.4506218e-07 2.7197457e-05 -0.013578414 -1.1535919e-06 -6.0109214e-06
-5.961275e-39 0.007545784 0.005364964 0.12621124 0.0044743856 0.0021544637 -0.0011035239 0.124907754
0.49449793 0.08074963 0.014317707 0.010010299 0.0021836974 0.026582167 0.009824232 -0.014072077
0.18020052 0.49008873 0.08041201 0.0009306224 0.009663023 0.15096873 -0.0022988745 0.19137351
0.24855252 0.0076073804 0.017824428 0.003565558 -9.592139e-12 -8.51039e-06 -0.010465028 -1.8625402e-05
00000000: 1e56 353c 1979 35bd 06e4 27bd c20d 34be
00000010: a269 1d3e 48c5 123d de64 c4b5 d0d4 e5a4
00000020: ffd1 0216 c95a 8d3b 6a62 ef3a 3563 813b
00000030: 5a31 003e f281 c0bb c0e6 af3e d793 743d
00000040: a5cb 553e 6b2e d23c 412e 2bbc c5c2 343b
00000050: 9db3 313e 46d8 9dbb d737 67bd d2ca 4b3e
00000060: 8be6 173c fd5c d73c 098e 883b d3c5 1faa
00000070: aa76 1bb5 7713 6c3a 6126 aebd c6fc bbbc
00000080: a0fb 99be 6c0f b33b c7cd 973c ba79 1b3b
00000090: 3005 f53c b640 993c 07f1 2d3d a0a5 643d
000000a0: ea60 d83c f0d6 0f3e a6ad 9f3d fca9 8e3e
000000b0: f32e 0e3d f0c9 e83b 27af b53b 9d64 083d
000000c0: 02d6 5dbb 039f 183d b415 4dbc 0684 053e
000000d0: 28d6 003f ccdf a73d b06c 883b b030 e63d
000000e0: a56c 9b3d 8369 e0bc cda8 793d 2f4c 043e
000000f0: d5ca 033e b9e4 c33e afe2 303d 44d6 af3a
00000100: c371 393a 90d2 d539 613e 3ab9 72e4 a9ba
00000110: 1a7a 553c a20e b43c c3cd 9d3d fa34 183c
00000120: aaac 67bc e24d 473b 21a9 d3bd 45f5 2dbe
00000130: 7ef2 7f3e 4160 923d 01c7 3437 acda 2f00
00000140: fe30 2000 cd62 a93b 767a 713b c131 da3d
00000150: f406 473b 7d62 953a 2fe3 edbb 5a19 c93d
00000160: b77e 933e 4535 2e3d a8c4 3e3b ec72 bebb
00000170: b86e e3bb 2149 36be 920a 383e 35a6 983e
00000180: 5689 413b b426 9f3b dce4 a53a fccc 993d
00000190: 446e 2a3d 4e1d 09bc 0e8a d63d 08ac 883b
000001a0: 2f42 b53d b0a2 053e 180a d53e 6275 4a3d
000001b0: 2f23 49bd c374 813c e5dd 0d3e f54a ffbd
000001c0: 9cb5 9c3e 6a0f b7bd 8d62 06b7 ffc4 3500
000001d0: 1849 3180 3252 16b9 0a99 c5b8 5eaf af3d
000001e0: 84c7 acb8 4097 67b8 629e 7fbb c46d 86b4
000001f0: 8256 2300 f544 8512 b8d8 9eba cb82 cbbc
00000200: 7fe3 4cbc 0901 993d 1fe3 a73c eb1d cfbb
00000210: f6f5 02b7 4949 3100 d3b5 0c1b 1a18 893c
00000220: 5050 c6ba b466 5b3d 4311 60be 7f87 febd
00000230: 2653 1d3e 78e0 ce3d 57c4 b13e b1cd 4c3d
00000240: 3f03 26b3 3d51 cc39 0e56 ed3b 57aa babe
00000250: f363 30be 85f5 6fbe 6133 7f3c 3844 c53c
00000260: 26a6 983b 35f1 8cb9 5b9d 4cb9 0015 023d
00000270: 0ebf 26b9 1481 90b8 3bd9 e8ba 3a4f 22b5
00000280: 4d1e e9a9 51d7 12a7 a986 d3bd 6954 06bc
00000290: c559 81bd 220a c4be 4d9e 58be 2753 803e
000002a0: 9fd6 68b5 825f 0738 eb1f be99 dadb 95b9
000002b0: 0954 31b9 0360 17b9 375f 4dbc ae07 20bd
000002c0: d483 563e 11fa 44b5 4658 6926 4a37 0a00
000002d0: 8760 51bb a3cc a63b a2da 1d3b c656 67be
000002e0: 3ceb 573d a301 9dbc 4ba7 c13d 52ad a13e
000002f0: 6462 1e3d ca9b 243d a288 393b 20e1 6dbb
00000300: 71d7 323e acfc a93e 7592 6b3e 33aa b33c
00000310: ab2b 193e 2852 de3b 91fd 113e 5606 1e3b
00000320: e047 173d 3e72 d23e f21c 5b3e 4101 493e
00000330: 3b57 383e af6e 013f 2065 873d 9a4d 39a7
00000340: 12de fea7 c3ec 0ca8 c2c9 e1a7 2f5c e1a6
00000350: 131c 77a8 d5fd ffa6 402d e7ae 3a5a 45a9
00000360: e2bf 44b4 9a3e 34b5 2e75 9bb6 1791 8334
00000370: 1826 e437 ff77 5ebc 1ed5 9ab5 6cb1 c9b6
00000380: 9ce9 4080 a042 f73b 94cc af3b 853d 013e
00000390: de9d 923b e731 0d3b 1ea4 90ba a3cf ff3d
000003a0: d52e fd3e 1060 a53d d194 6a3c 3d02 243c
000003b0: 5d1c 0f3b d8c2 d93c d1f5 203c 928e 66bc
000003c0: 7c86 383e e9ec fa3e 0daf a43d 03f5 733a
000003d0: a851 1e3c 8c97 1a3e b7a8 16bb 6bf7 433e
000003e0: 8d84 7e3e 5547 f93b 8904 923c 23ac 693b
000003f0: 27bf 28ad d9c7 0eb7 8275 2bbc bf3d 9cb7

layers.0.fc_self.bias f4 [64]
-0.03606204 0.25767198 0.023896819 0.020646635 0.3159821 0.53776556 0.3372671 0.08622202
-0.009140511 0.30323297 0.0042071156 0.266753 -0.005288436 -7.842097e-05 -0.00084980734 0.460695
0.029817117 -0.00015928075 -0.0064791967 -0.0001669584 0.3117183 0.055628963 0.542625 4.35009e-14
-9.453643e-06 0.5702723 0.5055992 0.014179357 -7.90821e-07 0.3861423 -0.0010050577 -0.0006647352
0.43992928 -3.084083e-07 -0.023700556 0.3522571 -5.4532285e-07 0.2995871 -0.03412089 0.56295687
-0.0008995521 0.339438 0.5394913 -0.004617392 0.05772562 -0.00017175045 -0.00068107166 3.490675e-27
0.16729163 0.5723199 0.556181 0.4375971 0.32571885 0.4358322 -3.319884e-05 0.11605854
0.49857816 0.3843188 -0.0012151424 0.45700556 0.04731147 0.12890354 -3.9663118e-07 0.54973364
00000000: cab5 13bd 95ed 833e 43c3 c33c 2223 a93c
00000010: 68c8 a13e 01ab 093f 46ae ac3e 2c95 b03d
00000020: 15c2 15bc 5a41 9b3e d8db 893b d993 883e
00000030: 9e4a adbb f075 a4b8 9bc5 5eba 37e0 eb3e
00000040: 0743 f43c 9a04 27b9 714f d4bb 8e11 2fb9
00000050: 8b99 9f3e 32db 633d 79e9 0a3f 20e9 4329
00000060: 169b 1eb7 5efd 113f f36e 013f 8950 683c
00000070: ce48 54b5 72b4 c53e 24bc 83ba a041 2eba
00000080: 693e e13e 5093 a5b4 ab27 c2bc 0b5b b43e
00000090: 4d62 12b5 7b63 993e 59c2 0bbd f11d 103f
000000a0: ebcf 6bba d1ca ad3e 1a1c 0a3f 7e4d 97bb
000000b0: b371 6c3d e917 34b9 f289 32ba a647 8a13
000000c0: 7f4e 2b3e 8f83 123f e161 0e3f ba0c e03e
000000d0: 9fc4 a63e 6625 df3e fc3e 0bb8 1ab0 ed3d
000000e0: a345 ff3e 6fc5 c43e 6a45 9fba a2fc e93e
000000f0: acc9 413d 4aff 033e 93f0 d4b4 58bb 0c3f

layers.1.fc_neigh.weight f4 [1, 64]
0.09688021 -0.20187311 0.25827235 0.042591847 -0.14819972 0.05222627 -0.6103516 0.09329982
0.2960142 0.0905372 0.22859083 -0.3501388 0.3315852 0.034803662 -0.44789627 0.31031662
0.29584602 -0.046087597 0.37205273 -0.018373424 0.28993085 -0.41562706 -0.6390029 1.2040508e-13
-0.032623783 -0.2691855 -0.19750854 0.19208123 0.11596819 -0.38428465 -0.23046105 -0.031181276
-0.072928034 -0.33282098 0.27022728 -0.3446995 0.093220785 -0.30142158 -0.3468407 -0.06401507
-0.075199656 0.08580354 -0.16246931 0.0023687657 0.22781381 -0.32062784 -0.21630603 -3.7358855e-29
-0.044700313 -0.18426876 0.17246263 0.04253805 0.19307363 -0.0665133 0.25720802 -0.19410765
-0.15573983 -0.0676666 -0.073496126 0.074797206 0.26794672 0.0028326039 0.055128254 0.026887618
00000000: 2269 c63d d3b7 4ebe 463c 843e ca74 2e3d
00000010: abc1 17be 37eb 553d 0140 1cbf fa13 bf3d
00000020: 2c8f 973e 916b b93d b713 6a3e 6545 b3be
00000030: 89c5 a93e 498e 0e3d a952 e5be d2e1 9e3e
00000040: 2179 973e 59c6 3cbd b27d be3e dd83 96bc
00000050: d171 943e 12cd d4be b295 23bf 6790 072a
00000060: 84a0 05bd afd2 89be ae3f 4abe f1b0 443e
00000070: bb80 ed3d f5c0 c4be fbfd 6bbe e06f ffbc
00000080: 4b5b 95bd 8367 aabe 3b5b 8a3e 747c b0be
00000090: 8aea be3d ee53 9abe 1b95 b1be 551a 83bd
000000a0: 4702 9abd c4b9 af3d 5b5e 26be 4b3d 1b3b
000000b0: 0648 693e 5529 a4be 547f 5dbe 916e 3d90
000000c0: ad17 37bd f3b0 3cbe 0b9a 303e 613c 2e3d
000000d0: 18b5 453e 2038 88bd c5b0 833e 28c4 46be
000000e0: 437a 1fbe c994 8abd 2385 96bd 472f 993d
000000f0: 5030 893e 35a3 393b 2ace 613d 6c43 dc3c

layers.1.fc_self.weight f4 [1, 64]
0.20989335 -0.20939511 -0.039674636 -0.020800842 -0.2823854 -0.7637982 -0.34912282 -0.0763336
-0.34150186 -0.42348403 -0.25812522 -0.40374452 0.37892446 0.0042352374 0.22135158 -0.4255587
-0.03779382 0.01712997 0.1174069 0.01770467 -0.3155505 -0.054514598 -0.6636991 2.9280389e-12
0.071146764 -0.7528322 -0.78738755 -0.050231792 0.0005409624 -0.3975096 0.10960316 0.09313114
-0.4449411 0.19471934 0.13194598 -0.31373364 0.06545802 -0.25560272 0.24798897 -0.76779
0.13452856 -0.41161796 -0.76694775 0.17569783 -0.077569425 0.042476304 0.14122017 -4.760727e-27
-0.13994628 -0.73420733 -0.769702 -0.40725967 -0.26962894 -0.4554653 0.0046359245 -0.10521369
-0.7398946 -0.3960997 0.14763959 -0.4587065 -0.027397979 -0.10310006 0.015890062 -0.59199864
00000000: 48ee 563e ac6b 56be df81 22bd 8766 aabc
00000010: d294 90be 4788 43bf 3ac0 b2be ca54 9cbd
00000020: 55d9 aebe e6d2 d8be fd28 84be 9ab7 cebe
00000030: 6302 c23e bfc7 8a3b fda9 623e d4e2 d9be
00000040: b1cd 1abd 2754 8c3c 0773 f03d 6209 913c
00000050: d68f a1be b34a 5fbd 2fe8 29bf dc0a 4e2c
00000060: 65b5 913d 9cb9 40bf 3b92 49bf dabf 4dbd
00000070: 5fcf 0d3a 6186 cbbe 9f77 e03d 8abb be3d
00000080: 52cf e3be 8264 473e d91c 073e b2a1 a0be
00000090: db0e 863d 5cde 82be d2f0 7d3e e38d 44bf
000000a0: dbc1 093e 97bf d2be b056 44bf 22ea 333e
000000b0: b8dc 9ebd a2fb 2d3d 059c 103e 8297 bc93
000000c0: 144e 0fbe 03f5 3bbf 310b 45bf 5784 d0be
000000d0: ce0c 8abe bf32 e9be f4e8 973b 467a d7bd
000000e0: bc69 3dbf 94cd cabe d52e 173e 94db eabe
000000f0: ba71 e0bc 2026 d3bd e02b 823c 398d 17bf
