N0-Noise/weight_20/best_model_no_noisse_weight_20.pth (torch, 8143 bytes, 5 tensors)

layers.0.fc_neigh.weight f4 [64, 9]
0	0xbf207923	-0.6268484
1	0xbf1eca8f	-0.6202783
2	0x3dac1601	0.084026344
3	0xbe1a51c9	-0.15070261
4	0xbe6c5c80	-0.23082161
5	0x3d684499	0.056706045
6	0xbe034070	-0.1281755
7	0xbc8e98e1	-0.017406883
8	0x0036530a	4.988906e-39
9	0xbe8add2e	-0.27121872
10	0xbf4754be	-0.7786368
11	0x3cf9a6a2	0.030474965
12	0x3e6dcc55	0.23222478
13	0x3e501d53	0.20323686
14	0xbe712be2	-0.23551896
15	0xbe28a50f	-0.16469215
16	0x3f0a5649	0.5403791
17	0x0037434f	5.075098e-39
18	0xbe84816e	-0.25879997
19	0xbfbd81d5	-1.4805247
20	0x3e050e95	0.12993844
21	0xbde1a34c	-0.110174745
22	0x3f298d30	0.6623106
23	0x3e939bc0	0.28829765
24	0x3f0c8ec4	0.54905343
25	0x3d449df0	0.048002183
26	0x803690a5	-5.011005e-39
27	0xbf8eb849	-1.1149989
28	0x3fb292b3	1.3951019
29	0x3ef48f02	0.47765356
30	0x3f2beb0d	0.67155534
31	0x3dae9265	0.08524016
32	0x3aaa6643	0.0013000447
33	0xbfc0d931	-1.5066282
34	0x3f81a884	1.0129552
35	0x803a90a0	-5.37834e-39
36	0xbf754727	-0.95811695
37	0xbf869962	-1.0515559
38	0xbfa9569e	-1.3229558
39	0xbf601908	-0.87538195
40	0xbf13b767	-0.57701725
41	0xbf4da28b	-0.80326146
42	0x3f740e02	0.95333874
43	0x3f7c6007	0.98584026
44	0x0014d881	1.914377e-39
45	0xbf8b1783	-1.086655
46	0x3fcdefb1	1.6088773
47	0x3f723edb	0.9462716
48	0x3f6dc73e	0.92882144
49	0x3ea99182	0.33118826
50	0xbb86ecab	-0.0041175685
51	0xbf76f9cd	-0.96474916
52	0x3f637028	0.8884301
53	0x80349e75	-4.83229e-39
54	0x3efc7cac	0.49313867
55	0xbf87e27d	-1.0615994
56	0x3beb5a28	0.0071823783
57	0xbc76b9df	-0.015058964
58	0x3f156c77	0.5836863
59	0xb926fbf8	-0.0001592486
60	0x3ee077dd	0.43841448
61	0x3e844681	0.2583504
62	0x8018d0ab	-2.278908e-39
63	0xbf882533	-1.0636352
64	0xbfb91c00	-1.446167
65	0x3ca7c85f	0.020481287
66	0x3ec1ed04	0.3787614
67	0x3e830edc	0.25597274
68	0x3e911afd	0.28340903
69	0x22fcc286	6.8510697e-18
70	0x22fc9b09	6.8468887e-18
71	0x804295f8	-6.114941e-39
72	0x3f2d0ff2	0.67602456
73	0x3f71db32	0.9447509
74	0x3d499386	0.049212955
75	0xbde68d12	-0.11257376
76	0xbcb5e7ea	-0.022205312
77	0xbebd2361	-0.36941054
78	0x3e02bd7b	0.12767594
79	0xbc082fb3	-0.008312154
80	0x80430c50	-6.157395e-39
81	0xbe9fb974	-0.31196177
82	0xbf2c6f1a	-0.6735703
83	0x3d2c4693	0.042059492
84	0x3ccb0cb7	0.024786336
85	0xbe4eb617	-0.2018665
86	0x3e549acb	0.20762174
87	0x3ce2880a	0.02765276
88	0x3d0f5fbe	0.035003416
89	0x8025c0d8	-3.467093e-39
90	0x3e00ecec	0.12590379
91	0x3edcd0c0	0.43128014
92	0x3dfc6d7f	0.12325572
93	0xbe824090	-0.25439882
94	0xbd8d5bb5	-0.06902257
95	0xbf3cdb8a	-0.7377249
96	0xbdfcd4cb	-0.123452745
97	0x3a0b1d00	0.00053067505
98	0x00312c99	4.515938e-39
99	0xbfc76267	-1.5576905
100	0x3fd37ce4	1.6522489
101	0x3e2fe407	0.1717683
102	0x3e86634a	0.26247627
103	0xbe3e8a12	-0.18607357
104	0x3ac415c8	0.0014960105
105	0xbfe9f915	-1.8279139
106	0x3f79ce74	0.9758065
107	0x802547ac	-3.423624e-39
108	0xbf80f67c	-1.0075221
109	0x3fcf00ad	1.6172081
110	0x3e632919	0.22183646
111	0x3f05b432	0.5222808
112	0xbe2d5364	-0.16926342
113	0x3afd0516	0.0019303884
114	0xbfdbafd5	-1.7163035
115	0x3f961461	1.1724969
116	0x003c6887	5.547627e-39
117	0x406648d8	3.598196
118	0xc038cd50	-2.8875313
119	0x3eaaa51a	0.33329087
120	0xbfe7d646	-1.8112266
121	0x3f3d2e0f	0.73898405
122	0xbc095ab9	-0.008383446
123	0x3fb93f26	1.4472396
124	0x3e0fee80	0.14055824
125	0x003444e7	4.800163e-39
126	0x3ea75a17	0.3268592
127	0xbf32c524	-0.6983206
128	0x3b88834f	0.004166044
129	0x3db79171	0.089632876
130	0xbdd002ac	-0.101567596
131	0xb9a808b5	-0.00032049944
132	0xbcf16956	-0.029469173
133	0x3de84d75	0.11342899
134	0x80106ca8	-1.508346e-39
135	0xbebe2564	-0.37137902
136	0x3fca3a6c	1.5799079
137	0x3e6f5847	0.23373519
138	0x3edf9413	0.4366766
139	0x3ee618cf	0.44940802
140	0xb9d6298d	-0.00040848218
141	0xbed4d81f	-0.41571137
142	0x3d15ad92	0.036542483
143	0x8034ca98	-4.848123e-39
144	0xbead98b6	-0.33905572
145	0x3e0ab491	0.13545443
146	0xbd7e19bb	-0.062036257
147	0xbde35129	-0.110994644
148	0x3e610ac7	0.21976767
149	0x3e7946db	0.24343435
150	0x3e92ed6e	0.2869677
151	0x3edec7c0	0.43511772
152	0x802f3132	-4.333916e-39
153	0x3de565f4	0.11201087
154	0x3fbe778f	1.4880236
155	0x3b91f9cd	0.0044548274
156	0xbe44e82b	-0.1922919
157	0xbe2f45be	-0.17116448
158	0x3b18887b	0.0023274708
159	0xbf467689	-0.7752462
160	0xbe904e49	-0.28184727
161	0x002504e7	3.399672e-39
162	0xbe1a4c94	-0.15068275
163	0x3eb3116a	0.34974223
164	0x3c39d912	0.0113432575
165	0x3deeddc7	0.116633944
166	0xc053dd7c	-3.3103933
167	0xb954748d	-0.00020261314
168	0x3f3c8756	0.73644006
169	0x3ea3702d	0.3192152
170	0x000b036f	1.011422e-39
171	0xbf621a58	-0.8832145
172	0xbf4785a9	-0.77938324
173	0x3da8162f	0.08207356
174	0xbf93260e	-1.1495988
175	0x3ea037b2	0.31292492
176	0xbdb64143	-0.088991664
177	0x3f61995c	0.8812463
178	0xbe148ef1	-0.14507653
179	0x002983e2	3.812566e-39
180	0xbf45dd86	-0.7729114
181	0xbe9351be	-0.28773302
182	0xbf2871a8	-0.65798426
183	0xba8af1cd	-0.0010600627
184	0x3ec6f9aa	0.38862354
185	0x3dd551e8	0.10416013
186	0xbf86bcc7	-1.052636
187	0xbfaa4571	-1.3302442
188	0x800156f5	-1.2303e-40
189	0xbd696b0a	-0.056986846
190	0x3f218a95	0.63102084
191	0x3c50bf1e	0.012740878
192	0xbdacb3fc	-0.08432767
193	0xc03db6ed	-2.96429
194	0xb8e65314	-0.00010982729
195	0xc024f32e	-2.5773425
196	0x3f1adc24	0.6049216
197	0x002e0a82	4.228202e-39
198	0xbe0104e6	-0.12599525
199	0xbee37467	-0.44424745
200	0x3c5b9c9a	0.013404036
201	0xbe7e272d	-0.24819632
202	0x3f3e15cc	0.7425201
203	0x3d9aef67	0.075651936
204	0xbccf2647	-0.025286807
205	0xbecbeac8	-0.3982756
206	0x80160044	-2.020476e-39
207	0x3e64232d	0.22279043
208	0x3ee5be52	0.44871765
209	0xbd02716c	-0.03184645
210	0xbde1a018	-0.110168636
211	0xbf079913	-0.5296795
212	0x3dadade2	0.08480431
213	0x3e45c3fa	0.1931304
214	0xbe2abc07	-0.16673289
215	0x00446d8e	6.284115e-39
216	0xbdb39420	-0.08768487
217	0xbe40b336	-0.18818364
218	0xbae37216	-0.0017352726
219	0x3cfd13ff	0.030893324
220	0xbe335178	-0.17511547
221	0xb911746e	-0.00013871651
222	0x3df22b18	0.11824626
223	0xbfb80975	-1.4377886
224	0x0027dd02	3.660867e-39
225	0xbf43f9e4	-0.7655318
226	0xbf8623a7	-1.047963
227	0xbfda1902	-1.7038882
228	0xbf0a0676	-0.5391611
229	0xbf1ade4b	-0.6049544
230	0xbef3df97	-0.47631523
231	0x3f230c52	0.63690674
232	0x3ebff8c3	0.37494478
233	0x803cc56f	-5.580956e-39
234	0xbca466b8	-0.020068511
235	0xbfe6fd8a	-1.8046124
236	0x3d821725	0.06352071
237	0xbefe6055	-0.4968287
238	0xbfd7d729	-1.6862537
239	0xbfc39920	-1.5281105
240	0xbdfaf9f9	-0.1225471
241	0x3ed7af91	0.42126134
242	0x802363e3	-3.250075e-39
243	0xbf9c9cab	-1.2235311
244	0x3f95397d	1.1658169
245	0x38c4164b	9.350161e-05
246	0x3f31a164	0.6938689
247	0xbf37d417	-0.71808
248	0xbe184932	-0.14871672
249	0xbed0eb2d	-0.40804425
250	0xbd6021e8	-0.054719836
251	0x0019b28f	2.359942e-39
252	0xc09999c8	-4.800022
253	0xbee7f481	-0.4530373
254	0xbb99c34c	-0.0046924707
255	0xbe90dc42	-0.28293043

layers.0.fc_self.weight f4 [64, 9]
0	0xbf4ef8e8	-0.8084855
1	0xbefa688d	-0.4890789
2	0xbdabd1f9	-0.083896585
3	0xbf17c488	-0.5928426
4	0xbe8303d5	-0.2558886
5	0xbd69de07	-0.057096507
6	0x801b5a29	-2.511902e-39
7	0x000756de	6.7401e-40
8	0x0020c8c6	3.01076e-39
9	0x3dcae01b	0.09906026
10	0x3ea764e4	0.3269416
11	0x3a9f0715	0.0012132848
12	0x3d94d45f	0.07267069
13	0xbe2ba73f	-0.16763018
14	0xbc32e8fd	-0.010919807
15	0x3e0dd57e	0.13850972
16	0x3ed24fb4	0.41076434
17	0x3ad6e666	0.0016395568
18	0x3d9bbb4e	0.07604085
19	0xbf50f0f2	-0.81617653
20	0xbf3fd494	-0.74933743
21	0xbea825c8	-0.32841325
22	0x3f92712e	1.144079
23	0xbe91d391	-0.28481725
24	0x803dfb52	-5.692122e-39
25	0x80254da6	-3.425768e-39
26	0x801f3734	-2.866704e-39
27	0xbd6fb344	-0.05852057
28	0x3f2e7011	0.6813975
29	0x3bd06196	0.0063592894
30	0x3f8fd22d	1.1236016
31	0xbfde91c8	-1.7388239
32	0xba281736	-0.000641215
33	0xbe4545b6	-0.19264874
34	0xbbecfed2	-0.0072325254
35	0xb6515c4b	-3.1197148e-06
36	0x3d4f5a42	0.050623186
37	0xbefbb9d5	-0.49165216
38	0xb9964b58	-0.00028666365
39	0xbeef62d5	-0.4675509
40	0xbe8a28ef	-0.26984355
41	0x3b302b22	0.0026881178
42	0xbd68603b	-0.056732398
43	0x3efe8008	0.49707055
44	0x3a9ffb42	0.0012205618
45	0xbf035bdf	-0.5131206
46	0x3f9578fd	1.1677548
47	0xbfe2c411	-1.7716085
48	0x3f820444	1.0157552
49	0xbf9719ed	-1.1804787
50	0x3aced451	0.0015779828
51	0xbc995f1f	-0.018722115
52	0xbd7fc020	-0.062439084
53	0xb6c56a09	-5.8834016e-06
54	0xbee96d33	-0.45591125
55	0x3e23acab	0.15983836
56	0x3ba31903	0.004977347
57	0xbe887c1a	-0.26657182
58	0xbec8e069	-0.3923371
59	0xb9202706	-0.00015273326
60	0x3e24b28d	0.16083737
61	0xbf80fa85	-1.0076452
62	0x3b2b1cb4	0.0026109638
63	0xbf46aa07	-0.7760319
64	0xbf9edb78	-1.2410727
65	0xbb7799f5	-0.0037780975
66	0xbe9cfbc7	-0.3066084
67	0x3f11f560	0.5701504
68	0xbe91df70	-0.28490782
69	0x8024a979	-3.366873e-39
70	0x00312238	4.512215e-39
71	0x80237522	-3.256262e-39
72	0xbf56ddac	-0.83931994
73	0x3e45e0bf	0.19324015
74	0xbd453794	-0.048148707
75	0xbea63bf1	-0.32467607
76	0x3dcf28f3	0.10115232
77	0xbda9829f	-0.08276867
78	0x8006837e	-5.98183e-40
79	0x001b590c	2.511502e-39
80	0x000b0d23	1.014903e-39
81	0xbed7b74d	-0.42132035
82	0xbe64d00d	-0.2234499
83	0xbd281687	-0.04103711
84	0x3ebad7bf	0.36492726
85	0x3e50066a	0.20314947
86	0xbe88188b	-0.26581225
87	0x3eec8450	0.46194696
88	0x3f958031	1.1679746
89	0x3bccdde1	0.006252036
90	0xbf62b08a	-0.8855063
91	0xbcac0d87	-0.021002544
92	0x3cdcaae2	0.026936952
93	0xbee30513	-0.4433981
94	0xbe2f8aa9	-0.17142738
95	0xbe5c5699	-0.2151741
96	0x803c5648	-5.541082e-39
97	0x0014e8e0	1.92025e-39
98	0x801be71c	-2.562465e-39
99	0x3cd91387	0.02649857
100	0x3f819250	1.0122776
101	0x3b0a0387	0.0021059231
102	0x3ebabfe7	0.36474535
103	0xbfc43835	-1.5329653
104	0xb99a4884	-0.00029427197
105	0xbefc48ef	-0.49274394
106	0x3c7ab55e	0.01530203
107	0xb71670a2	-8.966921e-06
108	0xbe25c99c	-0.16190189
109	0x3f9fb441	1.2476884
110	0x3c8dfa30	0.017331213
111	0x3f149aaf	0.5804853
112	0xbfea4870	-1.8303356
113	0xba28afbd	-0.00064348785
114	0xbea9d166	-0.3316757
115	0x3d476c1b	0.04868708
116	0xb73d0cad	-1.1268229e-05
117	0x3f8a36ed	1.0798012
118	0xbf2d5169	-0.6770235
119	0x3dec0255	0.11523882
120	0xbfa6bc09	-1.3026134
121	0x3ec648ea	0.38727504
122	0x3b716497	0.0036833638
123	0x3e5b196a	0.21396413
124	0xbdd9c6fb	-0.10633656
125	0x3880818d	6.127646e-05
126	0xbea33b64	-0.3188125
127	0xbe4ada82	-0.19809917
128	0x3954ba66	0.00020287334
129	0xbe642121	-0.22278263
130	0x3d291d87	0.041287925
131	0xba4b47c1	-0.00077545276
132	0x4011d0a9	2.2783606
133	0x3c0fc5ca	0.008775184
134	0x392bfcd5	0.00016402018
135	0xbf25f548	-0.64827394
136	0x3fb3c921	1.4045755
137	0xbffbaa49	-1.9661342
138	0x3efc51bd	0.4928111
139	0xbfddd3dd	-1.733028
140	0x3a31e84c	0.0006786629
141	0xbc883659	-0.016627477
142	0xbda9b886	-0.08287148
143	0xb8354aaf	-4.3223317e-05
144	0x3d92e0e9	0.071718045
145	0xbcd6d9ae	-0.026226845
146	0xbc2187bc	-0.009859022
147	0x3e0b089d	0.13577504
148	0x3c9cd545	0.019144664
149	0xbe951955	-0.2912089
150	0x3ed67688	0.41887307
151	0x3f556e3f	0.8337135
152	0x3b67bd12	0.0035360497
153	0xc003a907	-2.0571916
154	0xbe0a4054	-0.13501102
155	0xbe732cf2	-0.23747614
156	0x3e0fe6b2	0.14052847
157	0x3e507f8a	0.20361152
158	0xbb4804c1	-0.0030520412
159	0x8020965a	-2.992672e-39
160	0x8014dd51	-1.916103e-39
161	0x80295b68	-3.798046e-39
162	0xbb031a71	-0.0020004774
163	0x3dca7cde	0.09887098
164	0x3c160ac3	0.009157839
165	0x3a502cae	0.0007941228
166	0xc01638d4	-2.3472185
167	0xb88a6bad	-6.600409e-05
168	0xbe9ca9c3	-0.30598268
169	0xbf84e95c	-1.0383716
170	0x371d1484	9.362706e-06
171	0xbe53d51b	-0.20686762
172	0xbf091a17	-0.53555435
173	0x3b676ba9	0.0035311973
174	0xbd91c953	-0.07118478
175	0x3f6f86f1	0.9356528
176	0x39b96a1f	0.00035365016
177	0x3f1b1bae	0.6058911
178	0xbd785a0d	-0.060632754
179	0x3a0ec962	0.00054468785
180	0x3f14b559	0.58089215
181	0xbeaa5aa2	-0.33272272
182	0xbf0b05ab	-0.54305524
183	0x3da99a04	0.08281329
184	0x3e346fa8	0.17620718
185	0xbdea442e	-0.114387855
186	0x3c463f1a	0.0121000055
187	0xbe52d3ef	-0.20588659
188	0xbb9b6572	-0.004742318
189	0xbee3c7f6	-0.44488496
190	0x3ed50cb4	0.41611254
191	0xbb924893	-0.004464218
192	0x3dcd487f	0.10023593
193	0xc06ba271	-3.6817896
194	0x38863ebf	6.401305e-05
195	0xbddf5801	-0.10905457
196	0xbf4785f8	-0.77938795
197	0x383a263a	4.4381457e-05
198	0x3c16dbdc	0.009207692
199	0x3e4fba27	0.20285855
200	0xbb8edbe1	-0.0043597077
201	0xbeb990ef	-0.36243388
202	0x3f697c16	0.91204965
203	0xbe59ea99	-0.21280898
204	0xbcff4231	-0.031159492
205	0x0001a6ee	1.51719e-40
206	0x00209824	2.993314e-39
207	0xbf49d116	-0.78834665
208	0xbdf53eb4	-0.1197485
209	0x3d322af1	0.043497983
210	0xbf43dec0	-0.76511765
211	0xbef68353	-0.48147067
212	0xbda468fc	-0.08027837
213	0x80001bda	-9.991e-42
214	0x0038797b	5.186367e-39
215	0x8029fe9a	-3.856589e-39
216	0x3d7e7e56	0.062132202
217	0x3c6716a8	0.014104523
218	0xc001a16e	-2.025478
219	0xbcb77b8f	-0.022397785
220	0x3f5f1cc2	0.87153256
221	0x395e234f	0.00021184723
222	0x0022545b	3.152668e-39
223	0x803451d5	-4.804802e-39
224	0x8002397d	-2.04294e-40
225	0x3e9a4d9b	0.30137333
226	0xbf67ec97	-0.9059538
227	0xbab6ff29	-0.0013961542
228	0xbd7661a4	-0.06015171
229	0x3e6850de	0.22687098
230	0x3b0c2d67	0.0021389367
231	0x3da2060e	0.07911311
232	0x3cd70bc5	0.02625073
233	0x3b2b65c5	0.0026153189
234	0xbdc09360	-0.094031096
235	0x3f81d76b	1.0143865
236	0x3b67cb06	0.0035368814
237	0xbf2f915a	-0.68581164
238	0xbed094f7	-0.4073865
239	0xba04dfc5	-0.00050687446
240	0xbd5bec3f	-0.0536921
241	0x3eb200ab	0.34766135
242	0x001bc414	2.549898e-39
243	0x3d24a5ba	0.04019711
244	0x3ebd1d83	0.36936578
245	0xbf16ff71	-0.5898352
246	0x3eecaabe	0.46224016
247	0xbd6a366f	-0.05718082
248	0x3a01c4c4	0.000495028
249	0xbee805df	-0.4531698
250	0x003f37a3	5.805595e-39
251	0x00268e0c	3.540706e-39
252	0x3d8ceb17	0.06880777
253	0xbd7e43a2	-0.06207622
254	0x3bc58b6e	0.006028584
255	0x3db86f64	0.09005621

layers.0.fc_self.bias f4 [64]
0	0xbe18b79a	-0.14913788
1	0x3f904016	1.1269557
2	0xbfff6a76	-1.9954364
3	0x3f83b8ee	1.0290811
4	0x3f21aeb7	0.6315722
5	0x3f4c5763	0.7982084
6	0x3f9b3ee8	1.2128572
7	0xbfabb95d	-1.3415943
8	0xbdc6d55f	-0.09708666
9	0x3e9cc9f2	0.30622822
10	0xbe45d9c3	-0.19321351
11	0x3f9dac41	1.2318193
12	0x3f9b0990	1.2112293
13	0x3f5249f2	0.8214408
14	0x3fad690c	1.3547683
15	0x3f146638	0.57968473
16	0x3f1cf8c1	0.6131707
17	0xbe761910	-0.24032998
18	0x3fc4c1f6	1.5371692
19	0xbf06f335	-0.52714854
20	0x3e460faf	0.1934192
21	0x3f622081	0.8833085
22	0xbf8b86bd	-1.0900494
23	0xbf03c222	-0.514681
24	0xc0378561	-2.8675158
25	0x3deaf624	0.11472729
26	0xbe943760	-0.28948498
27	0xbd82897e	-0.06373881
28	0x3e5fa39a	0.21839753
29	0xbffb8685	-1.9650427
30	0x3dff930c	0.12479219
31	0x3d5e8874	0.05432935
32	0xbeb50b7d	-0.35360327
33	0xbc0b6993	-0.008509058
34	0x3e25f4e2	0.16206697
35	0xbed86cbb	-0.42270455
36	0xc045a5bb	-3.0882404
37	0x3ff5210d	1.9150711
38	0xc024a77f	-2.5727232
39	0x3e974298	0.29542994
40	0xbeb0e135	-0.3454682
41	0x3fcf1f03	1.6181339
42	0x3f8e2511	1.1105062
43	0x3fbf43eb	1.4942602
44	0x3ffffd1c	1.9999118
45	0x3e463341	0.1935549
46	0x860c14d1	-2.6346367e-35
47	0x3f3b8a6c	0.7325809
48	0xc00f7613	-2.2415817
49	0x3f5ca367	0.8618683
50	0x3e485367	0.19563065
51	0x3d8593f0	0.065223575
52	0xbf3f66be	-0.7476615
53	0x3e4a72ab	0.19770305
54	0x3e20c2a6	0.15699252
55	0x3e730d67	0.23735581
56	0x3f96f367	1.179303
57	0xc0369cf4	-2.8533297
58	0x3f23da85	0.6400531
59	0x8f7c44f8	-1.2437842e-29
60	0x3f77eec8	0.96848726
61	0x3e9897a3	0.2980319
62	0x3f3904ab	0.7227275
63	0xc08b29b7	-4.348842

layers.1.fc_neigh.weight f4 [1, 64]
0	0xbe809105	-0.2511064
1	0x3d6cedfb	0.057844143
2	0xbe99b888	-0.300236
3	0x3c032cba	0.008006269
4	0xbd3245c0	-0.04352355
5	0x3bcaa471	0.0061841537
6	0xbe7099be	-0.23496148
7	0xbfcbaab1	-1.5911466
8	0x3e5d732a	0.21625963
9	0xbb4cbc50	-0.0031240173
10	0x3e1c4459	0.15260448
11	0x3cd6f663	0.026240533
12	0x3c63df6a	0.0139082465
13	0xbcb8191f	-0.022472916
14	0xbcc7e372	-0.024400447
15	0x3c2e6961	0.0106452415
16	0xbaa22201	-0.0012369753
17	0x3ecee690	0.4041028
18	0xbe47db9a	-0.19517365
19	0xbf0084e2	-0.50202763
20	0x3f49eed7	0.78880066
21	0xbf0fcf82	-0.56176007
22	0xbf527ec9	-0.8222471
23	0x3ea19b2e	0.31563705
24	0xbfe9706c	-1.8237433
25	0xbda05d53	-0.078303
26	0x3f05b54b	0.52229756
27	0x3eadf4ac	0.33975732
28	0x3f174427	0.5908837
29	0xbf329660	-0.69760704
30	0x3e7fc562	0.2497764
31	0x3ecbf339	0.39834002
32	0xbef5c095	-0.4799849
33	0x3c839dfd	0.016066546
34	0x3e563119	0.20917167
35	0x3e922a25	0.2854778
36	0xbec412de	-0.38295645
37	0xbe56dff0	-0.20983863
38	0xc100847d	-8.032346
39	0xbe0ebfc9	-0.13940348
40	0x3f879a6d	1.0594002
41	0xbec00a01	-0.37507632
42	0x3dc383b1	0.095466025
43	0xbb2dd65c	-0.0026525473
44	0x3bc2458c	0.005928701
45	0x3f2cfb06	0.6757053
46	0x8baf6537	-6.755984e-32
47	0x3ed3a65d	0.41337863
48	0xc02f1509	-2.735659
49	0x3c61dd41	0.013785661
50	0xbf45aba2	-0.77215016
51	0xbddfb2ba	-0.10922761
52	0xbf74d0cc	-0.956311
53	0x3e088036	0.13330159
54	0xbe31954f	-0.17342113
55	0xbda844dd	-0.0821626
56	0x3c20ac54	0.009806711
57	0xbf088258	-0.5332389
58	0x3d8d7ff7	0.06909173
59	0x931e8765	-2.0009158e-27
60	0x3afd9acf	0.0019348505
61	0xbf3e111a	-0.74244845
62	0x3e1e6200	0.15467072
63	0xbe919c19	-0.28439406

layers.1.fc_self.weight f4 [1, 64]
0	0xbf18828d	-0.59574205
1	0xbf708e9e	-0.93967617
2	0xbddc2b37	-0.1075043
3	0x3bdb5294	0.0066931937
4	0xbf1290ef	-0.572524
5	0x3bc0cc39	0.0058837202
6	0xbf721bbf	-0.9457359
7	0xbf5cefff	-0.86303705
8	0x3e080502	0.1328316
9	0xbfc62206	-1.5479133
10	0x3e95c3b7	0.2925088
11	0x3c936eb1	0.017997118
12	0x3c3ce292	0.011528628
13	0xbd06c22a	-0.032900013
14	0xc023dff7	-2.5605447
15	0x3ccbea40	0.024891973
16	0xbfda6769	-1.7062808
17	0x3dc23022	0.09481837
18	0xc07a4665	-3.9105465
19	0xbe944cac	-0.28964746
20	0x3f575b5d	0.84123784
21	0xc093050a	-4.594365
22	0xbfa277b0	-1.2692776
23	0xbdeb9842	-0.1150365
24	0xc01cfa67	-2.4527833
25	0xbf25e2cd	-0.64799196
26	0xbfd51f04	-1.665009
27	0x3d8e0933	0.06935348
28	0x3ea48313	0.32131252
29	0xbed50b6b	-0.41610274
30	0xbfb039f9	-1.3767692
31	0x3e2976d2	0.16549233
32	0x3f3c246d	0.7349308
33	0xbd906968	-0.07051355
34	0x3e3ee990	0.18643785
35	0x3dc5c80a	0.09657295
36	0xbe580318	-0.2109493
37	0xc09e8706	-4.9539824
38	0xc0c0c76b	-6.024343
39	0xbf8da525	-1.1066023
40	0x3f35a529	0.7095514
41	0xbf9bf285	-1.2183386
42	0x3d89a4bf	0.06720876
43	0xbb85c1e4	-0.0040819515
44	0xbf97bc0b	-1.1854261
45	0xbe5c0404	-0.21485907
46	0x8c190587	-1.1788355e-31
47	0x3dccb426	0.09995298
48	0xbfbc2566	-1.4698913
49	0xbfd68ce7	-1.676175
50	0xbf0293a9	-0.5100656
51	0xbf55719d	-0.83376485
52	0xbf00084f	-0.5001268
53	0xbd273fe3	-0.04083241
54	0xbe1a82b8	-0.15088928
55	0xbfbbe8d2	-1.4680426
56	0x3be0b256	0.006857197
57	0xbebf632e	-0.37380356
58	0x3d8a08a6	0.06739931
59	0x1397dae6	3.833361e-27
60	0xbf98509f	-1.1899604
61	0xbebee3dc	-0.37283218
62	0x3d72c992	0.059274264
63	0xbea72c1f	-0.3265085
