N0-Noise/weight_19/best_model_no_noisse_weight_19.pth (torch, 8143 bytes, 5 tensors)

layers.0.fc_neigh.weight f4 [64, 9]
00000000: 42b9 84be a8e8 80bf a5ae 973d f047 4dbf
00000010: d704 02bf 5130 aebf 9dee f2be 02f2 423f
00000020: c01e 1580 19e8 69bf 7e4d f43e 29f8 76bc
00000030: ebe4 b53e aa11 d73e 6bb8 2fbe eb64 87bf
00000040: 23a3 a93c 97dc 2900 0dab eb3c 26a4 3b3e
00000050: 6f06 debc 60d8 753a e997 8a3d 7b90 06bb
00000060: 1f9f b8be 967c 4c3d d4e5 1180 a2fa 36be
00000070: 9aee 0ac0 672f 193d 257a 77bf c4c5 72bf
00000080: f8a4 0cc0 5eef 37be 038f 4abe ecce 1900
00000090: b03a 90bf 442a 8c3e 984a 743b 5efe 2cbe
000000a0: a535 6d3e f53f 20ba 4156 a6bf cd21 8c39
000000b0: 9b61 3800 ee5e 97bf d656 da3f b679 223f
000000c0: 7336 ff3f 7741 6b3f 4ee4 26bc a850 f0bf
000000d0: e005 a1be 2ebb 4000 e80c c3be 3425 75bf
000000e0: 1dfc c13d ae43 bdbe be18 fb3e 2f7e 383e
000000f0: 2cd6 523f ffb1 163d 27e1 3300 b797 1c40
00000100: c263 15c0 9c78 823d de70 72bf cf01 b83e
00000110: 06a0 24bb 2f3f cb3f 75b7 303f d608 2d00
00000120: 99ee d5be 9b04 253e f5bd fcbb a6e3 c83e
00000130: 5a26 92bd f55d 813e 8bfd 1bbf a4bb 1b3e
00000140: 1363 2100 0ce5 85be 9a0d 073e da73 d1be
00000150: bad6 0f3d 10a0 2bbf 5e7f a0b8 af15 85bf
00000160: 1d53 30c0 2b45 1480 98a1 25bf 62a4 c1be
00000170: 5626 36bf 1699 c3be 90b7 25bf edb5 3abe
00000180: 2d63 ee3b 9e7f 803f 6d60 4480 a1ea 0cbe
00000190: 2336 203e a6fe 053c 1e04 cbbd 2ea2 983e
000001a0: c38e 633e c2a3 b33d b865 9b19 0c5a 0600
000001b0: f63b 1cbd 6583 063f 7b0c 9f3d 2dbd 8cbe
000001c0: 8d77 64bf 3d86 8e3e 9dc5 73be a5ad 153f
000001d0: c872 1380 478e 70bf a189 4d3f 335b 2b3e
000001e0: 5798 383f ccbf 9c3e 61dc dbba 90a7 ecbf
000001f0: 5137 9e3f 0080 2d80 bb44 1d3f 2aca d63e
00000200: b250 573b 22ad 03bd bbcc ffbe 75c6 173b
00000210: 19f8 12bf 7a89 59be 4daa 1280 c2c6 29bf
00000220: 052d f7bf 4dfc 44c0 5520 12be 31f6 8b3f
00000230: c8f7 e03d 3978 c73e 6a27 983e f347 0300
00000240: beae 92bc 3548 86bd a136 3139 2f84 f23b
00000250: 46af 9abd c313 4b37 c273 3d3d 5878 a2be
00000260: e22b 4580 e97e 8bbd 13c1 b63b caa5 6638
00000270: 46b7 d6be b136 6f3e c50a 013b 9ba9 863e
00000280: 4cf2 32be 3ae9 2780 9507 30bf f13b 373f
00000290: 16d0 073d e7ee 423e 469d 37bf 566c 0a39
000002a0: f09e aebf b77a 0e3f 39a7 2b00 8832 c5bf
000002b0: 3c1c b23f c24d e73e 0c37 b83f 53aa 5a3f
000002c0: 2291 a7bc 9159 d3bf e7bb 3f3d d121 0380
000002d0: 9679 1cbe f186 c1be 460b 3c3c 063a a9be
000002e0: cc17 393f c8a7 f83c 1972 f2be a7d3 613d
000002f0: 162a 3c80 88fd cabd 6961 7a3f 51cf d03d
00000300: 43fe 28bf a07a 7abf 5d8d 10bd 8662 5b3e
00000310: f8fb 0a3f 858c 0f00 2f41 1ebd 6204 313f
00000320: e4cc 843c edce d9bd 2487 21c0 a5e3 a1b8
00000330: 88a2 3fc0 e23a f03e 76e1 0a00 59c0 673c
00000340: 9e58 1a3f 6988 673c c07f 89bc 386d 2ec0
00000350: 6302 d0b8 5055 b0bf 9c36 3b3f 8bbd 1300
00000360: 02be abbf b066 adbf 53e3 dabf e299 96bc
00000370: e3ef 0f3f d743 5b3e abc4 3e40 f1dd 2e40
00000380: 888c 1680 778c 42bf b576 a73e 446f 0b3f
00000390: bd91 f43f 141c 6f3f 93d8 bbbb cf1d f5bf
000003a0: 7853 1c3e 26e7 0600 fa07 51bd 6299 bc3f
000003b0: f306 51ba 700b bcbe c52e 50bf 6b2d 4aba
000003c0: 0ba6 31be e2e4 b13e 9bff 1100 a004 abbc
000003d0: 89ec 4ebe 0ae7 df3a 225f 753c f4bc afbe
000003e0: 4b4b 9bb7 2f35 00bd 89b0 29bf 8ff6 0200
000003f0: 2e5e 99bf 3b2e cb3d 8b96 e63e 97f7 bc3f
-0.2592259 -1.0071001 0.07406358 -0.8018789 -0.50788635 -1.3608495 -0.47447672 0.76150525
-1.939576e-39 -0.9136978 0.47715372 -0.015073814 0.35526213 0.42005664 -0.17160194 -1.0577673
0.020707672 3.844388e-39 0.028768087 0.18324336 -0.027102677 0.00093782507 0.06767256 -0.0020532894
-0.360589 0.049923502 -1.64365e-39 -0.17869046 -2.170813 0.037398722 -0.9667075 -0.94833016
-2.197569 -0.17962405 -0.19781117 2.370117e-39 -1.126791 0.27375996 0.0037275907 -0.16893908
0.23164995 -0.0006113046 -1.2995073 0.00026728064 5.177802e-39 -1.1825845 1.705775 0.63466966
1.9938492 0.91896766 -0.010186268 -1.8774614 -0.31449795 5.944619e-39 -0.38095784 -0.9575989
0.09471915 -0.36965698 0.49042314 0.18016885 0.8235805 0.036790844 4.76438e-39 2.44676
-2.3342137 0.06370661 -0.9470347 0.3593888 -0.0025119795 1.5878657 0.69029933 4.135767e-39
-0.41783598 0.16115038 -0.0077130743 0.39236182 -0.07136221 0.25266996 -0.6093375 0.15208298
3.066113e-39 -0.2615131 0.13188782 -0.409087 0.03511689 -0.6704111 -7.6531185e-05 -1.0397242
-2.7550728 -1.861523e-39 -0.646997 -0.37820727 -0.71152246 -0.38202733 -0.6473322 -0.18233462
0.0072750063 1.0038946 -6.279405e-39 -0.13761379 0.15645652 0.008178389 -0.09912895 0.29811233
0.22222428 0.08771469 1.6067708e-23 5.83316e-40 -0.03814312 0.5254424 0.07766052 -0.2748808
-0.8924492 0.2783679 -0.23805852 0.58468086 -1.78605e-39 -0.939671 0.8028813 0.16734008
0.7210745 0.3061508 -0.0016774052 -1.8488636 1.2360631 -4.178515e-39 0.61433 0.41951114
0.0032854495 -0.032147534 -0.49960884 0.002315906 -0.57409817 -0.2124385 -1.714131e-39 -0.66318905
-1.9310614 -3.0778992 -0.14270146 1.0934507 0.109847605 0.3895891 0.2971757 3.01317e-40
-0.01790559 -0.06556741 0.00016900386 0.0074010114 -0.07552962 1.2104344e-05 0.046252973 -0.3173244
-6.352391e-39 -0.068113156 0.0055772155 5.4990676e-05 -0.41936702 0.23360707 0.0019690257 0.26301274
-0.17475241 -3.66525e-39 -0.6876157 0.7157584 0.03315743 0.19036447 -0.71724355 0.00013201064
-1.3642254 0.55656 4.008915e-39 -1.5406046 1.3914866 0.45176512 1.4391799 0.85416144
-0.020454947 -1.6511708 0.046810057 -2.87638e-40 -0.15280756 -0.37798265 0.011477297 -0.3305208
0.72301936 0.030353442 -0.47352675 0.055133488 -5.525227e-39 -0.099116385 0.97804886 0.101957925
-0.6601297 -0.9784336 -0.035291065 0.21424302 0.54290724 1.427941e-39 -0.038636383 0.6914731
0.01621098 -0.10635171 -2.5238733 -7.71948e-05 -2.9942951 0.46919924 9.99235e-40 0.01414498
0.6029147 0.014131644 -0.016784549 -2.7254162 -9.9186575e-05 -1.3776035 0.731302 1.81287e-39
-1.3417361 -1.3546963 -1.7100624 -0.018383924 0.56225413 0.21412598 2.9807537 2.7322962
-2.070794e-39 -0.7599558 0.32707754 0.5446665 1.9106976 0.9340222 -0.005732605 -1.9149722
0.15266216 6.33933e-40 -0.051032998 1.4734309 -0.0007973753 -0.36727476 -0.81321365 -0.0007712456
-0.17348497 0.34744936 1.652897e-39 -0.020876229 -0.20207419 0.0017082405 0.014976295 -0.34323847
-1.85125e-05 -0.03130072 -0.66284996 2.7212e-40 -1.1981866 0.09920927 0.4503673 1.4763058

layers.0.fc_self.weight f4 [64, 9]
00000000: a579 743e c0b2 293f ac18 e83c 24e8 2ebf
00000010: 31bf bdbe b68b 87b9 2b3a 363f c3cd 573f
00000020: 0a27 043c f8ab b13e 7a43 b43f 3708 d1bb
00000030: 0ea1 a2be 1598 62be 07bb 6bbb 5f99 54be
00000040: d531 893e 5c38 aa3a 1a7d 843d ce61 373d
00000050: e886 d73c e2fc 333d dd12 943e f78d 18bb
00000060: 7c5b 6dbe cbcc 3800 224b 2f00 36ff 06be
00000070: 8e81 9d3f 5667 dd3b e57c 2dbf a6ef 17bf
00000080: 6438 dcb8 e552 013e dfd4 afbd 1cf9 6c3c
00000090: 531e 153e 38bc 3e3f 1638 3e3c 423f 643e
000000a0: c810 efbe 1aa4 7d39 04ac 8ebe 6cd0 1dbd
000000b0: c077 90b9 376e 81bf c206 683f 7ddf 523d
000000c0: 8c9f e83f 0d1e 08be dcbd 703b e6b5 d4bd
000000d0: 5538 2c80 8509 1580 e342 f1be 89de b8bf
000000e0: b332 43bd 99fa 0ebe 86b3 533f add3 33be
000000f0: e699 3780 0c08 3100 599d 0400 345b e33e
00000100: 2355 1abe bfa3 9c3b 3e42 6fbf c3b9 2cbe
00000110: 0eb5 823a 2411 c63d 409c 1bbf 9d94 383a
00000120: 092a fdbe 8d8b 373f 643e f03d f931 323e
00000130: e72f 02be 4e5f 91be e170 a8bd 8c07 073d
00000140: bea4 06bb b20a e03a d2e0 0dbe 7c4e 0cbf
00000150: c0be 04bd 4187 863f cd5f 4639 aedc 0280
00000160: b51f 3600 fb05 1380 249d a73e f2b7 84be
00000170: 7457 d33b 60ff 7cbc 843c b8bf 2704 903a
00000180: cd0a d3bd cb46 55be 70b2 223c 3d39 ecbd
00000190: 7927 fdbe 90d8 a0bc 2f43 353d 751c e33d
000001a0: dae2 89be f186 803e 36c4 b43e 4a4a df3b
000001b0: 05b5 6ebe b305 d13f 82d7 dabc a1d0 853e
000001c0: 6d6a f0be c2b9 8abe 02e2 6abd e99c 7cbe
000001d0: 37b7 82ba 94bf 38be 9e3b d43e 9b18 8c3d
000001e0: ba7f 2f3f 0961 90bf 718e 923a 9214 333e
000001f0: 1425 bb3e 283a b8b8 3c13 95bf 4a62 b53e
00000200: 165e ebbe fb05 983d 3156 043e 1e11 5abb
00000210: 9fbb 4300 f021 4000 8daf 3900 ce38 a9bf
00000220: ecab a7be 3e41 af3d 5e8b 87bd 7d76 af3f
00000230: 4f80 dabd 21be febe 5456 0500 8398 3500
00000240: 6045 6cb9 1ba2 3ebe e5df e2bf 7b69 aabb
00000250: 83cf 3b3f b572 0e37 c89d 2600 f13e 1300
00000260: 6a42 1200 d596 89bd 9936 2c3e 7722 c8bb
00000270: d40e 00be 95db bc3e 8618 a5ba 9b98 ed3c
00000280: f82a 7bbe d8a1 403b ca9a f6bd 1511 853f
00000290: aae3 233c f9f5 1e3e ddf1 71bf 0a42 3d39
000002a0: bc85 84be 717e 23be 845c 71b9 3004 82bf
000002b0: 86a4 3b3f 4d05 96bf 7b85 ee3f e906 603f
000002c0: c128 ac3b 5944 40bc f738 f63d ebfd 3f80
000002d0: 7300 dbbe 6952 2bbf 7b2b 403d e0af 6dbe
000002e0: 7e8f 353f 1d00 fbbc 83af 60bc a776 9ebd
000002f0: 5fc8 5fbb 825c c0be e529 a6be 8897 32bf
00000300: f48b 03bf 40c4 18bf a2bf 30bc 406a 2c80
00000310: 884b 1c80 ac69 2c80 3d9a a0be b491 f63e
00000320: 0f18 2e3a f808 d73d 909a 6ec0 7053 b837
00000330: 74f3 0ebd 7637 c2be a177 023c ae70 99be
00000340: 0a97 953e d267 393b 5f8d 143d f7bb 50c0
00000350: f9ad 7037 4aa3 b5bd 34c5 39bf e8c0 463a
00000360: 4554 9bbf b357 91bf 832d 38bf c337 a83d
00000370: adfc 663f 4d6f 5bbe 8f38 e93f 97dc 06bd
00000380: 95e0 1c3a c745 6dbe fbd8 9c3e f341 373d
00000390: a8cf c43f 3ea9 bcbe e52c e43a 9c1e 38bd
000003a0: c177 413e d6c6 09b8 c865 2abd 9876 053f
000003b0: 89a6 793b df11 ffbc f184 a8be fdb4 c538
000003c0: b41c 1f3e 3eb7 2000 8407 0480 6022 bc3b
000003d0: 2eb3 97bf e6ab 0f3b c6d8 15bc 0074 703f
000003e0: e97f 79b7 1e76 4080 02a5 1480 0ac7 4200
000003f0: df06 b5be 658e d63c 140f 853e 3e94 d13f
0.23874529 0.66288376 0.028332077 -0.6832297 -0.3705993 -0.000258533 0.7118251 0.8429834
0.008065948 0.34701514 1.4083092 -0.006379153 -0.317635 -0.22128327 -0.0035969631 -0.20761631
0.2679583 0.0012986767 0.06469174 0.04477101 0.026309446 0.04394234 0.28920642 -0.0023277977
-0.2317943 5.216254e-39 4.343221e-39 -0.13183293 1.2305162 0.0067567034 -0.677687 -0.5935005
-0.00010500921 0.12629278 -0.08585524 0.014463689 0.14562349 0.7450595 0.011610052 0.22289756
-0.4669249 0.00024189093 -0.27865613 -0.038528845 -0.0002755504 -1.011176 0.9063531 0.051482666
1.817369 -0.13292713 0.0036734259 -0.10386257 -4.06097e-39 -1.93196e-39 -0.47121343 -1.4442912
-0.047655772 -0.13962783 0.82695806 -0.17561217 -5.10616e-39 4.502826e-39 4.23788e-40 0.4440552
-0.1507154 0.0047802622 -0.9346045 -0.16867737 0.0009972171 0.09671238 -0.60785294 0.0007041188
-0.49446133 0.7169731 0.1173065 0.17401876 -0.12713586 -0.28393024 -0.08224655 0.03296618
-0.0020544971 0.0017093031 -0.13855293 -0.5480726 -0.032408476 1.0510026 0.0001891844 -2.62836e-40
4.970491e-39 -1.74702e-39 0.32737076 -0.2592159 0.006449634 -0.0154417455 -1.4393468 0.0010987566
-0.103047945 -0.20827787 0.009930238 -0.11534355 -0.49444178 -0.019634515 0.044253524 0.11089412
-0.26930887 0.25102952 0.35305947 0.006814276 -0.23311241 1.6329864 -0.02671409 0.26135734
-0.46956196 -0.27094847 -0.057344444 -0.24669231 -0.0009972815 -0.18041831 0.41451734 0.068406306
0.6855427 -1.1279613 0.0011181367 0.17488316 0.36551726 -8.784636e-05 -1.1646495 0.3542655
-0.4597022 0.07423016 0.12923504 -0.0033274363 6.220284e-39 5.889646e-39 5.297599e-39 -1.322046
-0.32748353 0.08557366 -0.06618379 1.3708035 -0.10669004 -0.49754432 4.90146e-40 4.921992e-39
-0.00022532558 -0.18616526 -1.7724577 -0.0052005625 0.7336351 8.490567e-06 3.54635e-39 1.767454e-39
1.676864e-39 -0.06718222 0.16817702 -0.006107624 -0.12505656 0.36886278 -0.001259581 0.029003432
-0.2452811 0.0029393341 -0.120412424 1.0395838 0.01000301 0.15523519 -0.9450968 0.00018049046
-0.2588328 -0.15966202 -0.00023018016 -1.0157528 0.7329792 -1.1720368 1.8634485 0.87510544
0.0052538817 -0.011735045 0.12022584 -5.876725e-39 -0.4277378 -0.6692262 0.046916466 -0.23211622
0.70922077 -0.030639702 -0.01371372 -0.07737475 -0.003414653 -0.37570578 -0.32453838 -0.6976247
-0.51385427 -0.59674454 -0.010787876 -4.078877e-39 -2.59849e-39 -4.07867e-39 -0.31367674 0.48158038
0.0006641158 0.104997575 -3.7281837 2.1973363e-05 -0.034900144 -0.37932938 0.007963092 -0.2996878
0.29216796 0.0028290641 0.036267634 -3.2614725 1.4345621e-05 -0.088690355 -0.72566533 0.0007581846
-1.2135092 -1.1354889 -0.71944445 0.08213761 0.902293 -0.21429177 1.8220385 -0.032925215
0.0005984393 -0.23171149 0.30634293 0.04474063 1.5375872 -0.36847872 0.0017408399 -0.044951066
0.18893339 -3.2848526e-05 -0.041600972 0.52134085 0.0038093647 -0.031136451 -0.32913926 9.427404e-05
0.15538293 3.004471e-39 -3.70038e-40 0.0057414025 -1.1851556 0.0021922528 -0.009145921 0.93927
-1.4871338e-05 -5.919844e-39 -1.895904e-39 6.132545e-39 -0.35356805 0.026190946 0.25988066 1.6373365

layers.0.fc_self.bias f4 [64]
00000000: 789e fd3e 132b 0a3e 5a89 0ebe b034 333c
00000010: e433 013f 8b3d 3dbe b9a1 8fbf 5174 d13f
00000020: b07f 013e be86 febf 00b4 ea3e bab7 dd3e
00000030: f8c5 053f cad2 dc3e 69b0 28bf bec2 1fc0
00000040: 56ac 27c0 2be2 af3e 544b f83e 2f27 9fbd
00000050: fd0e 9d3d 0326 9abe b039 d33e dac8 563f
00000060: 2d90 e5bf 9d8a af3d 677c f7be 5e94 2bc0
00000070: ba10 cdbe 908d c53e 704e 8ebe 021e 123d
00000080: 70ec 233f 64be 7b3d 4dc6 cc3e 9e61 b43c
00000090: 9e9b 033c 93e3 40be 1784 ebbe 4eed 2c3f
000000a0: 1924 323f 6448 803c c191 753f 457d 0340
000000b0: 5107 b53e 3b68 19be 2b66 fe3f c5aa 2dc0
000000c0: 398d 2a3e ea38 2fbe e7ef 933f 432e 953e
000000d0: 358e ba3e e217 1ec0 be90 1a40 981b 9dbe
000000e0: be99 973f fd06 c03f cfbe 6c3e 9508 0740
000000f0: 3b23 9a3f 4ba7 733c ad97 973f f7e4 3cbf
0.49534965 0.13492994 -0.13919583 0.010937855 0.50469804 -0.18480508 -1.1221229 1.6363622
0.12646365 -1.988487 0.45840454 0.43304235 0.522552 0.4312957 -0.6589418 -2.4962611
-2.6198936 0.3435224 0.4849497 -0.077711456 0.076688744 -0.30107126 0.4125495 0.83900225
-1.7934624 0.0857136 -0.483371 -2.6809306 -0.40051824 0.38584566 -0.27794218 0.03567315
0.6403265 0.061460868 0.3999504 0.022019204 0.0080327075 -0.18836813 -0.45999214 0.675496
0.6958633 0.015659519 0.9592553 2.0545208 0.35357144 -0.14981167 1.9874929 -2.713548
0.16655435 -0.17111555 1.1557587 0.29136857 0.3643662 -2.4702077 2.4150844 -0.30685115
1.1843793 1.5002133 0.23119663 2.1098988 1.2042001 0.014871429 1.1843163 -0.7378687

layers.1.fc_neigh.weight f4 [1, 64]
00000000: 77e4 0a3d 561c 1e3e 4e1d 093e fbf9 313f
00000010: 7af1 103e 99e4 803b 6922 8fbe fcf5 1bbd
00000020: a4fa d13c ab7b 34bf 642e 07be df10 fd3c
00000030: 32fe 143e cdbf 6a3c 441b 393f e5f5 47be
00000040: 835d c7c0 8ee1 8bbe f800 e23d eea7 ad3b
00000050: 0a00 6c3c b62f 6c3e 72b3 1dbf 3371 d8be
00000060: dd70 4abf e9e6 9e3b 6f18 283f c39c 99c0
00000070: 2446 b93b 643e 043e 0a1c 3e3e b7d6 813b
00000080: 15f5 103d 8172 d03e 1285 0f3f b8bd 6fbf
00000090: ce84 00bf 921d 753e 4da9 dabe e1e9 0dbd
000000a0: 89da bebe f7c8 af3d 1926 7b3d cb86 d6bb
000000b0: f9f5 383c c05e 94be 9ed7 bdbc d11a 7abf
000000c0: e7de fa3d cd48 c4bd d649 6dbc c8ef fe3b
000000d0: a9e4 c23d 930f 33c0 1d17 2ebe 2319 5c3e
000000e0: d813 d9bc e068 42be dda8 583d 22a4 49bb
000000f0: d426 d13b c510 14bf 9e85 0a3f d93f a4be
0.033909287 0.15440497 0.13390085 0.69522065 0.14154616 0.003933501 -0.2795594 -0.038076386
0.02563221 -0.705012 -0.1320129 0.030891834 0.14550093 0.014327955 0.7230723 -0.19527395
-6.230165 -0.27320522 0.11035341 0.00529956 0.014404306 0.23065075 -0.61601937 -0.42273864
-0.79078466 0.004849304 0.6566228 -4.800386 0.0056541134 0.12914425 0.18565384 0.0039623636
0.03538998 0.4071236 0.56062424 -0.9364886 -0.50202644 0.23937061 -0.4270729 -0.034646872
-0.37276104 0.08583253 0.06131563 -0.0065468303 0.011289113 -0.2897854 -0.023174103 -0.9769717
0.122495465 -0.09584198 -0.014482936 0.007780049 0.0951627 -2.7978256 -0.17001005 0.21493964
-0.02649872 -0.18985319 0.052895416 -0.0030767997 0.0063828025 -0.5783809 0.54110134 -0.32079962

layers.1.fc_self.weight f4 [1, 64]
00000000: ec18 c6bf 0950 dabd 11c9 b23d 2bdd cdbf
00000010: 306f 403d 5b61 293b f4a7 a5bd 65bb 8cbd
00000020: 5df8 223e f542 6abf bb99 cabf fa20 1bc0
00000030: 1c28 983d 3700 303c 8a37 d03d abe0 dbbd
00000040: 8894 cbc0 12ea 9ebe 39bd 3c3d bf1c 813b
00000050: 3018 953e c217 0d3f 7b25 8dc0 4078 93c0
00000060: 8ae4 6ebf db60 513b c653 323e 979d a0c0
00000070: 98e9 7d3b 0acc 8a3d 1e3f a3bd 54b3 163b
00000080: 91c7 12c0 09ba 033e efff eb3d 8bd4 34c0
00000090: c441 acbd 7a85 633e bcb6 6ebe d417 92bf
000000a0: 79b8 05be b68e 3f3d 4271 2a3e c4f4 07be
000000b0: 27dd 05c0 9cad aebe b7e5 49bd 69b4 55bf
000000c0: 2969 783e 586c 4dbd 82fe 48bc 5824 b23a
000000d0: 2f15 ac3d e2f7 4cc0 410c 96bf ed51 833e
000000e0: c47b 74bf feaa 80c0 e5b7 8a3c dd8a 19bf
000000f0: 801c d0be bf50 bbbe 2f43 d2be adaf 29bf
-1.5476356 -0.10659797 0.087297566 -1.608312 0.046981037 0.0025845382 -0.08088675 -0.0687168
0.15915056 -0.9150842 -1.5828165 -2.4238877 0.07429525 0.010742239 0.10166843 -0.107362114
-6.3618813 -0.31037956 0.046078894 0.0039401944 0.29120016 0.55114377 -4.4108253 -4.608429
-0.9331747 0.00319486 0.1741477 -5.019237 0.003874397 0.067771986 -0.07971023 0.0022995071
-2.2934306 0.12863936 0.11523425 -2.8254726 -0.08410981 0.22218886 -0.23311895 -1.1413522
-0.13058652 0.04676696 0.16644767 -0.13276964 -2.091623 -0.34116828 -0.04929134 -0.8347841
0.24258865 -0.050152153 -0.012267711 0.0013591154 0.08402478 -3.2026296 -1.172249 0.25648442
-0.9550135 -4.020873 0.01693339 -0.59977514 -0.40646744 -0.36585042 -0.41066882 -0.66283685
