N0-Noise/weight_1/best_model_no_noisse_weight_1.pth (torch, 8135 bytes, 5 tensors)

layers.0.fc_neigh.weight f4 [64, 9]
00000000: c3b7 fd3e 0dcb 903f 093a d1b8 5fab 41bf
00000010: a89c 07bf 3901 39b8 6a8d 913e 312e 003f
00000020: fdcf 2a00 8d66 a7be 9746 8f3e 1cd6 ac3c
00000030: 4a45 a4be 2d0b e6bc 7649 83bc 3c5d 203f
00000040: 47fd 13bf ecba 4200 7189 8fbf a2fa 66bd
00000050: b8e4 813c 4ffe a0bc 1e72 3d3e ba83 b8b9
00000060: f320 e1bf 594d 933f b85a 4000 4626 97bf
00000070: fb93 e4bf 34e4 1ec0 a76f 3f3e 88ed 883f
00000080: 42c9 893d 8f46 a13a 2fcc c63a a6da 1480
00000090: 3843 143f 7127 c5bf 26b1 0c3b 7228 41bf
000000a0: 5a73 2abe 88aa 5639 454f 893f c4f5 12bf
000000b0: 22cf 1a80 44dd 09bf a95c 803f b2d8 0bbf
000000c0: 1a14 d8be aeae 5bbf b310 173a 516e 0cc0
000000d0: a4a2 5dc0 7050 0400 bd17 62bd 2df4 a8be
000000e0: 0c73 d8be 1256 f4bd e597 66be 7fae 94be
000000f0: d614 7f3f 870c a53e 309c 1b00 bfe4 8dbd
00000100: 23db 0d3f 04ec a93c b19f 633d 1c94 24c0
00000110: b1c0 adb8 a727 89bf 5214 083f c4c4 4280
00000120: db88 e73f 1d28 af3f 7b0d 563e ca70 83bf
00000130: 42a0 c0bf 2e3c 1f3e c612 ef3e b3f3 133f
00000140: e6dd 0c00 6f10 e9bc fe20 c4bd 7117 de39
00000150: 6e02 613d 81e5 3bbe ca68 19b9 1edb ccbc
00000160: 1069 66bf 74c7 1100 2f5a c0bd ae94 fc3e
00000170: f3c3 e63b 8f07 bebd 9f6d d8bf 4ed1 3a36
00000180: ba1c 463f aaa1 243f 0b4f 0800 c7d8 c73f
00000190: fd1e 523f bede 61be 4bc7 bfbf c58c d63f
000001a0: 9c40 b83b 5b8d 973f e2d3 51bf 329b 0600
000001b0: 869c 97bf db01 0bc0 e7ef 87be 18b1 3c3e
000001c0: 79cf 9a3d fbd9 80b9 7ea2 6ebf 690e cabf
000001d0: 4616 2a80 a7c8 663f 5bd0 30bf 21dc e0be
000001e0: 2b24 1c3d bf47 cabe 854b 87be 5f4e 663f
000001f0: cdb9 af3e 9cba 0e80 51af ed3e 9cba 323f
00000200: 6e2a 503d e5d5 81be 8a95 45bd f59a a1be
00000210: 0cd4 ab3e 9c3d a2bd 0027 0600 1fd6 f63b
00000220: 5b8d a1bd eb60 8c3a 501a 833e d896 f23b
00000230: a8aa f2b8 1ead 7b3e c5b6 b03d e741 0380
00000240: bb4e 943e dece 9d3f de99 763d 5e35 e43e
00000250: 52e5 e43e 5bf3 503e 0ded b53e e41e 9d3e
00000260: 4826 2880 a476 37bf 84da a63e b48c fabf
00000270: a9b6 ad3e e064 1b3e f5a1 d93a 4f48 89bc
00000280: 4612 173f 8b40 0e00 1b46 b03d 7d1c 343f
00000290: 8d72 413b 10ff 0d3d 598f 4fbd 3d35 40ba
000002a0: dd4e c6bf 35fa b23f b4fa 0500 9082 cdbd
000002b0: 517c 163f 8f6d bc3c 1e70 b1bd 5634 10c0
000002c0: dc5a 0238 228e 0f3f d9ed 003f e585 2680
000002d0: e9cf 113d 2c38 8b3d 0dbf f53b 02a9 363e
000002e0: 0b14 62bf e581 6ab9 280e d93c 89d4 2b3e
000002f0: 24fc 1b00 baaf 9ebd aa08 3bbe b62e 90bd
00000300: 40c8 003e 74e0 533f a127 1337 e41d 9bbe
00000310: 021b d9be 2274 1e00 673d 2abf 744e 98bf
00000320: b512 50bf 1a95 0cbf a96b c7be 866c d0bf
00000330: ecf7 5cbe 1d41 2abe 835f 0180 1ec4 1f3d
00000340: c8ee bfbf 717d a53d 805f ff3d 2ebb 32be
00000350: e7f5 b23d 3cd4 c9bd e947 2cbf 5990 0200
00000360: 6d85 15bf b7ad 78be 2873 803d a955 38bf
00000370: a536 423f e58a 733e 6cf9 c9be a4ca 05bf
00000380: 0a9c 0600 be70 e23c 18a8 b9bc ea1c 3a3b
00000390: d10f 8a3c 52cf 413c 9470 6d3c a53f f13d
000003a0: b1ef f73d 67da 2200 7e27 883e 3518 3cbf
000003b0: f1ee 463c 2640 abbe 49fa 803e 742a 3aba
000003c0: 153c 82be 595e 163f 9ba9 2a80 5fcd cdbe
000003d0: 1816 e63e 6787 1dbc 70b9 2fbf 2584 2ebe
000003e0: aef6 663b a33f 6c3f 5791 bdbf e615 1b00
000003f0: 1fba 8e3f 9343 99bf 133c 103a 890e 343e
0.49554262 1.1311966 -9.9767065e-05 -0.75652117 -0.52973413 -4.4108576e-05 0.28428203 0.5007048
3.931703e-39 -0.32695428 0.27983543 0.021098189 -0.32084113 -0.0280815 -0.01602624 0.62642264
-0.57808346 6.128198e-39 -1.1213819 -0.056391366 0.015856132 -0.019652514 0.18500564 -0.0003519336
-1.758818 1.150798 5.910016e-39 -1.1808555 -1.785766 -2.4826784 0.18694936 1.0697489
0.0672784 0.0012304353 0.0015167053 -1.915146e-39 0.5791507 -1.5402662 0.0021467893 -0.7545234
-0.16645566 0.00020472158 1.0727316 -0.5740626 -2.462028e-39 -0.5385325 1.0028278 -0.54627526
-0.42202836 -0.85813415 0.0005762681 -2.1942332 -3.4630518 3.96198e-40 -0.05519842 -0.3299879
-0.42275274 -0.11930479 -0.2251888 -0.2903938 0.9964117 0.3223612 2.535588e-39 -0.069283955
0.554125 0.020742424 0.055572215 -2.5715399 -8.2851744e-05 -1.0715226 0.53156006 -6.131729e-39
1.808864 1.3684117 0.2090358 -1.0268795 -1.5048907 0.155503 0.4669401 0.5779373
1.181628e-39 -0.028450219 -0.09576605 0.00042360605 0.054933958 -0.18349268 -0.00014630254 -0.025006827
-0.9000406 1.632754e-39 -0.09392201 0.49332184 0.007042402 -0.092787854 -1.6908454 2.7837991e-06
0.77387583 0.6430918 7.63039e-40 1.561303 0.82078534 -0.22057626 -1.4982694 1.676171
0.0056229364 1.1840013 -0.8196393 6.06687e-40 -1.1844642 -2.1719882 -0.26550218 0.18426931
0.075591035 -0.0002457647 -0.93216693 -1.5785648 -3.865081e-39 0.9014992 -0.69067925 -0.43917945
0.03812043 -0.39507863 -0.26424804 0.89963335 0.34321442 -1.35264e-39 0.46422818 0.69815993
0.050821714 -0.253585 -0.048238315 -0.31563535 0.33560216 -0.07921907 5.65004e-40 0.0075328494
-0.078882895 0.0010710036 0.25606012 0.007403236 -0.000115712464 0.24577758 0.086286105 -2.99148e-40
0.28966317 1.2328756 0.060205333 0.44571966 0.44706208 0.20405333 0.35532418 0.3068763
-3.687153e-39 -0.71665406 0.3258859 -1.9574189 0.3392842 0.151752 0.0016604053 -0.016758112
0.5901226 1.30885e-39 0.086071216 0.7035597 0.002951774 0.034667075 -0.050673816 -0.0007332152
-1.5492817 1.3982607 5.49113e-40 -0.100346684 0.5878344 0.02300146 -0.08663963 -2.2531943
3.1079035e-05 0.5607625 0.50362927 -3.537781e-39 0.03559867 0.06797823 0.0074995817 0.17837909
-0.88311833 -0.00022364368 0.026496008 0.16780294 2.57001e-39 -0.07748361 -0.18265024 -0.070401594
0.1257639 0.82764363 8.77111e-06 -0.30296242 -0.42403418 2.796725e-39 -0.6649994 -1.1898942
-0.81278545 -0.5491501 -0.38949326 -1.6283119 -0.2157895 -0.16626401 -1.26099e-40 0.03900539
-1.4994745 0.08080567 0.12469387 -0.17454216 0.087383084 -0.098549336 -0.67297226 2.35453e-40
-0.58406717 -0.24285017 0.06271964 -0.7200571 0.7586463 0.23783453 -0.39448106 -0.5226233
6.06989e-40 0.02764165 -0.022663161 0.0028398582 0.016853245 0.011829214 0.014492173 0.11779717
0.121062644 3.200755e-39 0.2659263 -0.73474437 0.012141929 -0.3344738 0.25190952 -0.0007101663
-0.25436464 0.58737713 -3.917934e-39 -0.40195748 0.4493873 -0.009614802 -0.6864233 -0.17042597
0.0035242247 0.922846 -1.4809979 2.487414e-39 1.115055 -1.1973747 0.0005502116 0.1758367

layers.0.fc_self.weight f4 [64, 9]
00000000: 097e bbbf 54c7 ac3e 5bcd ee3b bad6 b4be
00000010: 846c 95be d688 b736 d6ac 3780 8c27 0000
00000020: 7cc3 0400 aee2 10bf 356c 3ebd cc27 053c
00000030: d28f fdbe 6c2f 383f 818e f5b8 5fe2 c93b
00000040: 48ee 82bd 95f1 be37 110e 41be 7710 603e
00000050: ca64 4b3c 325d 1a3e b8a5 a4bd a131 3c39
00000060: 3b9c cabd ef87 6ebe 39a6 b6b7 a9eb bfbf
00000070: 173e e4bf ae89 17bf bf59 54be d13b 913f
00000080: 8d6f 87bd 3264 2c00 9e39 1600 bf10 4080
00000090: eeef fcbe a2eb d6be da2a b53b 6038 3ebd
000000a0: 1099 4f3f d73c 1d39 07b4 1cbd 27d4 36be
000000b0: 8dbe 8438 a56e d83d 1535 0fbe ede2 e8be
000000c0: ba79 3f3e b585 803f 1db5 9cb9 19be 1700
000000d0: 5912 1880 50fc 2880 b683 cebe 297a 5ebf
000000e0: 7650 6bbc 00c0 09bf ec1f 6e3f f51d 3839
000000f0: 7096 6a3e 19f6 c9be 5591 9e37 449a abbe
00000100: a56f cd3e faac 7dba 76cd 8cbd 47e1 4cc0
00000110: d5e7 d937 55a2 263c b0d3 14bf 4037 6b36
00000120: 9234 9b3d 9870 f63f 52d5 74be 7d81 1ebf
00000130: 7633 133e 9f06 10be a8e6 20be cf36 96bb
00000140: f8fd 1a37 5db7 763d 2dad 27bc 9dee ebbe
00000150: caab 1dbd 82ba 103f c97f 2d39 f511 0580
00000160: c4d4 3080 52cf 3980 2b91 013c de4e 913d
00000170: 7f76 73bc 693b e73d aaa2 01c0 7c99 feb8
00000180: bb05 fcbd 249a 0abf aac9 5837 4880 263f
00000190: 722c 8e3e c657 17be dbe2 aebf 8e08 be3f
000001a0: f123 a5ba 6a19 503c c457 b2bc b3ae 7e36
000001b0: 1019 acbf 8c47 0ec0 c464 d53c 1172 21be
000001c0: 9c4c de3f 5043 9739 30df 2000 053c 4580
000001d0: c40b 1700 65c7 4dbe 4b91 4abf ed0b 2cbd
000001e0: 3563 f7bd bb91 783f 9893 3138 edbd 673e
000001f0: d77f e93c d500 8939 6417 ccbe 847f 65bd
00000200: b062 ad3c 1494 84be 916e ce3d acb9 01be
00000210: aec0 373e 0cce 76bc 8432 a0b8 92af 34bc
00000220: ac2f a43d 3d3e 363c f109 75be b6e9 d8bf
00000230: 9887 2638 786e bbbd c5a0 82bf 8a7e 1335
00000240: e7dc 6ebe 9699 043f 94f2 08bd 2327 063f
00000250: 8aa2 9fbd ce71 a8be 58ac aebd e0c2 16bd
00000260: d778 96b7 a34c d53f 780d 413e 1ccb a9bf
00000270: 57a2 2c3d faf5 96bf 6c70 a4b9 b9e6 2fbf
00000280: 15b4 13be 1256 1cb5 238d a6bf d6fa 7d3d
00000290: 285e 16bf a3bc 0d3c 82b4 43bd 7fbc b2b9
000002a0: 5676 ecbc 13da 49be 4ba2 8fb8 bc77 aabe
000002b0: 8432 ee3e 9d44 18bb 1f31 7a3d bfb6 6ac0
000002c0: 5a16 46b8 5b23 c53c 40eb bebe 182c ce38
000002d0: 217d 103d 9175 ebbd f8f8 a1ba 1fe4 f5bd
000002e0: 51c2 ccbf 0d0b 1138 357f d03f 20cd 91be
000002f0: 7068 e334 7b14 17be 9058 783e 1e9e 6fbb
00000300: 3ea3 ebbd 3ba1 5fbf 753f 84b9 1c6f 2b3b
00000310: 9c57 2dbf 1d31 fc37 67c8 28be 942e 413f
00000320: 3822 2c3b d486 d53d 6de7 44be 11a5 83b9
00000330: 7f11 c13e b10a aebd 1620 d639 1290 2dbf
00000340: 8cfc c5bf 41b4 a2bf 5860 dfbd 6dde e03f
00000350: 3801 b1bd 2220 3580 f049 3380 b4cb 0180
00000360: 2756 8cbf 4d00 f2be 60f5 433d 27cd 23bf
00000370: 3a39 8d3f f3e7 6bbe 06ae 763e 23d1 07bd
00000380: 3cef 6037 695b 2fbe 27e4 283c 0612 a13c
00000390: 69f0 0c3c bbd8 953d fdf6 cbbd d1fb ad3e
000003a0: d833 443f 8c83 8f39 5bfd 6e3c e02c ba3d
000003b0: 4139 b23a 0606 64bd 6436 f1bc ad32 fdb9
000003c0: 8489 e63e 64fb a13d 31de dc37 6283 38be
000003d0: d23d fa3e 099f 5ebe 3943 79be 6e4d 713f
000003e0: e5f7 06bb 38ef 5e3d ac22 71be 96c5 7636
000003f0: daa0 32be e302 3a3f 6408 193a bd9c 29bf
-1.4647838 0.33745825 0.007287664 -0.35320073 -0.29184353 5.469755e-06 -5.112954e-39 1.4187e-41
4.37469e-40 -0.56595886 -0.046489913 0.008127164 -0.4952379 0.7194736 -0.00011709054 0.0061610187
-0.06393105 2.276226e-05 -0.18853022 0.21881281 0.012414167 0.15074614 -0.08039421 0.00017947565
-0.0989308 -0.23294042 -2.1773494e-05 -1.4993793 -1.7831448 -0.5919446 -0.2073736 1.134638
-0.066130735 4.076705e-39 2.04105e-39 -5.883479e-39 -0.49401802 -0.4197665 0.00552879 -0.046440482
0.8109293 0.00014995351 -0.038257625 -0.17854367 6.329743e-05 0.10567979 -0.13985093 -0.4548563
0.18698779 1.0040804 -0.0002988958 2.18041e-39 -2.210634e-39 -3.763933e-39 -0.40334862 -0.8690515
-0.014362445 -0.53808594 0.9301746 0.00017558767 0.2290895 -0.3944557 1.8902743e-05 -0.33516133
0.4012424 -0.00096769596 -0.06875126 -3.2012498 2.5976371e-05 0.010170539 -0.5813551 3.5049889e-06
0.07578386 1.9253111 -0.239095 -0.61916333 0.143751 -0.14065026 -0.15712988 -0.0045841704
9.238247e-06 0.060233463 -0.010234159 -0.46080485 -0.03849391 0.5653459 0.0001654617 -4.65619e-40
-4.48443e-39 -5.308996e-39 0.007908146 0.07095121 -0.014859795 0.112906285 -2.0255532 -0.000121402525
-0.123057805 -0.5414145 1.2921557e-05 0.6503949 0.27768284 -0.14779577 -1.3662981 1.4846361
-0.0012599212 0.012701372 -0.021770366 3.7950638e-06 -1.3445148 -2.2231169 0.026049025 -0.15766169
1.7367129 0.00028851116 3.0188e-39 -6.35818e-39 2.116437e-39 -0.20095594 -0.7912795 -0.04200356
-0.12079469 0.9709737 4.2337546e-05 0.22631045 0.028503342 0.00026131296 -0.39861596 -0.05602981
0.021165222 -0.25894225 0.100796826 -0.12668484 0.17944595 -0.015063774 -7.638804e-05 -0.011028187
0.08016905 0.011123237 -0.23929574 -1.6946323 3.9703766e-05 -0.091519296 -1.0205313 5.4945906e-07
-0.23326455 0.51796854 -0.033434466 0.5240347 -0.07794674 -0.32899326 -0.08528966 -0.03680694
-1.7937664e-05 1.6664013 0.18852794 -1.3265109 0.042147007 -1.1793816 -0.00031364278 -0.6871143
-0.14424165 -5.823978e-07 -1.3011822 0.062006794 -0.5873742 0.0086509315 -0.047779568 -0.00034091246
-0.02886502 -0.19712095 -6.849001e-05 -0.33294475 0.46522915 -0.0023234256 0.061082 -3.667404
-4.7227695e-05 0.02406471 -0.37288857 9.8310586e-05 0.035275582 -0.114970334 -0.0012357524 -0.12006401
-1.5996801 3.4580986e-05 1.628882 -0.2847681 4.2358033e-07 -0.14753906 0.24252534 -0.003656275
-0.11505745 -0.87355393 -0.0002522428 0.0026158756 -0.67711806 3.0063611e-05 -0.16482697 0.754617
0.0026265513 0.10426107 -0.19228907 -0.0002510925 0.3770866 -0.08498133 0.00040841167 -0.6779796
-1.5467696 -1.2711259 -0.10907048 1.7567879 -0.086428106 -4.878808e-39 -4.710134e-39 -1.6491e-40
-1.0963792 -0.47265854 0.04784143 -0.6398491 1.1033089 -0.230377 0.24089822 -0.033158433
1.34071415e-05 -0.17124714 0.010308302 0.019661915 0.00860224 0.07316729 -0.09959219 0.33981183
0.7664161 0.00027373096 0.014586772 0.090905905 0.0013597385 -0.055669807 -0.02944488 -0.00048293677
0.4502679 0.07909277 2.632951e-05 -0.18018869 0.4887529 -0.21740355 -0.2434205 0.94258773
-0.0020594534 0.054427356 -0.23548383 3.6771867e-06 -0.17444173 0.72660655 0.0005837737 -0.6625479

layers.0.fc_self.bias f4 [64]
00000000: 3e3a 52be 943e e33d c98b a83e 6a00 33c0
00000010: a9a2 843e 5b7e 7bbf b452 643e 471a 233f
00000020: d8a8 d23e f269 1dc0 dfd0 613f 81e9 173f
00000030: a33a 6bc0 56d0 f4bd b3ac 29be 9158 ff3f
00000040: 8f3b e63d a395 fa3e f15c 5d3e 0c8d d43e
00000050: e525 0e40 7fd3 2d3f 3880 96be 8ed8 5bc0
00000060: 0a50 dcbd b31e 053f 538a 463f a0d7 863e
00000070: 94b4 363f 81fe d73e 1af6 783e 38b2 51bb
00000080: f7cd 03bf ec94 7e3e 7beb b93f 147b 04c0
00000090: 875d 8b3c 946f 883f 8e28 5c3f d176 953e
000000a0: fc21 c73f d629 fbbe d2f8 b23f 18a5 943e
000000b0: 4272 1cc0 994b a9bf 1905 ddbd 9a56 4e3f
000000c0: 32c4 a5be 80d6 8e3d 830b 223f ecf3 bc3e
000000d0: 03ce 453f 07e9 e985 76c0 723f 2ac2 03bf
000000e0: c1f9 863f 9572 1d3f 7b48 95be f53e a1bf
000000f0: 4f53 be3e b4e6 253f 57fa 933f 346b 5d3f
-0.2053003 0.1109592 0.32919148 -2.7969003 0.2590535 -0.9823968 0.22297174 0.6371197
0.41144443 -2.4595914 0.88209337 0.59340674 -3.675454 -0.119537994 -0.16569786 1.9948903
0.11241829 0.4894229 0.21617486 0.4151386 2.221063 0.6790084 -0.29394698 -3.4350924
-0.10757454 0.5199997 0.77554816 0.26336384 0.7136929 0.4218636 0.2431263 -0.0031997096
-0.5148615 0.24861497 1.4524988 -2.070012 0.01701237 1.0659051 0.8599938 0.29192212
1.5557246 -0.49055356 1.3982184 0.29032207 -2.4444737 -1.3226196 -0.10791988 0.80600893
-0.32376248 0.069745064 0.63298815 0.36904848 0.77267474 -2.1996815e-35 0.9482492 -0.51468146
1.0544969 0.61502963 -0.2915686 -1.2597338 0.37172934 0.6480515 1.1560773 0.86491704

layers.1.fc_neigh.weight f4 [1, 64]
00000000: 0740 763f ade9 15bf badb 6b3e 9642 8abf
00000010: 97ad 22bf 2121 d1be 8c53 0fbf 7d49 19bf
00000020: 8a68 cd3c 5881 cebf 9865 8cbe 3368 2dbd
00000030: bbd0 8cbf 1e6e 9dbe 020d 9d3e d12b 0ebe
00000040: b9b0 333e cf21 933d 6c82 813f a1ea 21bf
00000050: d22f 45bd eb4c 99c0 ea0b 103f 8554 0abf
00000060: 2f5a 6abe f796 83bb af3c 3fbd 05c2 6bbe
00000070: 39b2 ef3e 5996 1c3d bc58 413d 8646 b23e
00000080: c7d4 093f 5d05 873e 2792 16bd 7e0c eabd
00000090: 4631 5fbf 01cd 43bb ab3b 403d 55d0 3abc
000000a0: 2654 51be 1109 66be bc75 b3bf 9a3a bf3e
000000b0: f33e 7ac0 f02a afbf 6f0e ec3e f51b a03d
000000c0: 10d9 9b3e 5c05 543e 7eb2 913d cfc9 833d
000000d0: f7e0 a8bd fca0 2f8c 9102 b83e a753 1abf
000000e0: 2676 7abe 3eea c3bd b04a a1be 889d 25bd
000000f0: 60c1 453e 7e16 0b3c 35f4 14bf 09a3 61bb
0.9619145 -0.58559686 0.23033038 -1.080157 -0.6354613 -0.40845588 -0.5598686 -0.5987776
0.025074262 -1.6133223 -0.2742126 -0.0423357 -1.10012 -0.30748075 0.30673987 -0.13883902
0.17547883 0.07184183 1.0117927 -0.6324864 -0.048141308 -4.7906394 0.5626818 -0.54035217
-0.22885965 -0.004015799 -0.04668873 -0.23023231 0.4681566 0.03822932 0.047203764 0.3481943
0.538403 0.2637128 -0.036760475 -0.11428164 -0.8718456 -0.002987683 0.046931904 -0.011402209
-0.20442256 -0.22464396 -1.4020305 0.37349397 -3.910092 -1.3684978 0.46104762 0.078178324
0.30439043 0.2070517 0.07114123 0.06434976 -0.08246034 -1.3529954e-31 0.35939458 -0.60283893
-0.24459133 -0.095661625 -0.31502295 -0.040433437 0.19312048 0.008489249 -0.5818513 -0.0034429452

layers.1.fc_self.weight f4 [1, 64]
00000000: 9cf0 80bd 3607 b9bd 4b10 bc3d f728 1fbf
00000010: 4f43 83be 51f2 cabe 35a6 b1bf b700 89c0
00000020: a51f 1abd fc3e 2bc0 be02 55c0 ea97 76bc
00000030: c6e3 a4bf f990 9cbf ef5b a73e c20a 35c0
00000040: 6230 913d 0850 a13d 75a9 9a3e 1c41 8bc0
00000050: 5f52 09c0 d87c 39c0 7e61 00c0 0486 fabe
00000060: 95d7 6ebd 2ecd a4bf 0c60 67bf 658a 00be
00000070: 9f71 bbbe dce2 003d 16a7 2c3d b14b f3bc
00000080: bf88 ebbd e1fa 953d 6754 7fbd 3817 03bc
00000090: 4c32 f0be f26f a9bb c6dc 9d3c df6d 66bf
000000a0: 74ca 23be d438 ae3e 7e2d f6bf 7440 4e3e
000000b0: c715 79c0 d2a5 96bf 81e7 0b3e e41a c63d
000000c0: 90c4 25be ca13 4f3e ad7e 413d 6ea7 643d
000000d0: 3a47 00c0 bbd1 688c 4a47 07bf 63ae de3c
000000e0: 8d22 4dbe b744 a2bf 38ff 57bd 8f7e 95bc
000000f0: cf7c 98bf 5999 b3bf 477d d5bf effe c2bf
-0.062958926 -0.090345785 0.09182795 -0.6217188 -0.2563729 -0.39637998 -1.3878847 -4.2813373
-0.037627835 -2.6757193 -3.3282924 -0.015050868 -1.2882011 -1.2231742 0.32687327 -2.8287816
0.070893064 0.07876593 0.3020741 -4.351698 -2.1456525 -2.8982449 -2.0059505 -0.4893037
-0.058311064 -1.2875116 -0.9038093 -0.12552793 -0.36610124 0.03146635 0.042151533 -0.029699178
-0.115006916 0.07323242 -0.06233635 -0.008001141 -0.46913373 -0.0051708156 0.019270312 -0.900114
-0.15995198 0.3402773 -1.9232633 0.20141774 -3.8919542 -1.1769354 0.1366253 0.09673098
-0.16188264 0.20222393 0.047239948 0.055823736 -2.0043473 -1.7935743e-31 -0.52843153 0.027182763
-0.20032711 -1.267722 -0.05273363 -0.018248824 -1.1913089 -1.4031173 -1.6678857 -1.523405
