N0-Noise/weight_12/best_model_no_noisse_weight_12.pth (torch, 8143 bytes, 5 tensors)

layers.0.fc_neigh.weight f4 [64, 9]
00000000: 9401 f6be 654f 8cbf a4ae ac3d 4f52 3abf
00000010: 1f5c 01bf edca 25bf 8e60 11be d7ad 553f
00000020: e03b 1d00 d940 5bbf 0cb6 b73e 67d8 01bc
00000030: 9e5a 843e 9806 e53d 75a9 a1be ed81 85bf
00000040: 7629 3dbd 8920 2280 8cc7 15bf 46f1 3c3f
00000050: b8e6 043a 2297 e63c 972f 1fbd 19dd 36ba
00000060: acfa dbbf 6ba6 a23f 0cbe 1900 b444 8c3f
00000070: 4f25 9ebf 68e6 9539 74f5 363e b7f7 52bf
00000080: 8263 aeb9 6b18 e6bd a73d 363d 74b3 2180
00000090: 3fba ab3d bf36 d93e 7071 c63b 1e0a 733d
000000a0: b12e 05c0 4140 ffb8 cb6a debf a943 983f
000000b0: 454b 3080 09bf c4bf d94a f33f 0dbc 433f
000000c0: 87dc f03f b17a 2f3f cf92 6ebc 96f7 e8bf
000000d0: fd68 2ebe d21a 4380 9d62 e0be 40f1 07bf
000000e0: 8985 1c3d 15b6 15bf c93d 153f 5a1e 373e
000000f0: d6d9 213f 0c41 04bf f9a3 2b80 b4f0 1e40
00000100: a7a0 1cc0 4e8c 5d3d 8791 42bf 32b6 dc3e
00000110: 395c 04bb 3d10 d53f 5c27 273f ca0e 2580
00000120: e7d5 3fbf 95c8 f43e 5d8d 3cbc 3452 953e
00000130: a1ea d3bd 4ae1 193e 7029 47bf 026d 7fbe
00000140: 0d83 1980 6b12 c6bd fc03 08bf 8424 2d3b
00000150: aee2 24bf f79c 04bf 4302 213b 951b 563f
00000160: afc5 b3bf 3562 0c00 5dd8 1dbf 716a b7be
00000170: c263 43bf 3f30 b2be 9b12 dabe a866 6ebe
00000180: ba32 a43e 70da 883f 9375 3f00 bf66 37be
00000190: b61f 4bbd 9f71 2b3c bf5c 94bd 10b2 f93e
000001a0: 695b b73d 4efb 1ebe 35a1 93bd 5418 0e80
000001b0: 17b0 aebe 2e20 373f c23e a13d 3b36 86be
000001c0: a691 46bf 36ec 8e3e c220 9bbe 7828 0a3f
000001d0: d85f 0b00 34d0 d0bf 68ea 783f 000c 853e
000001e0: 15f7 3b3f 672f be3c 9013 6abb ef4c 05c0
000001f0: ca46 b13f 20d0 2500 c28b 4200 d7f6 2380
00000200: 1aeb 1000 917c 0080 3887 1e80 40af 0680
00000210: 948e fbbc c5e7 9ebe 53ce 1a00 62e3 873f
00000220: 6a21 5f3e 8406 9e3f 8dcc a6bd e466 ba3e
00000230: 8914 9c3d fec2 dfbe 75c4 0ebe ed0f 0b80
00000240: 849f 43bc 1a6b a7ba 3aa7 d538 fa6d b73b
00000250: d1a1 23bc 0408 b9b8 8927 5f3c 6717 55be
00000260: 866f 3e00 e07a c63e d4a6 f8be ed12 e73b
00000270: f3f1 8fbe 3981 f33e 5bac 70ba f63a ce3e
00000280: 8894 69bd 26ce 1f00 2605 45bf 32d4 1d3f
00000290: 6de9 073d d1f4 343e e470 5ebf 2051 4b3a
000002a0: 8ef9 cdbf 4e62 1b3f e7dd 3380 3235 c4bf
000002b0: cb57 d33f 7321 053f 845d 9a3f 1b3a 1c3f
000002c0: 6d76 b8bc 4b7b c4bf 83f8 7b3e 71a8 0480
000002d0: 30fa 6ebc 128f 323d 89e5 3b3d 3578 f6be
000002e0: 0bca 183e 1e76 a83d b63e 86bd 4c6e 04be
000002f0: 0a72 3400 d26c f13d 71d9 8a3f 3552 c33d
00000300: 0f79 32bf c65c 88bf 008b 18bd 7ff3 5a3e
00000310: 5637 dd3e 5b35 1780 612b 99bd 85d3 283f
00000320: df78 653c a166 5bbd 5575 13c0 9ee4 0bb9
00000330: 890c 25c0 808a b13e 2ada 0280 0114 913c
00000340: 883c f63e 2abb 863c 8f72 cfbc c7e9 30c0
00000350: dcbe 0bb7 10c6 163d d862 813f d58f 1b80
00000360: f962 a2be e05a a6bf 35ed 19c0 b8bb 56bd
00000370: 4cba 1a3f bd96 593e 9429 1340 768c 0140
00000380: 183f 1e00 9214 acbf 9cd5 053f aca9 2d3f
00000390: 8dc5 ef3f e343 393f c64c 3ebc 3b7e f9bf
000003a0: b6a9 4c3e c61a 0100 0581 ecbd ef8e b73e
000003b0: b311 65be 8887 d53d e79a 8abf c783 ce36
000003c0: 51e9 75bf 7e42 afbf 45a4 1980 d50d 8cbe
000003d0: cd9c 2fbf 7cd8 d23b 9ff2 393c c9aa 08be
000003e0: d48c 95ba 6a29 bfbc 603a b6bf 11c5 0a80
000003f0: 10c6 f4bf 496d 933e cadf 113f 3757 bb3f
-0.4804808 -1.0961729 0.084317476 -0.7278184 -0.5053119 -0.64762765 -0.14196989 0.83468384
2.684708e-39 -0.85645825 0.35881078 -0.0079251295 0.25850385 0.11182898 -0.31574598 -1.0430275
-0.04618212 -3.134078e-39 -0.5850761 0.73805654 0.000506978 0.028148238 -0.038863745 -0.0006975695
-1.7185874 1.2707037 2.364063e-39 1.0958467 -1.2355136 0.0002859116 0.1786707 -0.8240923
-0.00033262005 -0.11235126 0.04449239 -3.094947e-39 0.08385133 0.4242458 0.0060560033 0.05933582
-2.0809748 -0.00012171316 -1.7376341 1.1895648 -4.435105e-39 -1.5370799 1.9007217 0.7645882
1.88173 0.6854659 -0.014561369 -1.8200557 -0.17032237 -6.1626e-39 -0.43825236 -0.53102493
0.038213287 -0.5848096 0.582974 0.17882672 0.63223016 -0.51661754 -4.007749e-39 2.4834414
-2.4473054 0.054088883 -0.7600331 0.43107754 -0.002019657 1.664558 0.6529443 -3.403219e-39
-0.74935764 0.47809282 -0.011508313 0.29164279 -0.10347486 0.15027347 -0.77797604 -0.24943927
-2.3429e-39 -0.09671482 -0.5313108 0.002641947 -0.64408386 -0.5180201 0.0024567998 0.83635837
-1.4044703 1.137256e-39 -0.6165827 -0.35823396 -0.76324093 -0.34802434 -0.4259232 -0.23281348
0.3206995 1.0691662 5.827814e-39 -0.17910288 -0.04959079 0.010464101 -0.072442524 0.48768663
0.08952982 -0.15525553 -0.07208482 -1.294424e-39 -0.3411872 0.7153348 0.07873298 -0.2621325
-0.7756599 0.2791459 -0.3029843 0.53968 1.044573e-39 -1.6313539 0.97232676 0.25985718
0.7342389 0.023215963 -0.0035717227 -2.0828207 1.3849728 3.472575e-39 6.111278e-39 -3.302792e-39
1.553706e-39 -4.4686e-41 -2.803572e-39 -6.13881e-40 -0.030707635 -0.310362 2.461738e-39 1.0616267
0.2179009 1.2345738 -0.08144484 0.36406624 0.07621104 -0.43703455 -0.1394213 -1.015904e-39
-0.011939887 -0.0012773008 0.0001018778 0.005597827 -0.0099873105 -8.8229805e-05 0.013620266 -0.20809709
5.733808e-39 0.3876562 -0.4856478 0.0070518167 -0.2811428 0.47559527 -0.00091809564 0.4027936
-0.057026416 2.920853e-39 -0.7696098 0.6165191 0.033181597 0.17671515 -0.8689101 0.0007755924
-1.6091783 0.60696876 -4.763214e-39 -1.5328734 1.6511167 0.52004164 1.2059789 0.6102616
-0.022517407 -1.5350126 0.24606518 -4.27767e-40 -0.014586017 0.043593474 0.0458732 -0.48138586
0.14920823 0.08225654 -0.0655493 -0.129327 4.816355e-39 0.11788334 1.0847608 0.09537164
-0.6971597 -1.0653312 -0.037241936 0.21381949 0.4320628 -2.131357e-39 -0.07478977 0.65947753
0.014005869 -0.05356467 -2.3040364 -0.0001334124 -2.57889 0.3467598 -2.61934e-40 0.017709734
0.48093057 0.016446669 -0.02532318 -2.7642686 -8.3294835e-06 0.03680998 1.010829 -2.531156e-39
-0.31716135 -1.2996483 -2.405103 -0.052425116 0.60440516 0.21248908 2.2994127 2.024198
2.777699e-39 -1.3443778 0.5227907 0.67837024 1.8732163 0.7236921 -0.011614984 -1.9491647
0.19986615 1.0144e-40 -0.11548046 0.35851237 -0.22370033 0.10426241 -1.0828522 6.1546193e-06
-0.9605914 -1.3692167 -2.354816e-39 -0.27354303 -0.68598634 0.0064344984 0.011349349 -0.133464
-0.0011409768 -0.023335177 -1.4236565 -9.89049e-40 -1.9122944 0.28794315 0.569821 1.4635991

layers.0.fc_self.weight f4 [64, 9]
00000000: f02e 1c3e 4708 c63e c5a1 e53c f2dc 27bf
00000010: 6ba3 1abe 2cf8 0a37 7217 b13f 669b 903f
00000020: 6a81 103b 0845 063e 7453 b03f 72db a83b
00000030: 1f5d 87be f080 53be 0b7b 0dbb f050 5bbe
00000040: c8ad b23e 3915 4f39 dc27 e0bf a317 4a3c
00000050: ba92 313b 084d 963c 0d67 f6bc 72ac 5db7
00000060: ddd5 58be ee82 3cbe 036d 2aba 38e3 4bbe
00000070: 645b 633f f97e 823a f3a8 15bf 4a8c 18bf
00000080: 2b9d 0e39 e198 03ba 2d59 9abe a62a d93a
00000090: 0cb6 1f3d c5d9 9c3d f121 8e3b 092c 55bc
000000a0: 4915 28c0 611a 6537 aada ffbe 43d1 32bf
000000b0: 5b4a 0839 b4d4 a5bf 3b76 853f a813 7c3d
000000c0: 0adb e13f 62c4 643e 037e ad3b 38ec f33d
000000d0: 2629 3300 ed55 1700 b8ed 50bf 7f79 5cbf
000000e0: 7f77 133d 07bf b1be 6266 893f 86ea 2dbe
000000f0: 7213 2e80 c893 2c00 34bf 2e80 95fc 113f
00000100: 863c 68be 084c e4ba 7631 61bf 93b3 c8be
00000110: 6a5c a03a 863a abbd 3318 2fbf f336 0b39
00000120: 9d72 38bf 1edf d23e 8300 0d3e 2d47 fe3d
00000130: 04df a1be eae0 64be 9486 1b3d 7044 2380
00000140: dd3e 1b80 3637 b2be 0269 793e b840 ebbd
00000150: 85d1 4fbe 8f44 963f 7df0 a8ba 220e 9d3d
00000160: b78e 7ebd adaa 3b39 40cc 593e 1605 a5be
00000170: d799 76bd 4b58 523d 1c4c a5bf c2be 873a
00000180: 7ac4 1dbe 16b5 81be 6550 bd3b e1ac 093c
00000190: 5c61 4d3d 9602 b23b 0c9a b63d bdb7 a33e
000001a0: 8997 56be 1b42 743c 6159 933c edf2 a73b
000001b0: 041f 5cbe d295 9d3f 53cc 5abc eba5 843e
000001c0: d388 c3be 5c66 8bbe 8d72 46be ea5d 0fbe
000001d0: 42fb a1b9 59d7 c9be eb69 0b3f 7ef4 503c
000001e0: d6d0 3d3f 3343 58bf b12c f93a 185f af3e
000001f0: 5dc5 e33e 2708 76b7 54c4 fdbe 708c 9bbe
00000200: cff7 c13c 2310 5ebe 6fd9 a0bc e456 4cbe
00000210: 6b94 1c00 411e 3b00 930a 3280 cb61 dabe
00000220: ba67 92bf 7fd1 ae3e 69c5 34be 8e02 003f
00000230: 0f3e 2abd cf12 723e 0e4a 9b3e 2f10 8135
00000240: c152 6b3c d736 463d c702 eebf 356d bdba
00000250: 8ab9 253f b9f3 5a38 75d0 4200 af93 0b80
00000260: e40e 2f00 c197 93bd c97b be3c d539 233b
00000270: 5006 fcbd c0a9 d93b 44b3 3e39 db86 c6bc
00000280: 83f1 a2be 70eb e539 47c5 1a3d 9c46 883f
00000290: 8810 873c b133 703e 0051 65bf 2302 c9b8
000002a0: 2e78 b3be 1b5f 5e3d f738 2cb9 26c4 9dbf
000002b0: 5d09 5c3f 8616 06c0 200a df3f 92e2 953f
000002c0: e978 e33b 7276 833c a796 2500 d833 2400
000002d0: 96ca e8be 381c 5bbf 8cf7 843d 729d a6be
000002e0: 14b5 633e c09d a6bd c5c4 ecbd 28b2 1500
000002f0: a267 1b00 6c44 59be ee94 f0be 77a8 0dbf
00000300: f5df 1dbf c36c 52bf 94bd 08bb a621 4400
00000310: 583a 1400 868e 2700 b8f6 00bf 326f ef3e
00000320: e4da 1fbb 12ba 2b3d f868 64c0 dc27 b138
00000330: 6915 adbb 9cdd 09bf 6d0e 153b 0da4 1fbe
00000340: 7255 683e 4041 093c 24d0 a33d 6f92 45c0
00000350: a5cc f6b7 a443 27bd 1669 2dbf cdd2 153a
00000360: a5b9 b5be b688 13bf bb9c 49be b9e2 b43c
00000370: 4050 8a3f 98f8 57be 5370 a33f 8498 0600
00000380: 1cea 0280 af81 19bf 4780 033f 4c62 cdbd
00000390: 5dac c83f 2467 bf3d 4d63 843b 0568 e83b
000003a0: 29d6 753e b4b0 2280 aa16 7d3d e063 c7be
000003b0: c9f6 d4bb 41d3 1ebd 0345 7d3f dc64 a838
000003c0: acb9 2980 1a3c 1c80 871a 1300 a1a8 b3be
000003d0: 2cd0 8dbf 9519 44bf 0e14 d7ba 28c4 823f
000003e0: d02b 84ba 42c8 0400 f258 0080 eeba 4280
000003f0: b48b 04bf e628 393e ff75 723e 7a71 d63f
0.1525228 0.3867819 0.02803124 -0.6557151 -0.15101402 8.283223e-06 1.383528 1.1297424
0.0022049793 0.13112271 1.3775468 0.005153113 -0.26438233 -0.20654655 -0.0021588232 -0.21417594
0.3489821 0.00019748964 -1.7512164 0.012334737 0.0027095512 0.018347278 -0.030078435 -1.3212777e-05
-0.21175332 -0.1840932 -0.00065012294 -0.19910896 0.88811326 0.0009956054 -0.5846092 -0.59589064
0.00013600725 -0.0005020034 -0.3014616 0.0016568496 0.038991973 0.07658724 0.004337542 -0.013010987
-2.6262991 1.36556055e-05 -0.49971515 -0.6985056 0.0001299767 -1.2955537 1.0426706 0.061542183
1.764497 0.22340539 0.005294563 0.119102895 4.698372e-39 2.143041e-39 -0.8161273 -0.8612289
0.036002632 -0.34716055 1.073437 -0.16983995 -4.231408e-39 4.093776e-39 -4.293024e-39 0.57026035
-0.22679338 -0.0017417679 -0.87966096 -0.39199504 0.0012234573 -0.08360772 -0.683963 0.00013276543
-0.72049886 0.4118585 0.13769726 0.124159195 -0.3161546 -0.22351423 0.03797014 -3.238793e-39
-2.50211e-39 -0.34807748 0.24356464 -0.114869535 -0.20294769 1.1739672 -0.0012889054 0.07668711
-0.062147822 0.00017897291 0.21269321 -0.32230443 -0.060205307 0.051353734 -1.2913852 0.0010356533
-0.15406981 -0.2533347 0.005777406 0.008403034 0.050141677 0.005432437 0.08916101 0.3197612
-0.20956244 0.014908339 0.017986955 0.0051253946 -0.21496207 1.2311347 -0.013354379 0.25907835
-0.38190326 -0.27226532 -0.19379635 -0.14000669 -0.00030895515 -0.3942211 0.54458493 0.012753604
0.74146783 -0.8447754 0.0019010511 0.34252238 0.44486514 -1.4664641e-05 -0.4956385 -0.30380583
0.023677735 -0.21685843 -0.01963493 -0.19955021 2.624636e-39 5.429147e-39 -4.595568e-39 -0.42652735
-1.1437905 0.34144208 -0.17653431 0.500039 -0.04156309 0.23639987 0.30329937 9.615959e-07
0.014362992 0.048392143 -1.8594598 -0.0014452102 0.64736235 5.2202235e-05 6.135923e-39 -1.06317e-39
4.32161e-39 -0.07206679 0.023252385 0.0024906297 -0.123058915 0.00664255 0.00018186594 -0.024234226
-0.31824884 0.00043853698 0.037785795 1.0646548 0.016487375 0.23457219 -0.8957672 -9.584825e-05
-0.35052627 0.05428992 -0.0001642442 -1.2325485 0.8595179 -2.0951247 1.7424965 1.1709769
0.006941904 0.01604769 3.451957e-39 3.324676e-39 -0.4546706 -0.85589933 0.06492528 -0.32541996
0.22237045 -0.08135557 -0.11560968 1.992456e-39 2.516735e-39 -0.21217507 -0.46988624 -0.5533518
-0.61669856 -0.8219721 -0.002086495 6.256885e-39 1.85764e-39 3.632712e-39 -0.5037646 0.46764523
-0.0024391944 0.041925497 -3.5689068 8.447442e-05 -0.0052820933 -0.53853774 0.0022744194 -0.15589924
0.22688845 0.008377373 0.07998684 -3.0870626 -2.942078e-05 -0.04083599 -0.67738473 0.00057153107
-0.35493198 -0.5763048 -0.19688694 0.022080766 1.080574 -0.21090925 1.2768654 6.05725e-40
-2.67654e-40 -0.59963506 0.5136761 -0.10028514 1.5677601 0.093458444 0.004040158 0.007092478
0.24007477 -3.185796e-39 0.061789192 -0.38943386 -0.0064991456 -0.038775686 0.9893343 8.029651e-05
-3.831862e-39 -2.592954e-39 1.75439e-39 -0.3508959 -1.1079154 -0.76601535 -0.0016409175 1.0216112
-0.0010083858 4.39181e-40 -3.1908e-41 -6.1282e-39 -0.5177567 0.18082008 0.23677824 1.675338

layers.0.fc_self.bias f4 [64]
00000000: 5dae 113f cc68 443e 01f3 d83e 5ee4 d63e
00000010: 9e8e b03f 2dd1 ccbe bb40 89bf d8a9 dd3f
00000020: 7943 cabe daf7 88bc 0bd3 013f c225 363e
00000030: 6f3b 0b3f 84dd ba3d 7880 c2be 140e 803e
00000040: 7ed3 2fc0 70f7 f83e 5bd5 e43e 22b4 8abe
00000050: 2197 18be 8ba6 f4be b11f 093f d4e0 563f
00000060: 8e4e 11c0 3359 60be 8d9f eebf e1f1 19c0
00000070: 9b59 44bf ae1c 8b3e 4156 60be 4da8 21be
00000080: e1f8 293f 31de 1dbe 17f7 1a3e a359 ba3f
00000090: 30bc 67bc f405 53be 2229 cfbe 3a31 043f
000000a0: d746 383f b967 44be 2a4f d23b 8e45 0540
000000b0: 8122 c63e 270c 97bd 3cf8 0340 d5e5 40c0
000000c0: 2f0b 123f 7ea3 07be 96c7 903f 8af4 51bd
000000d0: 0f1c b03e 93ad 22c0 64d7 1c40 4154 86be
000000e0: d244 a73f 2041 1a80 f8e5 b73e b017 0340
000000f0: 74d9 8c3f 699f adbd ed69 d43d 15f1 9abf
0.5690668 0.19180602 0.42372897 0.41971105 1.3793523 -0.40003338 -1.0722879 1.7317457
-0.39504603 -0.016719747 0.5071265 0.17787841 0.54387563 0.09124282 -0.3798864 0.2501074
-2.7472835 0.4862628 0.44694027 -0.27090555 -0.14901401 -0.47783312 0.5356398 0.8393681
-2.2704196 -0.21909027 -1.8642441 -2.405388 -0.7669923 0.27170318 -0.21907903 -0.15786858
0.66395384 -0.1541679 0.1513332 1.4558605 -0.0141439885 -0.2060774 -0.4046107 0.51637614
0.71983093 -0.19180192 0.0064181285 2.0823703 0.386982 -0.07375365 2.062026 -3.0140278
0.57048315 -0.13245961 1.1310909 -0.0512586 0.34396407 -2.5418441 2.4506464 -0.26236156
1.3067877 -2.411085e-39 0.3591764 2.0483208 1.1003861 -0.08477671 0.10371766 -1.2104822

layers.1.fc_neigh.weight f4 [1, 64]
00000000: 48a2 5a3c aafc 433e 7817 213f 0bf8 0e3f
00000010: 9545 0fbe fa72 6f3b 185a 05be f183 febc
00000020: b76d c93c 4c84 d7be fd1b ffbd 6d65 6a3e
00000030: c5fd 1e3e 27e3 773c 64f3 153f 23a6 363b
00000040: 8593 98c0 ce3c 6abe e82a ea3d 8d07 a33b
00000050: 7fe1 7ebd 75ac 033f aaf4 71bf b4bb 7bbe
00000060: 5084 dcbe 614b 793b f0c7 75bf f2cb a1c0
00000070: 361b a63b 9a62 403e e6d7 113e 738c 683b
00000080: b502 453d a07f d73e d019 d43e 2192 19be
00000090: fc32 e8be 1be8 733e 25c5 abbe ee90 f5bc
000000a0: f5cc 6dbe cdbb 5c3f 4323 143e 120a f1bb
000000b0: c972 b03c 93bb 41be 349b b7bc 76e0 24bf
000000c0: cf15 9d3d 052c 21be e4c4 83bc de53 293c
000000d0: f47d c63d ed6f 47c0 38e6 97be a038 2e3e
000000e0: cc16 89bd e052 0000 70c6 ba3d 43cb 07bb
000000f0: d80a 3b3c 2963 35bf cfd0 dc3e c1fb 0fbf
0.013344355 0.19139352 0.62926435 0.55847234 -0.13991387 0.0036537037 -0.1302265 -0.031068774
0.024588449 -0.42093122 -0.1245651 0.22890253 0.15526493 0.015129841 0.5857451 0.0027870021
-4.7680078 -0.22874758 0.11433965 0.0049752654 -0.06222677 0.51435024 -0.9451395 -0.24583322
-0.43069696 0.0038039314 -0.96008205 -5.0561457 0.0050691618 0.18787614 0.14242515 0.0035484105
0.048098285 0.42089558 0.41425943 -0.1499715 -0.45351398 0.2381901 -0.33548847 -0.029976334
-0.23222716 0.8622406 0.14466576 -0.007355937 0.021539109 -0.1891921 -0.022412874 -0.64405
0.07670175 -0.15739448 -0.016085096 0.010334937 0.096919924 -3.1162064 -0.2966783 0.17013788
-0.06693801 2.973e-41 0.0911988 -0.0020720519 0.01141616 -0.7085443 0.43128058 -0.5624352

layers.1.fc_self.weight f4 [1, 64]
00000000: fbfb bdbf db1f e0bd 91e4 e03d 8adf 76be
00000010: 86d8 63c0 b0e1 1f3b fbd8 e7bc d24f 74bd
00000020: 75f8 913e bcf6 55be e608 bbbf 4568 61bf
00000030: c63b d83d 5314 233c a9bc 05ba 62d0 eab8
00000040: 04b3 b2c0 c259 26be e656 323d ed24 813b
00000050: 2745 e73e 468b 0b3f 96f2 98c0 fb26 86c0
00000060: d081 6fbe 7513 3b3b 99a1 8ebf 7804 7dc0
00000070: 803c 4b3b 2efd c03d 35eb bcbd 3c56 213b
00000080: 3893 05c0 bbb4 0e3e 50b4 a3bd 7fbd 81c0
00000090: 7531 52bd e0b7 143e 7d84 0bbe cfa9 9bbf
000000a0: d6ae bdbd 049d 29c0 c545 b73b 49ae e2bd
000000b0: 10eb 05c0 a0fd acbf 16b9 3abd 2882 eabe
000000c0: df2c 7c3d 4e56 f1bd 63b0 32bc 4d55 ce3b
000000d0: bd80 863d 7b18 5ec0 e82c 9abf 6f4d 863e
000000e0: 5d4a a2bf e04e 1900 9fa9 a63c 196b ebbe
000000f0: f33b cebe ca34 d1be 6dde 0f3e d3c4 15bf
-1.4842523 -0.10943576 0.109810956 -0.24108711 -3.5600905 0.0024395995 -0.028301707 -0.059646435
0.2850987 -0.20894903 -1.461209 -0.8804973 0.10558276 0.009953576 -0.000510166 -0.00011196804
-5.5843525 -0.16245177 0.043539904 0.0039411695 0.45169947 0.5450939 -4.7796125 -4.1922584
-0.23389363 0.0028545533 -1.1143066 -3.9533978 0.0031011403 0.0942329 -0.0922455 0.002461805
-2.0871105 0.1393613 -0.07993376 -4.054382 -0.051316697 0.14523268 -0.13624759 -1.2161196
-0.09261863 -2.6502085 0.005593034 -0.110683985 -2.092472 -1.35149 -0.045586668 -0.45802426
0.06156623 -0.117840394 -0.010906312 0.0062967897 0.06567524 -3.4702442 -1.2044954 0.26230952
-1.2678944 2.324182e-39 0.020344554 -0.45980147 -0.40280113 -0.40860587 0.14049692 -0.58503455
