N0-Noise/weight_2/best_model_no_noisse_weight_2.pth (torch, 8135 bytes, 5 tensors)

layers.0.fc_neigh.weight f4 [64, 9]
-0.8549367 -1.7511648 -1.1800996 -0.8015294 -0.53304905 -2.074289 -0.2481266 0.5387811
-5.55926e-39 -0.38772342 -0.91014993 0.0054064314 -0.0011372399 -0.07383769 -0.00060625985 0.09503482
-1.965363 -1.8033e-41 0.5013019 -1.9823426 0.02987772 -0.35765126 0.15807587 -0.006509237
0.55908924 0.49092773 5.32348e-40 -2.3114512 1.1555264 0.3512819 0.399468 -0.87474525
-0.0021813998 -1.7597743 1.2241836 3.132687e-39 -0.22379419 -0.66740113 0.035810065 -0.06656673
-0.24909304 0.18970925 0.0037206803 0.019275893 5.189815e-39 -1.188568 -2.2074907 -1.525306
-1.1216779 -1.0535929 -2.3416991 -0.6006871 0.32227075 -2.218586e-39 -1.782058e-39 -1.731775e-39
-1.005363e-39 1.4985e-41 -5.976321e-39 1.697461e-39 0.061431468 -0.31450447 -2.964944e-39 -1.0212599
0.9213898 0.31856066 0.4242217 -0.24319237 -0.0028329275 -1.2905416 1.4979175 5.267537e-39
-1.7392998 0.5216032 -0.65815395 0.103151105 -0.13511676 -0.0045433315 -0.8094794 -0.31977078
-4.942576e-39 -0.077033326 0.27384272 0.008901111 -0.03639567 -1.9593134 7.124163e-05 0.36341706
0.34840629 3.244152e-39 0.22499184 0.23184855 -0.3092354 -0.0009932318 0.7413635 0.037355393
-0.5433171 -2.2157989 -2.034804e-39 0.20186667 -0.8708605 0.013949226 0.25647828 -0.09180367
-0.0077975835 -0.1608658 0.8863136 -5.60665e-39 1.7945498 -0.30845246 -0.036991987 -0.28859493
-0.031397615 0.26320443 0.4652409 -0.0061818287 -4.826974e-39 0.84841913 1.3695463 -0.05854678
0.45502684 -0.91644764 0.20052633 -0.87605864 -0.94941896 -3.039335e-39 0.02875011 -0.61921006
0.0056831692 -0.63238305 -0.5002495 0.0013878617 1.0738969 -1.3906065 6.95099e-40 -0.0833069
0.5282671 0.022272471 0.09577288 -2.6296067 -0.00014778344 -1.6152456 0.4138887 6.357977e-39
-0.52256095 -1.2246813 0.0018328205 0.0175053 -0.15884203 0.00010781577 -0.12179079 -2.2897313
-1.637754e-39 0.07387994 -0.5646737 0.002051361 -0.16683091 0.2813355 0.00010221678 0.33026028
-0.9817299 1.855686e-39 -0.03876083 -0.02168633 -0.0669667 -0.021701353 -0.008550585 -0.25288922
0.0409914 -0.17009974 -4.494554e-39 1.0104965 -0.8401027 0.00048423925 -0.14877608 -1.6926565
-0.0010350898 -0.49551806 0.3352108 1.660864e-39 2.5440705 -2.4743865 0.06072159 -0.89214456
-0.1440003 -0.002885093 1.3605925 0.3915583 3.65092e-39 -0.7559447 -0.88700306 0.060176224
-0.33339474 0.39941716 0.12396866 0.6411412 -0.083210364 -5.63618e-40 0.08195796 0.10893918
0.039921228 -0.13653515 0.08566063 -0.063227564 0.062419437 -0.1430265 -4.502672e-39 -0.11643383
0.4129255 0.007773793 0.22166298 -1.15973 -0.00021974408 0.637694 0.37707853 -3.159544e-39
-0.48469517 -0.99885005 0.006975796 -0.04178184 0.13754797 0.0001877163 0.034169957 -1.5839064
-3.775451e-39 0.23945075 -0.2506221 -0.0021267198 -1.1724367 -0.4349404 -0.004335372 0.9031413
-0.4391733 4.276724e-39 0.0018236196 0.024150223 -0.00066184043 0.01188936 -0.022669496 -9.077031e-05
-0.013956827 -0.19619969 5.79992e-40 -0.20646621 1.7631236 -0.00076790963 -0.545826 -0.8781766
0.00042140106 0.07653302 -0.18960987 6.250066e-39 0.15749541 1.1751511 -0.004976148 -0.31396294
00000000: 22dd 5abf 2b26 e0bf 810d 97bf 0831 4dbf
00000010: e775 08bf 27c1 04c0 e614 7ebe 8fed 093f
00000020: f588 3c80 af83 c6be 96ff 68bf 6f28 b13b
00000030: 700f 95ba 3738 97bd 69ed 1eba 9ea1 c23d
00000040: 0491 fbbf 4532 0080 5255 003f 67bd fdbf
00000050: 1fc2 f43c 111e b7be a4de 213e 704b d5bb
00000060: 7920 0f3f e15a fb3e f8cb 0500 d1ee 13c0
00000070: 4ae8 933f 39db b33e 1287 cc3e 4eef 5fbf
00000080: d1f5 0ebb 4940 e1bf 0cb2 9c3f a81c 2200
00000090: 4e2a 65be cdda 2abf 93ad 123d 2354 88bd
000000a0: 3f12 7fbe 2443 423e a8d6 733b 7ae8 9d3c
000000b0: 1883 3800 ff22 98bf 8747 0dc0 3a3d c3bf
000000c0: 2493 8fbf 22dc 86bf 66de 15c0 a1c6 19bf
000000d0: ac00 a53e 8428 1880 a767 1380 7cdb 1280
000000e0: 8bf2 0a80 c629 0000 8d13 4180 d57b 1200
000000f0: 909f 7b3d bb06 a1be 0f49 2080 a5b8 82bf
00000100: 34e0 6b3f 621a a33e 9633 d93e 6c07 79be
00000110: a3a8 39bb 7830 a5bf c3bb bf3f c05b 3900
00000120: 60a1 debf ca87 053f c77c 28bf e340 d33d
00000130: 0c5c 0abe 3ae0 94bb 0b3a 4fbf ffb8 a3be
00000140: e4d1 3580 a6c3 9dbd 1d35 8c3e f7d5 113c
00000150: a013 15bd c8ca fabf 8f67 9538 cd11 ba3e
00000160: 4f62 b23e 6053 2300 4364 663e b569 6d3e
00000170: 1a54 9ebe 542f 82ba 00ca 3d3f f801 193d
00000180: d416 0bbf a6cf 0dc0 3528 1680 23b6 4e3e
00000190: b7f0 5ebf 4b8b 643c 1f51 833e 9003 bcbd
000001a0: df82 ffbb 01ba 24be 73e5 623f 0f0d 3d80
000001b0: cfb3 e53f 7bed 9dbe e984 17bd b7c2 93be
000001c0: c99a 00bd bbc2 863e 0e34 ee3e f090 cabb
000001d0: a48f 3480 ff31 593f 4b4d af3f c0ce 6fbd
000001e0: 47f9 e83e 509c 6abf c656 4d3e 6145 60bf
000001f0: 1f0d 73bf 6e18 2180 5a85 eb3c 8d84 1ebf
00000200: e139 ba3b dbe3 21bf 5a10 00bf e9e8 b53a
00000210: 7475 893f 65ff b1bf a791 0700 cf9c aabd
00000220: 833c 073f c274 b63c 9224 c43d 7a4b 28c0
00000230: 51f6 1ab9 5ec0 cebf 38e9 d33e 743b 4500
00000240: 8ec6 05bf 5bc2 9cbf 403b f03a 4667 8f3c
00000250: 7ca7 22be 271b e238 736d f9bd f58a 12c0
00000260: 64d5 1180 5e4e 973d 758e 10bf 2070 063b
00000270: b9d5 2abe 350b 903e 375d d638 e017 a93e
00000280: a752 7bbf e634 1400 adc3 1ebd 88a7 b1bc
00000290: d625 89bd 09c7 b1bc c117 0cbc b27a 81be
000002a0: 99e6 273d a02e 2ebe fdf0 3080 f357 813f
000002b0: f810 57bf 7ee1 fd39 c258 18be f8a8 d8bf
000002c0: daab 87ba 8bb4 fdbe c0a0 ab3e d015 1200
000002d0: 0dd2 2240 595c 1ec0 34b7 783d 9663 64bf
000002e0: d174 13be d413 3dbb e527 ae3f 547a c83e
000002f0: 48c1 2700 9885 41bf a212 63bf 587b 763d
00000300: b7b2 aabe 6880 cc3e 48e3 fd3d d421 243f
00000310: 326a aabd 2323 0680 93d9 a73d 811b df3d
00000320: 7184 233d dfcf 0bbe d76e af3d 747d 81bd
00000330: 86ab 7f3d 8a75 12be 9e07 3180 dc74 eebd
00000340: f96a d33e 4dbb fe3b 9ffb 623e 0872 94bf
00000350: 1a6b 66b9 ea3f 233f 7010 c13e 8667 2280
00000360: f729 f8be a3b4 7fbf 3895 e43b 6f23 2bbd
00000370: 60d9 0c3e b6d5 4439 ccf5 0b3d 72bd cabf
00000380: 6c1c 2980 9432 753e 8a51 80be 7060 0bbb
00000390: 6812 96bf 82b0 debe bc0f 8ebb 4534 673f
000003a0: 53db e0be c491 2e00 8506 ef3a b0d6 c53c
000003b0: 5c7f 2dba 97cb 423c 61b5 b9bc f05b beb8
000003c0: 2dab 64bc 92e8 48be c850 0600 e16b 53be
000003d0: 09ae e13f 8b4d 49ba 41bb 0bbf 2fd0 60bf
000003e0: 7eef dc39 58bd 9c3d 1729 42be a40e 4400
000003f0: 7a46 213e 5a6b 963f f40e a3bb c0bf a0be

layers.0.fc_self.weight f4 [64, 9]
-0.28872237 0.8965009 0.021830266 -0.39149386 -0.1364125 -0.00045536866 -0.18935837 0.41227818
5.2604e-39 -0.43861374 -0.83443487 -0.035078283 0.01573664 0.8064295 -0.0008712299 3.946085e-39
-1.727297e-39 -3.542405e-39 -0.41597062 -0.7400807 0.012400324 -0.3302937 0.78921723 0.00019833718
-0.086795986 -0.06884277 0.00060765847 -0.7816125 0.49156058 0.038902786 1.2384206 -0.6092095
0.0014993836 0.14248261 -3.28014e-39 -2.808112e-39 -0.23137814 -0.48446968 -0.23253609 0.35657698
0.28757218 -0.21179529 0.43364975 1.0013009 0.0008731446 -0.3139672 0.6172978 -0.13068797
0.35013708 0.36315832 4.0184295e-05 -0.18472534 0.15944144 0.0016042623 0.0502982 0.10970926
0.019725293 -0.35987002 0.23454437 -0.3954625 -0.19674009 0.30385882 4.04167e-40 -0.0042152186
0.75485265 -1.6486416 1.0375459 -0.92305493 0.0016135804 -0.05341451 -4.321882e-39 -2.155906e-39
0.08971912 0.65287507 -0.004200991 0.024247468 0.116704024 -0.00054420944 -0.54402035 6.356353e-39
7.09255e-40 0.0041716606 -0.007337401 0.0029158464 0.0717407 -1.9157971 -0.00018862855 -0.29805544
-0.97838223 1.0294786e-05 0.068066366 1.4814913 -0.024933625 0.3608232 -1.447899 -0.037723936
-0.22382596 -0.73807836 0.00012369998 -0.073175415 -0.13513656 -0.0017741142 -0.17456225 -0.09981931
-0.00039153235 0.6707617 0.47481605 0.00017048484 -0.062945716 -0.4912545 -0.121229544 0.23226759
-1.2387908 -0.26247123 0.06691578 -0.08607424 0.00022119643 0.04114636 1.810615 -0.13320972
0.78635705 -0.45119724 -0.2275525 -0.0888971 -0.15582469 2.4258672e-05 -0.36556506 0.125826
0.00040650278 -0.19274507 1.2048432 -0.0006292896 0.27726904 -6.15233e-40 -2.359477e-39 -0.58427215
0.504147 0.0018187688 -0.097971395 -3.5530007 8.7389424e-05 0.020606523 -0.7180494 3.7453203e-05
-0.56478834 -1.5129781 0.006088863 -0.0064273253 1.195972 -6.564847e-05 5.43873e-40 1.632942e-39
5.14907e-40 -0.24094105 -0.04091213 0.0029319066 -0.06733775 -0.07626408 -0.00025102953 -0.04333006
-1.2430251 0.00019896917 -0.43408394 -0.84578276 0.046107437 -0.31885716 -0.2396538 0.000691924
-0.025756452 -4.081116e-39 3.842747e-39 -0.31582776 0.35985816 -0.0026248198 0.11866221 -0.3777412
0.00017628592 -0.27979594 -0.107230924 8.234496e-05 0.36942828 0.11788488 -0.0014773458 -0.734795
-0.56612784 0.0012271967 -0.022904264 -0.28057012 9.958959e-05 -0.7146291 0.121021144 0.01622299
-0.5466868 1.1794908 -0.11818785 0.38556665 0.5788674 -3.034823e-39 -0.94796443 -0.9954043
0.07617706 -0.22639348 0.00947742 2.2131855e-05 0.05345131 5.003409e-39 -4.352056e-39 0.029558051
0.05319516 0.00136567 -0.12917784 -1.925859 6.838783e-05 0.1741167 -0.43110624 5.243724e-05
-0.5521369 -0.9078928 -0.58573574 0.052949265 0.6800951 -0.00012642075 3.932888e-39 6.74114e-40
-2.428449e-39 -0.46918452 -0.55089355 -0.008142905 0.3279599 0.66796803 0.00014819417 0.0283401
-0.14250647 0.0001508928 0.022397293 0.080137566 -2.0240119 -0.0081212 0.5772112 0.00011484858
-1.050192e-39 1.785574e-39 -2.342758e-39 -0.055379488 0.9303694 0.0017141954 -0.14866455 -0.6952687
-4.2531363e-05 -0.04606689 0.13893601 3.305875e-39 -0.12198045 0.15903057 0.0042894837 0.38464826
00000000: 6bd3 93be 1581 653f 63d5 b23c e271 c8be
00000010: b8af 0bbe 8cbe eeb9 29e7 41be 2016 d33e
00000020: db47 3900 fb91 e0be 869d 55bf 3fae 0fbd
00000030: 20ea 803c 2a72 4e3f 4063 64ba 14f8 2a00
00000040: 00cf 1280 c992 2680 1afa d4be ee75 3dbf
00000050: bb2a 4b3c 411c a9be 240a 4a3f bbf8 4f39
00000060: 18c2 b1bd 70fd 8cbd 454b 1f3a c217 48bf
00000070: d4ad fb3e 8758 1f3d 9184 9e3f 27f5 1bbf
00000080: f786 c43a f6e6 113e b2b7 2380 e093 1e80
00000090: 64ee 6cbe 690c f8be f11d 6ebe 4291 b63e
000000a0: a93c 933e dde0 58be 5707 de3e a12a 803f
000000b0: bee3 643a 4fc0 a0be 3b07 1e3f 11d3 05be
000000c0: 2b45 b33e e3ef b93e 8f8b 2838 a428 3dbe
000000d0: 9e44 233e 1c46 d23a 7c05 4e3d 40af e03d
000000e0: f096 a13c e240 b8be 662c 703e 107a cabe
000000f0: 3c76 49be 6293 9b3e a766 0400 d11f 8abb
00000100: 063e 413f b006 d3bf 4ece 843f 544d 6cbf
00000110: c67e d33a 2cc9 5abd a60f 2f80 ca79 1780
00000120: a8be b73d d222 273f 77a8 89bb a0a2 c63c
00000130: 8502 ef3d 47a9 0eba eb44 0bbf ed36 4500
00000140: 1db9 0700 6db2 883b 956e f0bb c917 3f3b
00000150: caec 923d d738 f5bf 97ca 45b9 b99a 98be
00000160: 4277 7abf c5b7 2c37 6166 8b3d 82a1 bd3f
00000170: 9a41 ccbc d2bd b83e c154 b9bf 6a84 1abd
00000180: a232 65be b4f2 3cbf 76b5 0139 fedc 95bd
00000190: 3d61 0abe 6589 e8ba 72c0 32be 116e ccbd
000001a0: 9546 cdb9 0ab7 2b3f 171b f33e 2dc4 3239
000001b0: afe9 80bd b685 fbbe 3247 f8bd 8ed7 6d3e
000001c0: b290 9ebf a162 86be 240b 893d b147 b0bd
000001d0: f7f0 6739 1689 283d 3bc2 e73f 2168 08be
000001e0: b24e 493f 5303 e7be 8603 69be af0f b6bd
000001f0: 8290 1fbe 1a7f cb37 582b bbbe 88d8 003e
00000200: e11f d539 f75e 45be 4d38 9a3f e9f6 24ba
00000210: 35f6 8d3e 05b3 0680 43b1 1980 dc92 15bf
00000220: c70f 013f c163 ee3a 3aa5 c8bd 5d64 63c0
00000230: d744 b738 03cf a83c 16d2 37bf 1217 1d38
00000240: f895 10bf 44a9 c1bf 1685 c73b 509c d2bb
00000250: 9c15 993f c1ac 89b8 19ec 0500 fac7 1100
00000260: 5a9b 0500 40b9 76be 7a93 27bd 3b25 403b
00000270: 60e8 89bd 5830 9cbd 9d9c 83b9 dc7a 31bd
00000280: 721b 9fbf 61a2 5039 4040 debe 3885 58bf
00000290: 27db 3c3d 3f41 a3be ce67 75be 3c62 353a
000002a0: 32ff d2bc 7e70 2c80 04d8 2900 2db4 a1be
000002b0: 543f b83e 2b05 2cbb 2c05 f33d 4b67 c1be
000002c0: 64d9 3839 6a41 8fbe e39b dbbd 9db0 ac38
000002d0: b425 bd3e a16d f13d 80a3 c1ba 861b 3cbf
000002e0: c1ed 10bf e3d9 a03a b9a1 bbbc e3a6 8fbe
000002f0: c1da d038 eff1 36bf efd9 f73d 13e6 843c
00000300: abf3 0bbf 8ef9 963f 790c f2bd fe68 c53e
00000310: a730 143f da0b 2180 ccad 72bf d1d2 7ebf
00000320: b802 9c3d b1d3 67be 2e47 1b3c cca7 b937
00000330: c3ef 5a3d 787b 3600 c363 2f80 ba23 f23c
00000340: 2be3 593d 4800 b33a 3247 04be 8c82 f6bf
00000350: 706b 8f38 a64b 323e f5b9 dcbe 0ff0 5b38
00000360: d858 0dbf aa6b 68bf c7f2 15bf 54e1 583d
00000370: b61a 2e3f d08f 04b9 4bd3 2a00 2857 0700
00000380: 8771 1a80 f438 f0be 5c07 0dbf d269 05bc
00000390: 5cea a73e f4ff 2a3f 9264 1b39 7f29 e83c
000003a0: 37ed 11be fa38 1e39 877a b73c 2a1f a43d
000003b0: 6989 01c0 c80e 05bc 1dc4 133f ddda f038
000003c0: 826f 0b80 7471 1300 a882 1980 9ad5 62bd
000003d0: b02c 6e3f daae e03a 853b 18be 21fd 31bf
000003e0: b463 32b8 a3b0 3cbd 3e45 0e3e 6fff 2300
000003f0: e3d0 f9bd e9d8 223e cc8e 8c3b 9ef0 c43e

layers.0.fc_self.bias f4 [64]
-0.04527998 -2.1854317 0.06777809 -0.3738619 0.33175588 0.14012346 -0.06966732 -0.282956
-0.075996295 1.4614936 1.0052139 1.1602619 0.056680396 0.89193827 -0.36618444 0.7282912
-2.5851035 1.2781559 -0.38110116 0.38473782 1.4707421 -0.9477129 -0.47861144 1.4197811
-1.5662056 0.14121908 -2.1901374 -0.038905866 -0.41083273 -0.6917415 -0.05087813 1.2948992
0.9482057 0.4475652 0.19007398 -2.1778255 -0.039793592 2.0590484 0.47783804 -0.4496295
0.03618956 0.72395754 0.4076692 -0.26139063 0.5326358 0.14097685 -0.12305586 -0.12637243
-0.5037696 -0.011641517 -0.38587734 -2.4493577e-14 0.3889423 -0.21520053 -2.8342237 0.36438203
-1.3954556 0.80986553 -2.3747373 -0.15447387 1.552818 0.17156 -4.8915447e-31 0.3703771
00000000: 8077 39bd 1dde 0bc0 3dcf 8a3d d46a bfbe
00000010: e8db a93e 867c 0f3e bdad 8ebd 9cdf 90be
00000020: f2a3 9bbd 3912 bb3f d9aa 803f 7683 943f
00000030: b429 683d 1156 643f 877c bbbe 4b71 3a3f
00000040: 5672 25c0 9d9a a33f b11f c3be 5bfc c43e
00000050: 4741 bc3f 509d 72bf 8f0c f5be 63bb b53f
00000060: 6d79 c8bf bc9b 103e 362b 0cc0 c25b 1fbd
00000070: ab58 d2be f915 31bf 9665 50bd 42bf a53f
00000080: 9cbd 723f 4427 e53e c1a2 423e 7e61 0bc0
00000090: 9bfe 22bd 73c7 0340 30a7 f43e d635 e6be
000000a0: 813b 143d 4855 393f 04ba d03e fed4 85be
000000b0: d25a 083f 3c5c 103e b604 fcbd c667 01be
000000c0: 0bf7 00bf 10bc 3ebc b791 c5be 589e dca8
000000d0: 7223 c73e 875d 5cbe ec63 35c0 4890 ba3e
000000e0: 4a9e b2bf 5953 4f3f b2fb 17c0 662e 1ebe
000000f0: bdc2 c63f 6dad 2f3e 5dbd 1e8d 11a2 bd3e

layers.1.fc_neigh.weight f4 [1, 64]
0.21062696 -1.6648471 -0.83331704 0.013489863 -0.001211681 0.17644991 0.13449942 0.016085073
0.41933995 -0.21460724 -0.30197787 0.0011110029 -0.474861 -0.05017797 -0.3890959 -0.99605364
-2.5323656 -1.6635479 -0.40548953 0.391226 -0.033937573 -0.28664643 0.016323091 -0.15046051
-1.7832991 -0.86989975 -4.0154953 0.34626675 0.46088016 1.5303022 -0.4818064 -0.14513023
-0.3588395 0.3171873 -0.7042897 -0.72772574 0.091820866 0.0071967803 0.25091863 0.0066762976
0.037658118 0.01848036 0.07945633 0.25520068 0.055032607 0.020979634 -0.25222397 0.31150955
0.015673112 0.16542119 0.31837752 0.0012628813 -0.012386162 -0.15046942 -4.1468034 0.11848068
0.8165213 -0.16583338 -1.1924292 0.4013563 -0.16782592 -0.09499164 -1.6459294e-27 0.37761077
00000000: 98ae 573e b619 d5bf 4454 55bf 9604 5d3c
00000010: 45d1 9eba 49af 343e 37ba 093e d8c4 833c
00000020: bab3 d63e 00c2 5bbe d89c 9abe 129f 913a
00000030: fb20 f3be 6a87 4dbd 9437 c7be 5ffd 7ebf
00000040: 4712 22c0 23ef d4bf 539c cfbe c64e c83e
00000050: 2002 0bbd 52c3 92be 01b8 853c 5212 1abe
00000060: 2543 e4bf c0b1 5ebf f07e 80c0 e049 b13e
00000070: 7cf8 eb3e f1e0 c33f 54af f6be 059d 14be
00000080: d0b9 b7be 6066 a23e 544c 34bf 3c4c 3abf
00000090: 940c bc3d f8d2 eb3b 6878 803e d8c4 da3b
000000a0: 663f 1a3d 2064 973c 00ba a23d aaa9 823e
000000b0: df69 613d 7bdd ab3c 8023 81be 2e7e 9f3e
000000c0: e664 803c 2c64 293e 6102 a33e 4487 a53a
000000d0: 54ef 4abc a814 1abe 9db2 84c0 00a6 f23d
000000e0: 8a07 513f 3ad0 29be 85a1 98bf 937e cd3e
000000f0: 8fda 2bbe fa8a c2bd 6a67 0293 3356 c13e

layers.1.fc_self.weight f4 [1, 64]
-2.3905373 -2.3861198 -0.67976505 0.0068284296 -1.1843135 -2.2320354 -0.41871208 0.0130165415
0.20622697 -3.8530152 -0.11709754 -1.4939532 -0.20207772 -0.07275548 -0.23060553 -5.2870235
-2.7837582 -1.8800746 -0.039885942 -0.2300399 -0.11398946 -0.0659087 0.78269666 -2.4776096
-1.7166103 -0.16138463 -5.298026 0.15756848 -0.12301516 0.005533972 -0.5503651 -0.84073734
-4.086096 0.32832873 -1.4626664 -0.731696 0.001859705 -0.7334489 0.03277547 -0.0047133374
0.020860193 -1.1263036 -0.849357 0.06718034 0.04700456 0.01061562 -0.088722646 0.10591795
0.009886829 0.07081468 0.2770508 0.0014135973 -1.2960192 -0.0017364864 -4.5790544 -0.90831363
0.036994148 -0.078924835 -0.8037965 -1.6052836 -0.716278 -1.1367102 -1.1604583e-27 0.179069
00000000: 90fe 18c0 30b6 18c0 1505 2ebf 05c1 df3b
00000010: 9697 97bf abd9 0ec0 6e61 d6be 5543 553c
00000020: 2a2d 533e cd97 76c0 d6d0 efbd dc39 bfbf
00000030: 76ed 4ebe d300 95bd db23 6cbe 4c2f a9c0
00000040: 1829 32c0 49a6 f0bf 715f 23bd 948f 6bbe
00000050: 4e73 e9bd 24fb 86bd cf5e 483f 2891 1ec0
00000060: e3b9 dbbf 0342 25be 6e89 a9c0 a259 213e
00000070: 5fef fbbd 5256 b53b bae4 0cbf 903a 57bf
00000080: 4cc1 82c0 b41a a83e a738 bbbf 6e50 3bbf
00000090: 58c1 f33a 4fc3 3bbf 923f 063d 5772 9abb
000000a0: ffe2 aa3c b72a 90bf 766f 59bf d995 893d
000000b0: da87 403d 23ed 2d3c 38b4 b5bd 83eb d83d
000000c0: 5efc 213c 4907 913d 9ad9 8d3e 7448 b93a
000000d0: f5e3 a5bf d19a e3ba 9d87 92c0 3e87 68bf
000000e0: 2d87 173d 58a3 a1bd 9cc5 4dbf ef79 cdbf
000000f0: ff5d 37bf b87f 91bf c8e1 b792 dd5d 373e
