N0-Noise/weight_23/best_model_no_noisse_weight_23.pth (torch, 8143 bytes, 5 tensors)

layers.0.fc_neigh.weight f4 [64, 9]
000000 c5 79 8d be 59 84 38 bf 05 b9 59 bc f8 77 2b bd
       -0.27631965 -0.72076946 -0.013288741 -0.041862458
000010 de 6b b1 3d e6 fd b0 bb d6 3e 67 3d d2 dd 20 bf
       0.08663152 -0.005401361 0.05645641 -0.6283847
000020 df 64 42 80 5d 23 95 be 20 09 5e 3e 5b ea 85 3d
       -6.097328e-39 -0.29128543 0.21683168 0.065388404
000030 75 84 7b 3e 34 06 89 be 01 56 62 3e 36 d8 22 bf
       0.24562247 -0.26762545 0.2210312 -0.6361116
000040 fc 88 b7 be e1 06 0f 80 64 93 08 bf 94 86 69 bf
       -0.35846698 -1.38e-39 -0.533499 -0.91220975
000050 2d d0 39 bf 79 a0 f9 3e 74 b2 44 3e 42 8e a5 bd
       -0.72583276 0.48755243 0.192087 -0.08083774
000060 51 4b 87 3e 8d c8 ee 3e 4c a3 22 80 be f8 7f be
       0.2642465 0.46637383 -3.180987e-39 -0.24997231
000070 e9 7e d7 3f b9 2b 98 ba f0 9b 12 bf db b2 6a bf
       1.6835605 -0.001160971 -0.5726919 -0.9167916
000080 d4 a4 f5 38 c6 3a af be e0 a9 1f bd 6b 0f 07 80
       0.00011713212 -0.34224528 -0.038980365 -6.4838e-40
000090 33 43 a0 3e 68 e4 25 3f a9 68 7b 3e 55 81 c6 3d
       0.3130127 0.64801645 0.24551643 0.09692637
0000a0 f3 aa 39 bf 1c 4a 4e 3e 44 bf 93 3f 2a a6 ce 3f
       -0.7252647 0.20145458 1.1542745 1.6144459
0000b0 db cd 2a 00 93 63 e4 be 69 2f 77 bf d9 47 f4 3b
       3.930938e-39 -0.4460722 -0.9655672 0.007454854
0000c0 e9 9d 4e bd 89 13 d4 3d 51 d0 a4 38 3f 64 5a bd
       -0.050443564 0.103552885 7.858931e-05 -0.05331826
0000d0 e4 8a f6 bf 35 95 42 00 a7 32 79 bf d5 7d 11 3f
       -1.9261136 6.114668e-39 -0.97342914 0.5683263
0000e0 34 2c 74 3d 7b 5e 2f 3e 03 ad 28 be e7 86 21 3a
       0.059612468 0.17125885 -0.16472249 0.00061617646
0000f0 22 fa 93 bf 5b fb 9c 3f 4e 9a 0b 00 ec bb d3 be
       -1.156071 1.2264208 1.065545e-39 -0.4135431
000100 f1 c7 f0 bf ed d4 ad bf 88 97 93 bf e2 f1 88 be
       -1.8811017 -1.3580605 -1.1530619 -0.26747042
000110 36 82 e7 bf 00 39 aa be b4 35 52 3e 2f a8 0c 00
       -1.8086612 -0.33246613 0.20528299 1.162359e-39
000120 c8 13 18 00 b0 b1 44 00 28 79 2d 00 e8 d0 79 80
       2.211148e-39 6.308556e-39 4.17606e-39 -1.1187036e-38
000130 18 7a 27 00 b5 87 0d 83 28 45 13 80 50 16 38 80
       3.625383e-39 -4.159196e-37 -1.769683e-39 -5.150792e-39
000140 7f 18 3e 00 f7 40 9a 3e e0 63 e6 be 93 e1 50 be
       5.702588e-39 0.3012769 -0.44998074 -0.2039855
000150 cb ec 2e 3e 39 c5 00 bf 96 a5 c0 3c b4 72 9f bf
       0.17082517 -0.5030094 0.023516458 -1.245688
000160 55 2e 24 c0 25 c9 1a 80 32 5d ea 3b 5f a1 a2 bd
       -2.565328 -2.45988e-39 0.007152223 -0.07940935
000170 a2 35 a4 3c 7c d7 65 3d 6b 3c ed 3c c4 4a e8 3d
       0.020045105 0.056113705 0.028959474 0.113423854
000180 72 64 98 bd e9 44 a7 3b a2 6f 17 80 58 c6 b4 bb
       -0.074410334 0.0051046503 -2.152263e-39 -0.0055168085
000190 57 f4 3b 3f 81 a2 c9 3d 33 5d 08 bf da 48 8c bd
       0.7341971 0.09845448 -0.5326721 -0.06849833
0001a0 25 79 0e bf 8c 28 dd 3d f7 79 19 be 05 08 1b 80
       -0.556536 0.10798749 -0.14987932 -2.482435e-39
0001b0 db 81 e7 be f9 a9 e2 bd 28 63 8d 3d eb a1 03 bf
       -0.4521626 -0.11067576 0.06903678 -0.5141894
0001c0 bb ba 05 3f dc 73 3b 3e 9b cd a8 3e f7 f6 16 3c
       0.52238053 0.18305916 0.32969365 0.009214154
0001d0 dc bd 15 80 13 5e c5 bd a1 30 dd 3d 06 99 7a be
       -1.996654e-39 -0.09637084 0.10800291 -0.24472436
0001e0 47 20 84 3d 84 ec f0 be e6 c9 e7 b8 ed 36 10 bf
       0.06451469 -0.47055447 -0.00011052545 -0.5633381
0001f0 3f b6 03 c0 22 97 1d 80 08 b6 2d 40 26 11 0f c0
       -2.0579984 -2.717446e-39 2.7142353 -2.2354217
000200 1a c8 59 3e d8 fa 8e bf 70 ef 5b 3e a6 7d 53 bb
       0.21267739 -1.1170301 0.21478057 -0.0032270937
000210 8d ef cc 3f 1f 7f 22 3f 57 db 40 00 01 3e 6c bd
       1.6010605 0.6347522 5.956156e-39 -0.05767632
000220 c4 36 25 3e 88 25 1a 3c 62 e3 48 bd 54 1b d9 bf
       0.16134173 0.009408362 -0.049044974 -1.6961465
000230 7c 4f 73 b9 eb 29 b2 3e 5b c1 5b 3e ed 6d 2e 00
       -0.00023203896 0.34797606 0.21460478 4.263867e-39
000240 f9 77 43 3e c6 71 c6 bf b8 ed 0a c0 39 cc 32 3d
       0.19088735 -1.5503471 -2.1707592 0.043651793
000250 1b b3 88 3e 3a ab 41 3d a3 a1 79 be 8f bf 38 3d
       0.26699147 0.047282435 -0.24378066 0.04510456
000260 66 f5 0a 80 04 6e 69 94 dd 0a 8c 94 60 49 ba 97
       -1.006387e-39 -1.17851906e-26 -1.4140672e-26 -1.2038491e-24
000270 46 91 06 95 50 66 bd 95 5c 48 f9 19 41 dc 5c 94
       -2.7175685e-26 -7.649791e-26 2.5775222e-23 -1.1150599e-26
000280 0d c9 8a 94 5a 2a 10 80 2c 0a 36 bc 38 d6 93 bd
       -1.401374e-26 -1.484561e-39 -0.011110824 -0.07218593
000290 be 12 03 3a 96 1a b7 3b 3c 12 83 be 16 7c 7b b8
       0.0005000046 0.005587886 -0.2559985 -5.9958627e-05
0002a0 e2 92 5c 3d 36 e9 f7 be 39 e9 0b 80 53 28 29 40
       0.053851016 -0.48420113 -1.093855e-39 2.6430862
0002b0 fb 9b 0f c0 58 f2 89 3e aa c8 73 bf 7f 8c 7a be
       -2.2438953 0.26942706 -0.95228064 -0.24467658
0002c0 46 5f 0d bc 8f 11 9f 3f 1d 36 4a 3f 10 2a 44 00
       -0.008628672 1.2427233 0.7898882 6.259903e-39
0002d0 29 75 91 bf c4 b4 1f 3f 85 eb 5b 3e 87 22 88 3f
       -1.136388 0.623852 0.21476562 1.0635537
0002e0 16 1c 96 be 20 f2 5f ba 68 05 c6 bf c1 40 44 3f
       -0.29318303 -0.00085428543 -1.54704 0.76661307
0002f0 88 95 01 00 21 a5 1a be eb 7f 1d be 20 51 cb 3c
       1.45477e-40 -0.15102054 -0.15380828 0.024818957
000300 22 d9 69 be 6b ef 1e be 04 0f 82 bd 63 a8 d0 3d
       -0.22836736 -0.15521018 -0.0635052 0.10188367
000310 d4 4c 64 3e 1e ac 44 00 a8 71 a7 3e d7 b0 9d 3e
       0.22294933 6.306558e-39 0.327039 0.3079898
000320 62 0b 0f 3c 53 13 1f 3e 57 41 f0 bf 04 d0 f9 ba
       0.008730741 0.15534715 -1.876994 -0.0019059186
000330 a1 a9 1a bf b1 70 ab 3d e2 69 45 80 8a ec 8e bf
       -0.60415083 0.083711036 -6.374633e-39 -1.1165936
000340 a6 3f b0 3f d9 0f 74 3e 83 ae 6c 3f 3f 1e 98 3c
       1.3769424 0.2383417 0.92453784 0.01856911
000350 1c 3d 05 bb 78 04 d1 bf bc 03 1d 3f d4 0d 33 80
       -0.0020330613 -1.6329489 0.61333823 -4.688571e-39
000360 f3 3f 0c 3e 2c eb 9f bf 80 fe c7 3c 74 55 93 bd
       0.1369627 -1.2493644 0.024413347 -0.07194033
000370 5d e1 c0 3e 5b 2b b2 be 71 ae 14 3f e4 66 81 3e
       0.3767194 -0.34798703 0.58078676 0.25273812
000380 0f 24 15 00 1c 52 12 3f 7b 54 85 bf e0 3e 8c 3c
       1.941481e-39 0.5715654 -1.0416406 0.017119825
000390 99 bd 20 be 36 6a d1 be 91 db 2c 39 6b 8d 19 3f
       -0.15697326 -0.40901345 0.00016484993 0.5998141
0003a0 82 f3 7a 3e cf 57 3d 80 7f 2f 69 3d a7 be 1d be
       0.24506953 -5.633465e-39 0.05693006 -0.1540476
0003b0 8e e7 b1 bf 87 64 6f 3e ce 38 92 be 68 f7 c2 3d
       -1.389879 0.23378192 -0.28558964 0.09519845
0003c0 96 59 ae be ed 13 93 bd 60 98 23 00 02 ab a4 be
       -0.34052724 -0.07181535 3.268904e-39 -0.3216172
0003d0 2e 6f 64 be a6 31 97 bd 0f de 79 be cb e1 13 bf
       -0.22308037 -0.073825166 -0.24401115 -0.5776641
0003e0 aa 13 9a 3d 7c 65 00 3e 85 7f ac 3e e6 5a 34 80
       0.07523282 0.12538713 0.3369104 -4.808054e-39
0003f0 9f 53 28 3f 53 d3 c5 bf d8 90 60 3c 47 e9 f8 3e
       0.65752596 -1.5455116 0.013706408 0.48615476

layers.0.fc_self.weight f4 [64, 9]
000000 b5 8e 8a be 1f bd 62 bf a6 43 c0 3a f8 d0 91 3e
       -0.27062002 -0.88569826 0.0014668598 0.28479743
000010 12 73 72 3e 2a e1 97 bc eb ba 0c 00 dc 7a 3b 80
       0.23676708 -0.018539984 1.16908e-39 -5.462368e-39
000020 d8 8f 2f 00 3c 65 b2 bd a8 52 2a 3f 63 0b 44 3d
       4.36787e-39 -0.08710715 0.66532373 0.04786242
000030 ce b1 ff bd 45 f9 31 bf 2f 18 5f be 01 29 f1 be
       -0.124850854 -0.6952098 -0.21786569 -0.47101596
000040 3f 0c 92 3e 19 94 b4 b9 0e 04 d3 3e 6d 09 84 bf
       0.28524968 -0.00034442617 0.4121403 -1.0315377
000050 36 60 e4 3c 33 ea 1e bc f8 28 42 3c 31 b4 6d 3a
       0.027877908 -0.009699392 0.011850588 0.0009067683
000060 f3 47 68 3e b4 c6 2e be 21 41 5e 37 ff f2 c6 bd
       0.22683696 -0.17067987 1.3247395e-05 -0.097143166
000070 fb 2b 4f 3f 00 70 75 3b 32 bc a0 bd 2e f3 14 bf
       0.80926484 0.003745079 -0.078483954 -0.5818356
000080 d5 81 9f 37 d2 a4 d9 3c f8 41 ba bc da 4b 34 b9
       1.9014735e-05 0.02656785 -0.022736534 -0.00017194395
000090 c2 d9 5e bf 12 8a 9b 3f 58 d3 40 bf cb 83 02 3e
       -0.8705102 1.2151511 -0.75322485 0.12745588
0000a0 2e d7 d5 be 02 11 47 be 20 4c 31 be a6 cc 96 bd
       -0.41765732 -0.19440082 -0.17314196 -0.07363252
0000b0 d0 2f 6d b8 eb a8 55 bf ae c4 c4 bf 1c 8b 22 c0
       -5.6549732e-05 -0.83460873 -1.5372522 -2.5397406
0000c0 3b 4c 25 3d 78 53 bb 3f 6d bb 93 b8 29 74 12 00
       0.040355902 1.4634848 -7.044417e-05 1.69471e-39
0000d0 45 92 27 00 a8 e6 42 80 60 13 e9 be 8d 73 72 3f
       3.634056e-39 -6.143887e-39 -0.45522594 0.94707566
0000e0 89 a6 ef 3c 90 06 7b 3e da 10 a7 bf d9 f4 ed 39
       0.029254215 0.24514222 -1.3052018 0.00045386588
0000f0 2d 29 a5 be 2c 70 e3 3d c6 36 41 b8 0a d2 14 be
       -0.32257977 0.111053795 -4.6065798e-05 -0.14533249
000100 04 9c 5d 3f 82 dc 8d 3b c1 b4 82 bd 1b f6 bb be
       0.86566186 0.004329265 -0.06382132 -0.367112
000110 e3 17 07 b9 76 86 de 3e fb 01 27 00 5e d9 06 00
       -0.00012883502 0.4346196 3.582295e-39 6.2899e-40
000120 98 f4 31 00 10 56 39 00 80 0f 09 80 e8 70 7a 80
       4.587683e-39 5.265497e-39 -8.3208e-40 -1.1244434e-38
000130 7c 39 20 00 99 9b 0d 83 88 c1 44 00 88 c1 57 80
       2.959357e-39 -4.1614793e-37 6.31424e-39 -8.059114e-39
000140 80 9e 14 00 8d 1c 15 bc bd ff 28 3f 82 ec 97 3b
       1.893569e-39 -0.009101045 0.66015226 0.004636348
000150 e3 be 40 3f d7 72 ae be 6b 6a d4 bc dc 1b 29 80
       0.7529127 -0.3407199 -0.02592965 -3.77525e-39
000160 22 f8 22 80 49 b4 39 80 57 15 7b bc 3d a0 be 3e
       -3.21142e-39 -5.299297e-39 -0.015324912 0.37231627
000170 92 70 16 bc 18 b5 fe 3b f1 6a 07 3e 52 0a 8f be
       -0.009182112 0.007773053 0.13224389 -0.2793756
000180 b0 8a 44 3e 95 57 3b 3f 6d 0b 8c 39 78 46 96 bf
       0.1919353 0.73180515 0.00026711394 -1.1740255
000190 9b 9c 05 3e 11 8d 08 bb c8 29 94 be 55 10 76 ba
       0.13048021 -0.0020836035 -0.28938127 -0.0009386589
0001a0 5f d2 52 be d5 a2 0d 3b 5c 10 21 3c fa 03 1d ba
       -0.20588063 0.0021611948 0.009830561 -0.0005989667
0001b0 6d 76 10 be b2 e5 9c bf ce 83 0e 3c 56 5f b3 be
       -0.14107676 -1.2257597 0.008698417 -0.35033673
0001c0 d7 0c 01 3f 95 eb 46 be 1c c5 43 80 85 8b 12 00
       0.5041022 -0.19425805 -6.223688e-39 1.703089e-39
0001d0 4e 22 16 80 5e b6 1f 3d 0c 84 d1 bc 59 24 d3 bf
       -2.032687e-39 0.03899228 -0.02557566 -1.6495467
0001e0 c9 e2 4a bd b0 29 84 3f 23 32 42 39 94 83 03 00
       -0.049532685 1.0325222 0.00018519959 3.22708e-40
0001f0 a3 cc 43 80 88 49 0d 80 ae eb 5d 3f 24 f5 d1 bc
       -6.226388e-39 -1.22024e-39 0.86687744 -0.025629587
000200 42 3f 98 3d bc 92 61 bf 17 7f 40 bf 27 27 e1 3a
       0.074339405 -0.88114524 -0.75193924 0.0017177806
000210 95 dd 61 3e 71 87 83 be 2e c3 7b 38 6e ba 85 3c
       0.22057183 -0.2568927 6.002484e-05 0.016324248
000220 2e 82 b8 bc 80 0f 59 3b e7 0d a6 3d 7a 3d 01 c0
       -0.022523012 0.003312081 0.081081204 -2.0193772
000230 84 80 1a b9 95 14 9e 3e 13 dd d5 bf e5 28 87 33
       -0.0001473446 0.30875078 -1.6708091 6.293866e-08
000240 f1 88 7a be 3f 83 bf bf 44 17 09 3c bb 10 42 bd
       -0.24466302 -1.4961928 0.008367363 -0.047379237
000250 ee 38 9e 3f df 3a 3f bd 5a 19 39 80 c4 df 27 00
       1.2361124 -0.046687003 -5.243718e-39 3.661856e-39
000260 b2 79 19 00 54 a0 8c 95 1e 01 1a 95 0b d0 a6 94
       2.339543e-39 -5.67985e-26 -3.1100934e-26 -1.6843775e-26
000270 c0 3c 40 96 1f aa f0 95 de bf 76 9a 58 0c 82 93
       -1.5528806e-25 -9.720363e-26 -5.1026597e-23 -3.2828786e-27
000280 ae 92 37 93 c8 fb ed 05 b5 f2 10 39 75 06 5a bf
       -2.3170166e-27 2.2379863e-35 0.00013823326 -0.851661
000290 61 cb f7 bf 49 04 53 bb 5e b8 85 3f a3 cb f4 b7
       -1.9358941 -0.00321986 1.0446889 -2.9181892e-05
0002a0 f2 ec 20 00 1f 11 32 00 f4 45 22 80 fd 58 82 3f
       3.023736e-39 4.597917e-39 -3.147501e-39 1.0183407
0002b0 09 cc 7d be fd c0 d5 3d 12 51 4a bf a3 9a 39 bf
       -0.24784864 0.104372 -0.79029953 -0.7250158
0002c0 84 6a 6c 3b 29 0b 5e 3e 3c cc 8d be b0 a4 14 38
       0.003607423 0.21683945 -0.2769488 3.5439327e-05
0002d0 df 72 84 3d a1 f5 41 3f 48 19 ae 3c 34 9d 45 3f
       0.064672224 0.75765425 0.02125229 0.77193
0002e0 a1 fa a4 bf 0e 17 15 3a 54 8b be be 29 de b5 3e
       -1.2888986 0.00056873343 -0.37215674 0.35521057
0002f0 59 d0 0a b7 0c 4a d2 3d f9 72 c6 3e fd e4 d7 3d
       -8.273951e-06 0.102680296 0.38759592 0.10541723
000300 17 2b 85 be 4d 66 c8 bc ef bd c8 be 75 9c f8 3d
       -0.26009437 -0.024462843 -0.39207408 0.12139217
000310 67 7b 3a 3f 0a 74 49 39 e8 b0 8b bd 95 46 69 3e
       0.7284455 0.00019212082 -0.068208516 0.22780831
000320 0e fb fa 3c 67 8d 50 3d 62 7d 0f bf 06 13 6b 39
       0.03063729 0.0509161 -0.56050694 0.00022418433
000330 c4 e1 08 bd 28 80 a5 be d0 81 25 3a e8 1d 54 3e
       -0.033418432 -0.32324338 0.0006313594 0.20714533
000340 35 81 e3 3e 71 49 b8 3c a6 d2 90 3f f7 f9 af bf
       0.44434515 0.022495957 1.1314285 -1.3748158
000350 a9 da 43 3a 3e c9 c2 be 8c 18 e4 3e c1 ef 2c b7
       0.00074712426 -0.3804416 0.44549978 -1.0307821e-05
000360 74 c6 97 be 28 63 1e bf f7 94 5c bc e1 ea 64 3d
       -0.29643595 -0.6187005 -0.01346325 0.05588806
000370 e8 0c 2c 3f 5d 2b 7f 39 0b d8 ba 3e ba 4c 52 be
       0.67207193 0.00024334849 0.36492953 -0.20537081
000380 6f ab 45 38 33 2d aa 3d 62 63 5b 3d b0 84 0e 3c
       4.712812e-05 0.08309402 0.053561576 0.008698627
000390 a6 fe b0 be 33 52 ec be f1 6c 32 37 b7 fa 01 40
       -0.3456928 -0.46156463 1.0634992e-05 2.0309274
0003a0 d8 ba 64 be f6 0a b2 39 b2 09 34 3e 13 4d b2 3f
       -0.223369 0.00033958972 0.17581823 1.3929771
0003b0 61 a7 f0 3c f5 a6 bc bc 27 ab f9 be 3d 08 be bd
       0.029376687 -0.02302883 -0.4876339 -0.09278915
0003c0 75 71 8e be 6d ca 8d 3e 70 26 a1 b9 f8 8d 1a be
       -0.27820936 0.276935 -0.0003073695 -0.1509322
0003d0 8e 1f b6 3e 93 ec 4f 3e 46 f6 fb be 90 f2 d4 be
       0.3557095 0.2030509 -0.4921133 -0.4159131
0003e0 c7 24 3e be d4 ee 96 3d 67 2a 8a 3b 2b 61 45 b9
       -0.18568717 0.073697716 0.0042164805 -0.00018823582
0003f0 9c 89 04 bf 4f fe e5 3e 7d 02 0c 3c 6b ef 50 bf
       -0.51772475 0.44920585 0.008545515 -0.8161532

layers.0.fc_self.bias f4 [64]
000000 a8 91 8d be cd a9 ac 3e 78 02 6d bd 2b 71 89 3d
       -0.2765019 0.33723298 -0.057863683 0.06711038
000010 b0 7b d3 3e 05 48 58 c0 f0 7a 13 3f 3e 2e 0a bf
       0.41305304 -3.3793957 0.5760946 -0.5397681
000020 98 96 5c 80 21 fe 95 bf 73 b3 60 3f c9 76 c0 3d
       -8.502889e-39 -1.1718179 0.8777382 0.093976565
000030 b7 05 90 bf 2b f2 25 c0 3d 94 c0 3f 94 b8 df 3f
       -1.1251744 -2.5929058 1.5045239 1.7478204
000040 c2 04 29 c0 bd 9e 42 95 43 c4 2a c0 1a dc a0 3f
       -2.6409154 -3.930321e-26 -2.6682289 1.256717
000050 0e 5a 73 3e b3 f1 6d 3f 48 7d 54 3f d5 fa 0b 3f
       0.23764822 0.9294693 0.83003664 0.54679614
000060 ff e1 1f be dd 5a 00 40 02 90 87 3e fa 0d 63 3d
       -0.15613554 2.0055459 0.26477057 0.05543325
000070 f3 e8 f2 3f 15 8d 4c 3f 17 78 46 be 35 56 17 40
       1.897734 0.79902774 -0.19381748 2.3646367
000080 49 98 b7 3e eb e2 72 3f 0d 24 30 3f 0e f8 4c 3e
       0.35858372 0.948775 0.6880501 0.200165
000090 92 b2 0d 3f dc cf 4d 3e e5 7c 8e 3f f2 7f 10 3e
       0.553506 0.20098823 1.1131865 0.14111307
0000a0 b1 7f c2 3f 73 4f 62 be fb 26 43 be 34 60 33 3e
       1.5195218 -0.2210062 -0.19057839 0.17517167
0000b0 66 7d 69 3f 4e 94 0c be 5b 19 8f be 4d c7 84 3f
       0.9120697 -0.13728449 -0.27949032 1.0373322
0000c0 39 78 4e c0 b2 3f ac 3e 06 42 7a bd 03 0f 63 3f
       -3.2260878 0.33642346 -0.06109812 0.8869478
0000d0 86 27 17 3f f3 b8 f9 be 85 6d 07 3f 00 53 46 bd
       0.5904468 -0.48773918 0.5290149 -0.048419
0000e0 ee e3 e0 bd ea fc 42 3f 45 26 ea bf a4 98 a1 be
       -0.10980974 0.76167166 -1.8292929 -0.31561768
0000f0 4d 0e b5 be 93 f2 96 bd 43 5a fc bf cd 04 3c 3f
       -0.35362473 -0.07370486 -1.9715046 0.73444825

layers.1.fc_neigh.weight f4 [1, 64]
000000 2d b3 8a bf 3d f2 a8 3d ae 9e 03 be 60 24 cc 3e
       -1.083593 0.08249328 -0.128535 0.39871502
000010 f4 b6 af 3d cb f6 16 c0 7c 02 97 3d 65 b8 37 3f
       0.085798174 -2.358813 0.07373521 0.7176574
000020 c8 d0 0b 00 fc 3b fd bd f9 42 58 3c 91 73 4c 3e
       1.085087e-39 -0.12364957 0.013199561 0.1996596
000030 6f 0e 92 bf a7 80 54 bf e8 f0 81 bc 6c ee 2e be
       -1.1410655 -0.8300881 -0.015861943 -0.17083138
000040 a7 8a a1 bf cd 05 7e 99 db c2 e3 c0 28 02 68 bc
       -1.2620438 -1.3132664e-23 -7.117536 -0.01416067
000050 5b 14 77 3c 4c 50 8a 3b bd 9d 22 3e a8 da 33 3c
       0.015080537 0.004220998 0.15880485 0.010977425
000060 cf 47 2e bf b5 d6 8c bc 07 32 87 3d 7f c8 db 3c
       -0.6807832 -0.017192224 0.06601339 0.026829002
000070 9a 03 0b be e9 91 32 3c 2e 73 44 3f 5a 7c 9b bd
       -0.13575593 0.0108990455 0.7673825 -0.075920776
000080 7c 12 82 3b 51 6d 99 3b 4f b9 33 bd 3f 34 bb 3e
       0.0039694887 0.004682221 -0.043877896 0.36563298
000090 2e ed 49 bf a1 06 5c 3c 9b 22 6a be c5 ff f9 3d
       -0.7887753 0.013429315 -0.22864763 0.12206987
0000a0 1d dd 3f be 5d 99 c4 be 45 ff 24 bf d3 5f fa bd
       -0.18736692 -0.38398257 -0.6445201 -0.12225308
0000b0 13 a0 8b bb d2 7b f5 3e 61 92 38 3e 49 d6 28 3c
       -0.0042610257 0.4794603 0.18024589 0.010304996
0000c0 33 f8 1a c0 11 36 0d 3e f0 6c 80 bf 9b 21 a9 3b
       -2.4213989 0.13790156 -1.0033245 0.005161477
0000d0 1d fc 60 bd e0 ea 3a be 0d 78 04 3e 70 c7 62 3f
       -0.054927934 -0.1825366 0.1293642 0.8858557
0000e0 ea e5 86 3b 63 9a 04 bd 60 52 c1 bf 6d 2b ee 3e
       0.0041167634 -0.032373797 -1.5103264 0.46517506
0000f0 31 01 89 3d 39 15 1b 3f 2e 8a 8c bf 16 9a da be
       0.0668968 0.6057926 -1.0979669 -0.42695683

layers.1.fc_self.weight f4 [1, 64]
000000 6e c1 86 bf 3b 72 2d 3e 1f c3 8b bf d2 cf 14 3e
       -1.052778 0.16938107 -1.0918921 0.14532402
000010 54 03 1a 3d 68 4d 01 c0 cd a9 39 3d d6 51 ff bf
       0.03760083 -2.0203495 0.04532795 -1.9946849
000020 7f 1c 1a 00 b9 fa 40 bd 15 7a 9d bf 57 fa b7 3e
       2.397945e-39 -0.047114108 -1.2302881 0.35933182
000030 9f 8b e8 be f1 70 97 bf a3 4b 33 bd 4c 56 9a c0
       -0.45419022 -1.1831342 -0.043773305 -4.8230343
000040 cf c3 50 bf 7a e1 d0 19 da 16 b8 c0 f6 6b 02 bd
       -0.8154878 2.1597765e-23 -5.7527895 -0.03184124
000050 9f c0 38 3c 93 ad a1 bf aa d3 b0 be 20 e3 0a 3c
       0.011276393 -1.2631096 -0.34536487 0.008477002
000060 1d 11 a2 bf 94 c4 ed be 7b 84 20 3e 1d 6f 20 3e
       -1.2661473 -0.4643904 0.15675537 0.15667386
000070 d2 24 28 bf bc 3b af bf cd e6 04 c0 fa 51 6f bf
       -0.65681183 -1.3690104 -2.076587 -0.9348446
000080 a3 a9 30 3b da 26 9b bf ac ff 0f bf 36 7a 04 3e
       0.002695658 -1.2121232 -0.562495 0.12937245
000090 41 f7 a0 c0 89 77 a7 bf 6b 5e 74 c0 96 9a 1d 3e
       -5.0301824 -1.3083354 -3.8182628 0.15391001
0000a0 cc b8 6a c0 11 b7 a7 be f1 98 bb be 50 1b d6 bd
       -3.667529 -0.32756856 -0.36640123 -0.10454428
0000b0 0f c7 59 bf 57 af 13 ba be ec 43 3e 12 f9 9b bf
       -0.85069364 -0.00056337327 0.19133279 -1.2185385
0000c0 b8 3e 2d c0 4c 34 d5 3d 86 c5 39 c0 a6 7d 45 3a
       -2.706953 0.104103655 -2.9026809 0.00075336767
0000d0 cd 7c 17 bf 3e c6 2d 3f c6 44 4c 3d 6d 1a 84 3e
       -0.59174806 0.6788062 0.049870275 0.2580141
0000e0 53 1e 69 3b b9 49 ef bf d5 5f 80 bf 1c 65 05 3f
       0.0035571053 -1.8694373 -1.0029246 0.52107406
0000f0 71 4b dd 3e 68 fd 25 3e 3b 7b 80 bf bb f2 58 be
       0.4322162 0.16209948 -1.0037607 -0.21186344
