N0-Noise/weight_17/best_model_no_noisse_weight_17.pth (torch, 8143 bytes, 5 tensors)

layers.0.fc_neigh.weight f4 [64, 9]
0.72825706 1.4758595 -0.012381133 -0.7525787 -0.09951028 -0.12219326 0.13682427 0.40097213
1.633573e-39 -0.15667047 1.5475538 0.025427796 -0.4327442 -0.7993268 0.003697729 -0.02239391
0.17108455 4.418614e-39 -0.23129866 0.6155568 0.02276373 0.17041159 -3.239897 -0.00019136861
-0.6664212 0.14843547 3.611886e-39 -0.7220641 -1.4455029 -2.2340467 0.19055511 1.0189105
0.07634362 3.7470774e-05 9.565075e-05 3.82983e-40 0.5778373 -0.8456857 0.013667561 -0.07539846
0.3122582 -0.5085397 0.5557709 0.08215742 -1.63899e-40 -1.4243932 0.7726677 0.14593114
0.47928733 -0.17419691 0.0003386984 -1.3897319 1.1428994 -1.901932e-39 1.2403992e-22 6.31472e-23
-9.789337e-22 -2.8604765e-23 -1.2337628e-22 -1.1932246e-15 -1.8700795e-23 -2.0503031e-23 4.833717e-39 -0.08880084
0.11331336 0.010162477 0.044578437 -1.8194954 0.00028146635 0.45977908 0.2571015 -3.8336e-39
0.36347285 0.54825413 0.10237308 -0.3917767 -0.1077219 -0.109992236 -0.1047619 -0.19853131
3.479758e-39 -0.0068999464 -0.021077786 -0.00012383511 0.012330395 -0.034836616 -5.8867725e-05 0.023518521
-0.26077655 -6.65376e-40 -0.5292677 -0.35128424 -0.40660462 -0.28943253 -0.17615044 -0.43440318
-0.00894944 1.0039895 3.061169e-39 -1.6905859 1.1356264 0.63969964 1.4052238 0.32900363
-0.0021982903 -1.4515967 1.1052325 -1.691443e-39 -0.03401668 -1.5813489 -1.8070068 0.28988737
0.32950774 0.04934827 -0.25320044 -0.24679793 -1.566952e-39 -0.0036917392 -0.071278766 -0.005925499
-0.24379757 0.3144003 0.011197102 0.05967833 -0.23969962 -3.650769e-39 0.38828027 0.99682057
0.084645554 -1.0729839 -0.824891 -0.006710548 0.079764314 0.16617471 -1.733126e-39 -0.94887024
0.52180094 0.058025233 0.15275656 -0.12452396 0.0002180346 -1.3052323 0.84698105 1.998982e-39
-0.5024161 0.16998678 0.2609761 0.13703108 0.45336655 0.3297115 0.37354857 0.5276523
-1.389023e-39 -0.012240366 0.066864036 -0.10934699 0.10016165 0.97552663 0.010500933 -4.3209963
-1.0813972 -9.89279e-40 -2.1307562e-38 -1.6177094e-38 -7.726011e-38 -1.0690336e-37 -3.613053e-38 -1.14573004e-35
1.997018e-39 -3.175746e-39 -1.749017e-39 -3.238972e-39 -6.103339e-39 -4.7533434e-38 -5.971762e-39 -5.390369e-39
-8.44983e-39 -3.056905e-39 -9.123e-41 -1.239652e-39 0.50724065 -1.1465753 0.003931627 -0.052926864
0.28841767 0.0007822727 0.2358766 0.064240746 2.7188e-40 0.060571477 -1.2101265 0.03093573
-0.30244365 0.2977058 -0.009674901 0.8748241 -0.417018 4.98596e-40 0.018874347 0.3880517
0.012565654 0.002395764 -2.6353853 -7.259423e-05 -0.6679311 0.9343028 2.172031e-39 -0.06412623
-1.4275992 0.072311044 0.13828948 -0.23682287 0.07277167 -0.59486747 -1.4867213 -2.062676e-39
-0.079775706 -0.8407147 0.07902591 -0.5319821 0.5776113 0.239319 0.40312827 -0.23735677
-1.69114e-39 0.096626215 -0.06126132 -0.00048087718 -0.17413071 -0.06689533 0.08397707 0.14923696
-0.6775592 5.498884e-39 0.1731796 -0.39941192 0.0017859426 -0.067183845 -0.052253846 -0.001973187
0.0015727788 0.57992154 -6.216063e-39 -0.22145003 0.034973543 -0.38068205 -0.09648409 -0.55894756
0.0003037267 -0.46136457 -1.9236974 4.785544e-39 -0.036891457 -1.5910203 0.04073845 -0.08758188
00000000: 0e6f 3a3f f7e8 bc3f 3cda 4abc ffa8 40bf
00000010: 0ccc cbbd 7640 fabd a91b 0c3e 384c cd3e
00000020: bdc9 1100 396e 20be 3e16 c63f f44d d03c
00000030: a690 ddbe aea0 4cbf 9955 723b 6f73 b7bc
00000040: ca30 2f3e 4c1d 3000 8ed9 6cbe 2195 1d3f
00000050: 007b ba3c 6080 2e3e 795a 4fc0 1faa 48b9
00000060: 949a 2abf 78ff 173e 7854 2700 31d9 38bf
00000070: 3d06 b9bf 9ffa 0ec0 e120 433e a96b 823f
00000080: 0b5a 9c3d f029 1d38 1b98 c838 9a2b 0400
00000090: 25ed 133f dc7e 58bf e8ed 5f3c 826a 9abd
000000a0: 4fe0 9f3e a82f 02bf 0047 0e3f 2642 a83d
000000b0: e2c8 0180 8452 b6bf 8dcd 453f f96e 153e
000000c0: 2665 f53e ad60 32be 5493 b139 bce2 b1bf
000000d0: 874a 923f d0b5 1480 7ff4 151b 39ae 981a
000000e0: aaee 939c fc52 0a9a 1c27 159b 38f6 aba6
000000f0: eddc b499 0c4b c699 70a2 3400 37dd b5bd
00000100: d610 e83d 8580 263c e197 363d 3ae5 e8bf
00000110: c691 9339 2a68 eb3e cfa2 833e 84be 2980
00000120: 1d19 ba3e 625a 0c3f faa8 d13d f596 c8be
00000130: 4d9d dcbd 9c43 e1bd 688d d6bd cb4b 4bbe
00000140: 26e4 2500 f218 e2bb 52ab acbc bcd9 01b9
00000150: 6d05 4a3c d7b0 0ebd bde8 76b8 eaa9 c03c
00000160: 8184 85be cc3e 0780 177e 07bf 87db b3be
00000170: 7b2e d0be 8030 94be c860 34be 186a debe
00000180: aca0 12bc ba82 803f 4b55 2100 1e65 d8bf
00000190: 355c 913f 5bc3 233f 60de b33f 2a73 a83e
000001a0: 3111 10bb eccd b9bf 4278 8d3f 0e6b 1280
000001b0: 1355 0bbd a469 cabf 004c e7bf 1e6c 943e
000001c0: 3db5 a83e 6921 4a3d 7da3 81be 99b8 7cbe
000001d0: 0610 1180 1bf1 71bb 9afa 91bd b02a c2bb
000001e0: 12a6 79be 13f9 a03e 0d74 373c 4471 743d
000001f0: d173 75be dcc0 2780 accc c63e a22f 7f3f
00000200: a65a ad3d 8957 89bf 0e2c 53bf 28e4 dbbb
00000210: 795b a33d b429 2a3e 40df 1280 29e9 72bf
00000220: bf94 053f deab 6d3d 376c 1c3e 6b06 ffbd
00000230: 38a0 6439 da11 a7bf c0d3 583f 59c4 1500
00000240: 579e 00bf 0411 2e3e a99e 853e e051 0c3e
00000250: a91f e83e f2cf a83e c241 bf3e 3914 073f
00000260: 0820 0f80 d18b 48bc 03f0 883d 51f1 dfbd
00000270: 8d21 cd3d 1dbc 793f 1b0c 2c3c 9a45 8ac0
00000280: 396b 8abf b5c5 0a80 d004 e880 2827 b080
00000290: 7052 d281 6282 1182 9cb6 4481 7aab 7385
000002a0: e0be 1500 b094 2280 8c0b 1380 f044 2380
000002b0: a075 4280 f865 8181 d806 4180 28b2 3a80
000002c0: b002 5c80 6849 2180 50fe 0080 a57f 0d80
000002d0: 86da 013f fbc2 92bf e1d4 803b d7c9 58bd
000002e0: 7bab 933e 6f11 4d3a a389 713e a790 833d
000002f0: e4f5 0200 cc19 783d 6de5 9abf ee6c fd3c
00000300: e5d9 9abe e56c 983e 7a83 1ebc 79f4 5f3f
00000310: 6283 d5be e26d 0500 609e 9a3c b6ae c63e
00000320: 2ce0 4d3c 4002 1d3b 27aa 28c0 bb3d 98b8
00000330: 88fd 2abf 782e 6f3f bda6 1700 9d54 83bd
00000340: 92bb b6bf d017 943d c29b 0d3e b281 72be
00000350: 5009 953d 3c49 18bf e24c bebf e775 1680
00000360: 7261 a3bd 1439 57bf 56d8 a13d fb2f 08bf
00000370: 56de 133f 0a10 753e d466 ce3e a70d 73be
00000380: 366a 1280 f7e3 c53d 26ed 7abd 3e1e fcb9
00000390: 524f 32be 6b00 89bd 2cfc ab3d 93d1 183e
000003a0: 8574 2dbf a7e0 3b00 fe55 313e b87f ccbe
000003b0: 4a16 ea3a af97 89bd 2108 56bd 9650 01bb
000003c0: b325 ce3a bd75 143f dbaf 4380 ccc3 62be
000003d0: 6b40 0f3d c2e8 c2be 7399 c5bd 3017 0fbf
000003e0: 823d 9f39 fa37 ecbe b73b f6bf 261c 3400
000003f0: 7f1b 17bd 8ea6 cbbf 5cdd 263d 215e b3bd

layers.0.fc_self.weight f4 [64, 9]
-1.2959088 0.33049843 -0.01651688 -0.20116308 -0.20421085 -0.02280747 -0.042080216 -0.046772037
-8.249137e-05 0.07601183 0.18826757 -0.48114854 -0.46018347 0.057669193 -0.0065556783 0.021254985
-0.031533007 -0.0016682569 -0.35103905 0.5016989 0.0012142202 -0.15817341 -3.525268 7.150447e-05
-0.037645087 -0.8239231 0.00011986095 -0.9079069 -1.894163 -1.450206 -0.20528646 1.0047884
-0.07549166 -2.915477e-39 -2.5708e-40 -4.678362e-39 -0.43810964 -0.88328373 0.004328026 0.29230395
0.8449456 0.00017073305 0.17434798 -0.25232196 0.00038106824 -0.3975889 0.8368042 0.07424431
0.64696485 -1.3439462 0.00033789114 0.05422733 0.21788122 -1.9753481e-05 2.0753649e-22 3.7319656e-23
-4.4022366e-22 -6.699615e-23 -4.834411e-22 -1.5037997e-16 -5.690786e-22 -7.7248117e-22 -7.413146e-38 -0.011669733
-0.010755848 0.004963895 0.01519698 -1.934847 -0.0002881477 2.7716372 -1.2601854 1.5894037e-07
-1.331122 0.06376323 0.009104578 -0.49494046 0.26532772 -0.2574881 3.369806e-39 -4.176848e-39
-4.457097e-39 0.01594578 0.0077922232 -1.7914976 -0.0090689575 0.6279202 7.777881e-05 4.86697e-39
-5.186354e-39 -4.8082e-40 0.12822625 -0.3865906 0.010620049 0.18112631 -1.0735185 0.00034177705
-0.048922844 -0.30116734 0.0021348824 -0.55202013 0.60619485 0.0033402713 1.5141407 -1.471558
0.00025445985 8.4037434e-05 0.04154929 -4.25712e-06 -0.54912883 -1.8987631 -0.0036624118 -0.2990093
1.4312707 -0.048586894 -5.277828e-39 -4.165148e-39 -2.37885e-39 0.08121071 -0.2957591 0.007717758
0.03820277 0.39429408 -0.11367316 0.42622346 0.6380845 0.0034169995 -0.17938583 -0.7374761
-0.09566077 -0.41794392 -0.85260993 -0.0010992032 -2.687528e-39 -6.287796e-39 -1.217815e-39 -0.25795946
0.86585075 0.0436477 0.1310993 -0.86893666 0.00035696695 0.18134394 -0.1556697 -5.8255853e-05
-1.116878 0.57276464 0.04338289 0.07659933 -0.58401835 -0.32015452 0.18075429 -0.03334108
-2.4279003e-05 -0.45525974 1.1663241 -0.005329888 0.0012114045 -1.4436464 -0.010774282 -0.14356893
-1.0107503 0.00034324953 -1.945333e-38 -1.7017559e-38 -5.5536776e-38 -1.3854331e-37 -3.4195326e-38 -2.3026088e-35
4.510365e-39 2.08428e-39 -3.12983e-40 -5.425581e-39 -3.135052e-39 -1.0130827e-38 -6.333342e-39 -3.016592e-39
-8.104931e-39 -2.5915076e-38 -4.2370804e-38 5.669272e-39 -0.45279923 -0.007408581 0.004178288 -0.19286609
-0.18077073 -0.00078463077 0.1575137 -0.9834379 0.0001655098 -0.2561192 -0.2737431 -0.014812874
-0.23051858 0.3966439 -0.00040223543 -0.019232564 -0.30912763 0.0021587647 -0.110993266 0.09412204
0.00991381 0.04156727 -2.6300104 -3.6730158e-05 -0.64559275 -0.5694101 7.4748124e-05 -1.1411861
-0.8880005 -1.8259428 -0.081320666 1.8189472 -0.07243654 3.602577e-39 -5.803147e-39 2.133219e-39
-0.10704141 -1.5218208 0.026082635 -0.47494903 0.58491147 -0.23371477 -4.613338e-39 -7.31231e-40
-2.640383e-39 -1.1233723 -0.5051131 0.049196858 -0.2515289 -0.5208012 -0.08492386 0.036646243
-0.02753511 -3.34307e-05 -0.18412316 0.44489124 0.048706353 0.23218617 0.07077049 -0.22473744
0.19104575 0.2683485 0.0002829546 -0.1530315 -0.14696631 -0.7619359 -0.095598586 1.1630672
-4.231279e-06 0.015032507 3.293315e-39 4.113196e-39 -0.17576396 0.85869044 0.003841076 -0.35652348
00000000: 57e0 a5bf 1737 a93e 684e 87bc b2fd 4dbe
00000010: a61c 51be bbd6 babc 4e5c 2cbd 0994 3fbd
00000020: 38ff acb8 17ac 9b3d 37c9 403e 1a59 f6be
00000030: 2b9d ebbe 8836 6c3d 04d1 d6bb ef1e ae3c
00000040: c128 01bd 6aa9 daba 64bb b3be 576f 003f
00000050: 7826 9f3a 36f8 21be fe9d 61c0 acf4 9538
00000060: bc31 1abd a0ec 52bf dc5d fb38 966c 68bf
00000070: ef73 f2bf 5aa0 b9bf 9d36 52be e89c 803f
00000080: 5f9b 9abd 2abf 1f80 a2cc 0280 5ff1 3280
00000090: e84f e0be e21e 62bf 1dd2 8d3b dda8 953e
000000a0: 5b4e 583f ce06 3339 4788 323e 5830 81be
000000b0: 1dca c739 c690 cbbe cd38 563f 670d 983d
000000c0: 7d9f 253f 6e06 acbf fb26 b139 7a1d 5e3d
000000d0: 411c 5f3e 47b4 a5b7 6fe5 7a1b 7f77 341a
000000e0: a80c 059c 9cfc a19a 721c 129c 5560 2da5
000000f0: 53fe 2b9c d677 699c 16ce c981 6832 3fbc
00000100: 4c39 30bc 2ba8 a23b c1fc 783c 11a9 f7bf
00000110: 8812 97b9 8162 3140 c14d a1bf 32a9 2a34
00000120: 3562 aabf 4c96 823d 5e2b 153c d668 fdbe
00000130: 09d9 873e 7bd5 83be a6b1 2400 5a7b 2d80
00000140: 9388 3080 b9a0 823c e855 ff3b cb4f e5bf
00000150: f795 14bc 61bf 203f 2e1d a338 22ff 3400
00000160: 7279 3880 553c 0580 be4d 033e 34ef c5be
00000170: b7ff 2d3c 2d79 393e 0e69 89bf 8a30 b339
00000180: 5263 48bd 9b32 9abe 62e9 0b3b 3151 0dbf
00000190: 962f 1b3f 74e8 5a3b 5dcf c13f 035c bcbf
000001a0: 0669 8539 413d b038 972f 2a3d 62d8 8eb6
000001b0: b593 0cbf ab0a f3bf 1305 70bb bf17 99be
000001c0: e133 b73f 0d03 47bd 7078 3980 bd5a 2d80
000001d0: 44e7 1980 cd51 a63d bd6d 97be 3fe5 fc3b
000001e0: 827a 1c3d eae0 c93e 79cd e8bd f639 da3e
000001f0: 8159 233f bdef 5f3b ebb0 37be 3ccb 3cbf
00000200: cbe9 c3bd bffc d5be a544 5abf 2413 90ba
00000210: bc43 1d80 d177 4480 c642 0d80 4313 84be
00000220: 65a8 5d3f eec7 323d e53e 063e a272 5ebf
00000230: 4b27 bb39 3ab2 393e e167 1fbe bf57 74b8
00000240: dcf5 8ebf b4a0 123f 42b2 313d 1ce0 9c3d
00000250: 3a82 15bf 4beb a3be a717 393e a890 08bd
00000260: c3aa cbb7 ce17 e9be 1c4a 953f 57a6 aebb
00000270: fdc7 9e3a 68c9 b8bf 9d86 30bc bc03 13be
00000280: 4460 81bf 2cf6 b339 f8d3 d380 084e b980
00000290: 7c2f 9781 4c93 3c82 542d 3a81 f9da f485
000002a0: 101d 3100 20b2 1600 7868 0380 5014 3b80
000002b0: 4023 2280 a050 6e80 c8f6 4480 08d9 2080
000002c0: 4041 5880 5818 0d81 48b0 6681 a0bb 3d00
000002d0: 4dd5 e7be afc3 f2bb 05ea 883b b07e 45be
000002e0: f61b 39be aeaf 4dba 454b 213e 96c2 7bbf
000002f0: b38c 2d39 0e22 83be 0e28 8cbe b2b1 72bc
00000300: 100d 6cbe e914 cb3e 20e3 d2b9 9c8d 9dbc
00000310: fa45 9ebe 107a 0d3b 7050 e3bd 0ec3 c03d
00000320: 886d 223c 7142 2a3d 1752 28c0 b50e 1ab8
00000330: 9145 25bf dcc4 11bf 18c2 9c38 6312 92bf
00000340: 0054 63bf 7eb8 e9bf 738b a6bd 43d3 e83f
00000350: 9c59 94bd 853a 2700 d030 3f80 8c3a 1700
00000360: 8738 dbbd 06cb c2bf 40ab d53c 852c f3be
00000370: c2bc 153f ed52 6fbe 1c3c 3280 60f6 0780
00000380: 50c0 1c80 aaca 8fbf 184f 01bf a582 493d
00000390: 65c8 80be 3a53 05bf 90ec adbd 5f1a 163d
000003a0: 5091 e1bc f137 0cb8 c88a 3cbe c9c8 e33e
000003b0: 5080 473d 36c2 6d3e 1ef0 903d 9221 66be
000003c0: 7fa1 433e f964 893e 8659 9439 4ab4 1cbe
000003d0: 567e 16be 3b0e 43bf 31c9 c3bd 63df 943f
000003e0: 69fa 8db6 e74a 763c 6cdc 2300 ebc9 2c00
000003f0: 78fb 33be 23d3 5b3f 90ba 7b3b 3f8a b6be

layers.0.fc_self.bias f4 [64]
0.09168546 0.017800162 0.8789107 -2.5360289 0.0770241 0.5169873 -7.261356e-22 1.7294222
-0.20723256 -2.4590435 0.43988478 0.5508406 -3.2945976 0.34192678 -0.73420376 0.3870957
0.61980444 1.1287872 -1.3921586e-38 -4.340449e-38 1.4206058 0.32723024 1.3337989 -3.6420856
-0.7515204 0.06408598 0.88889444 -1.4672667 0.18700889 0.51569635 0.27188274 -4.576775e-39
0.19040559 0.5992232 0.30365393 -2.609074 1.4019511 1.5332235 0.638285 0.3319981
0.39035293 -0.42294487 1.7898633 0.028211715 -2.4957895 -1.6073021 -0.53790134 0.9183933
-0.30542603 0.04457948 0.7321436 0.8983722 0.58930945 -0.27220172 1.324997 -0.19592337
0.78993666 0.79641056 0.054174133 -3.357781 0.8140602 -0.15535517 0.23134199 1.0036229
00000000: 96c5 bb3d a5d1 913c 4b00 613f 4c4e 22c0
00000010: d0be 9d3d 4859 043f 0576 5b9c b55d dd3f
00000020: c634 54be f860 1dc0 9438 e13e e403 0d3f
00000030: b0da 52c0 0711 af3e c7f4 3bbf 6831 c63e
00000040: 81ab 1e3f 197c 903f b897 9780 0851 6c81
00000050: 69d6 b53f b98a a73e ecb9 aa3f ee17 69c0
00000060: a463 40bf 833f 833d 968e 633f 65cf bbbf
00000070: 427f 3f3e ad04 043f 3734 8b3e 30d6 3180
00000080: aff9 423e b166 193f 8778 9b3e 12fb 26c0
00000090: 2273 b33f ab40 c43f a566 233f a8fb a93e
000000a0: 57dc c73e 3b8c d8be 3e1a e53f 411c e73c
000000b0: 04bb 1fc0 13bc cdbf e7b3 09bf d31b 6b3f
000000c0: cd60 9cbe f998 363d c36d 3b3f b8fb 653f
000000d0: fcdc 163f 065e 8bbe 8099 a93f 23a0 48be
000000e0: 4a39 4a3f 90e1 4b3f b2e5 5d3d e2e5 56c0
000000f0: 4066 503f 6d15 1fbe eae4 6c3e b776 803f

layers.1.fc_neigh.weight f4 [1, 64]
0.5737924 0.91678864 -0.7301149 -1.4018204 -0.7961274 0.028073044 -3.1842604e-22 -0.061080668
0.3583432 -5.0670586 -0.1929012 0.007916073 -0.80036825 0.01195005 0.39408308 0.08445417
0.03998969 -0.73824906 7.7899563e-35 9.266104e-38 -0.28948385 -1.284125 -0.20271686 -0.19487686
-0.30285895 0.26135573 0.021687247 -0.43857104 0.82248956 0.06372519 0.083552465 1.668857e-39
0.51528066 0.14222372 0.0076306844 -0.28425324 -0.18575679 -0.011057205 0.09770286 -0.02798824
-0.14690568 -0.27206472 -0.103914775 0.43395856 -2.815727 -2.1662004 0.6138824 0.11421849
0.47786897 0.26618484 0.019005084 0.31774077 -0.07757047 -0.30368906 0.3989485 -0.0069090873
-0.03179706 -0.023856975 -0.728746 -0.13263641 0.07814966 -0.26582927 0.11789731 -0.0225568
00000000: 0fe4 123f a9b2 6a3f cfe8 3abf da6e b3bf
00000010: 01cf 4bbf 71f9 e53c 0b7a c09b b92f 7abd
00000020: c378 b73e 5825 a2c0 e487 45be 6bb2 013c
00000030: efe4 4cbf 24ca 433c 42c5 c93e 4ff6 ac3d
00000040: 3bcc 233d e4fd 3cbf b217 cf06 523f fc01
00000050: 3a37 94be 355e a4bf 0295 4fbe cd8d 47be
00000060: 5410 9bbe 6bd0 853e 74a9 b13c 628c e0be
00000070: ad8e 523f 5a82 823d 8e1d ab3d 182c 1200
00000080: 6fe9 033f 18a3 113e d20a fa3b a489 91be
00000090: 0737 3ebe 4729 35bc 7018 c83d 9847 e5bc
000000a0: 716e 16be 114c 8bbe 45d1 d4bd d12f de3e
000000b0: df34 34c0 07a3 0ac0 6627 1d3f 62eb e93d
000000c0: 3eab f43e 6149 883e 8db0 9b3c ebae a23e
000000d0: 44dd 9ebd 227d 9bbe fa42 cc3e a065 e2bb
000000e0: a23d 02bd b46f c3bc 198f 3abf d7d1 07be
000000f0: ee0c a03d c61a 88be 2574 f13d 0ac9 b8bc

layers.1.fc_self.weight f4 [1, 64]
0.06391413 0.7932824 -5.099576 -0.92484635 -0.2745261 0.019396793 -1.8622634e-22 -4.621408
0.1961321 -6.0347214 -1.6984763 0.005994477 -0.59712315 -2.2040393 0.30181152 0.0511409
0.03358555 -0.2652388 1.4866003e-34 2.754314e-39 -1.8278275 -0.9503774 -3.8203266 -0.41411448
-0.072081506 0.04208296 -2.3289828 -0.53699076 -1.8769603 0.03213376 0.12594569 2.83745e-39
0.18458684 0.04970301 0.0071539525 -0.0868201 -2.6093621 -0.009096472 0.17459667 -0.66520715
-0.30002925 0.75760335 -0.57559174 0.14748791 -2.9673018 -1.09135 -0.0009751467 0.11805726
-0.13779263 0.103077196 0.0133351665 0.20583072 -0.7419029 -0.3935567 -0.8079956 0.26412898
-0.7208869 -0.7244907 -2.0709112 -0.14781733 -0.9998662 -0.3864273 -2.3916056 -0.4019559
00000000: 69e5 823d 8e14 4b3f ba2f a3c0 bbc2 6cbf
00000010: af8e 8cbe 06e6 9e3c 4322 619b 93e2 93c0
00000020: dad6 483e 701c c1c0 ac67 d9bf 516d c43b
00000030: 10dd 18bf fb0e 0dc0 0a87 9a3e 1f79 513d
00000040: 0091 093d 61cd 87be 639a 4507 e8fd 1d00
00000050: 40f6 e9bf ef4b 73bf 3b80 74c0 d006 d4be
00000060: 789f 93bd 2f5f 2c3d 0e0e 15c0 3a78 09bf
00000070: 3c40 f0bf b19e 033d e8f7 003e a8e5 1e00
00000080: 5504 3d3e 6295 4b3d b46b ea3b bdce b1bd
00000090: caff 26c0 5e09 15bc 78c9 323e 044b 2abf
000000a0: 6f9d 99be 4bf2 413f fb59 13bf 1207 173e
000000b0: 46e8 3dc0 5bb1 8bbf fda0 7fba 01c8 f13d
000000c0: 8319 0dbe 231a d33d be7b 5a3c 4ac5 523e
000000d0: 59ed 3dbf 4480 c9be cdd8 4ebf ea3b 873e
000000e0: 0b8c 38bf 3978 39bf cf89 04c0 6d5d 17be
000000f0: 3bf7 7fbf cdd9 c5be 1110 19c0 2acd cdbe
