N0-Noise/weight_4/best_model_no_noisse_weight_4.pth (torch, 8135 bytes, 5 tensors)

layers.0.fc_neigh.weight f4 [64, 9]
0	0xbf0803b5	-0.53130656
1	0xbf153716	-0.5828718
2	0x3d7c82ef	0.061648306
3	0xbd32fdf3	-0.043699216
4	0xbe82934c	-0.25503004
5	0x3d410b54	0.047129944
6	0xbd5fb013	-0.054611277
7	0xbb32dc8d	-0.0027292103
8	0x8031bd96	-4.56795e-39
9	0xbe01067f	-0.12600134
10	0xbec4cdbd	-0.38438216
11	0x3af9ceaa	0.0019058783
12	0xbd9432f3	-0.0723628
13	0x3ee0b8bc	0.4389094
14	0x39d8184f	0.00041216842
15	0x3eeb7834	0.45990145
16	0xbfb45c9c	-1.4090762
17	0x803c6611	-5.546744e-39
18	0x3cd4766e	0.025935378
19	0xbfac3ff3	-1.3457016
20	0x3c3f3c12	0.011672037
21	0x3dbe132c	0.092810005
22	0x3e9f7e55	0.3115107
23	0x3e9293bf	0.28628346
24	0x29995948	6.810053e-14
25	0x29809dde	5.7117275e-14
26	0x00317ffb	4.54585e-39
27	0xbf7a81b8	-0.97854185
28	0x3f805798	1.0026731
29	0x3e41421a	0.18872872
30	0x3ed489cd	0.41511384
31	0x3e4f7f7a	0.20263472
32	0xbb208210	-0.0024491586
33	0xbf74565d	-0.9544428
34	0x401c5812	2.4428754
35	0x003f3340	5.804021e-39
36	0x3f0f9302	0.5608369
37	0xbf8b8b76	-1.0901935
38	0x3cb060de	0.021530565
39	0x3ddaf7cf	0.10691797
40	0xbf20f0fb	-0.62867707
41	0x38af11db	8.347976e-05
42	0x3eea9f2c	0.45824564
43	0x3ec4951d	0.38395014
44	0x8010149f	-1.476765e-39
45	0x3e2e40f9	0.17016973
46	0x4005bd74	2.0896883
47	0xbd0fb9bf	-0.03508925
48	0xbf20cea4	-0.6281531
49	0x3e3f7d93	0.18700247
50	0x3a5af864	0.0008353053
51	0x3dc4a0a1	0.0960095
52	0xbfeb97af	-1.8405665
53	0x00398cab	5.285085e-39
54	0x3f1e7924	0.61903596
55	0xbf9a120f	-1.2036761
56	0x3c0c0899	0.008546972
57	0xbdc2e2cc	-0.09515914
58	0x3efdf60e	0.49601787
59	0xb98db89b	-0.00027031158
60	0x3f05702a	0.52124274
61	0x3e8e072a	0.2773984
62	0x00140bb5	1.84091e-39
63	0xbf5a2310	-0.8520975
64	0xbfc47c0f	-1.535036
65	0xbc3f99e3	-0.011694404
66	0x3ec3876e	0.38189262
67	0x3e816787	0.25274298
68	0x3e9168a9	0.28400162
69	0x1c565dab	7.0927723e-22
70	0x1c565dad	7.0927734e-22
71	0x003de4a8	5.683992e-39
72	0x3f489705	0.7835544
73	0x3f9d1b43	1.2273945
74	0x3c7a4277	0.0152746355
75	0xbe2da895	-0.1695884
76	0x3da66703	0.08125117
77	0xbdb5173e	-0.08842324
78	0x3e37b34d	0.17939492
79	0x3d31f012	0.04344184
80	0x0043d6f0	6.230083e-39
81	0xbe8fc68c	-0.28081167
82	0xbf242c15	-0.64129764
83	0x3d12e307	0.03586104
84	0xbd8b0cd5	-0.06789557
85	0xbe73f1e6	-0.23822746
86	0x3e5b4256	0.21412024
87	0x3d05ef03	0.032698642
88	0x3dca5d30	0.09881055
89	0x0020be08	3.006906e-39
90	0x3f1429be	0.57876194
91	0x3f659639	0.89682347
92	0x3cf5d619	0.030009316
93	0xbe726da8	-0.23674643
94	0x3e56d546	0.20979795
95	0xbf103de0	-0.56344414
96	0x3eb84775	0.35992017
97	0x3f041e19	0.51608425
98	0x802c83c7	-4.088035e-39
99	0xbfbbb5a8	-1.4664812
100	0x3fa4ec70	1.2884655
101	0x3e1f89c0	0.15579891
102	0x3ef7ec3b	0.48422417
103	0x3d3a413c	0.04547237
104	0xba914707	-0.001108379
105	0xbfc2022f	-1.5156916
106	0x40074cad	2.114055
107	0x00209af4	2.994323e-39
108	0xbffc06dc	-1.9689593
109	0x3f881ec6	1.0634391
110	0x3e575f6e	0.21032497
111	0x3f382137	0.7192568
112	0xbe5f907b	-0.21832459
113	0x396a5d8f	0.00022350832
114	0xbff87116	-1.9409511
115	0x3ff84e4d	1.9398896
116	0x803740d9	-5.074215e-39
117	0xbf3b7e92	-0.73240006
118	0xbf610a2b	-0.8790614
119	0xbfa89eb0	-1.3173428
120	0xbeda74bf	-0.42667195
121	0xbec20a2e	-0.3789839
122	0xbf336fba	-0.70092356
123	0x3f3b8c97	0.732614
124	0xbc330a3e	-0.010927735
125	0x803949f9	-5.26116e-39
126	0x3e9c68cb	0.305487
127	0xbf2c87d6	-0.6739477
128	0x3b7a943e	0.0038235332
129	0x3e32a91a	0.1744732
130	0xbd269d72	-0.040677495
131	0xb879975d	-5.9507194e-05
132	0x3deaa374	0.114569575
133	0x3e1d9cb7	0.15391813
134	0x000b58b8	1.042017e-39
135	0x3ff971ce	1.9487855
136	0xbf93bda2	-1.1542246
137	0x3ed65262	0.41859728
138	0xbf5ad7b9	-0.85485417
139	0x3f6b784b	0.9198043
140	0xbd954ebb	-0.07290407
141	0x3f8470e5	1.0346953
142	0x3e50703b	0.20355313
143	0x002f9c88	4.372421e-39
144	0xbd4f6809	-0.050636325
145	0xbe55fada	-0.20896474
146	0xbbbc7a94	-0.005751917
147	0xbe6082bb	-0.2192487
148	0x3e8d7562	0.27628618
149	0x3da86b28	0.082235634
150	0x3e1800f4	0.14844114
151	0x3e8f17d6	0.27947873
152	0x002a396e	3.877693e-39
153	0x3e9f4495	0.3110701
154	0x3f9e85a7	1.2384537
155	0xbadc09f0	-0.001678763
156	0xbe7d9248	-0.24762833
157	0xbf2a04c2	-0.6641351
158	0x36f51356	7.30382e-06
159	0xbecb2da2	-0.39683253
160	0x3e7fe236	0.24988636
161	0x802a0579	-3.859054e-39
162	0xbe04a4bd	-0.12953468
163	0x3e8b3f29	0.27196625
164	0x3c3c1c87	0.011481411
165	0x3dc2b560	0.09507251
166	0xc02153e7	-2.520746
167	0x382689c9	3.9705807e-05
168	0x3f55e72e	0.8355588
169	0x3e8412c4	0.25795567
170	0x800661b1	-5.86058e-40
171	0xbdf43e2d	-0.119259216
172	0xbe13dbae	-0.1443927
173	0x3cf55f5d	0.0299527
174	0xbec7c47a	-0.39017087
175	0x3f0b3001	0.54370123
176	0xbebce4be	-0.36893266
177	0x3ed8a4e6	0.42313308
178	0xbefdda92	-0.49580818
179	0x8024ea3e	-3.390108e-39
180	0x3e9f6648	0.31132722
181	0x3edbb029	0.42907837
182	0xbe217439	-0.15766992
183	0x3c717500	0.014737368
184	0xbd38e584	-0.04514076
185	0x3cada757	0.021197958
186	0xbf847ee1	-1.035122
187	0xbf8a5b71	-1.0809156
188	0x00064a2b	5.7762e-40
189	0xbdeb0365	-0.11475257
190	0x3f0f1759	0.55895
191	0x3cc39f0e	0.023879554
192	0xbd764f00	-0.060133934
193	0xc0475d00	-3.1150513
194	0xb6fe7ba6	-7.5841845e-06
195	0xc007a555	-2.119466
196	0x3ee57b91	0.44820836
197	0x8028ef1e	-3.759199e-39
198	0xbec6a6e0	-0.3879919
199	0xbf158d56	-0.58418787
200	0x3cc67208	0.024224296
201	0x3bb0e23d	0.0053980635
202	0x3f168662	0.587988
203	0x3e92c0f6	0.28662843
204	0x3f025752	0.5091449
205	0x3e5e53fb	0.21711724
206	0x001b21dc	2.491705e-39
207	0xbf37680c	-0.7164314
208	0x3fdf204e	1.7431734
209	0xbf3c8657	-0.73642486
210	0xbeb883bd	-0.36038008
211	0xbecc5354	-0.39907324
212	0x3b49ac8b	0.003077301
213	0xbf5242e1	-0.821333
214	0xbf9de45b	-1.2335314
215	0x803fb692	-5.85113e-39
216	0xbccf85b9	-0.025332319
217	0xbd7cb5b5	-0.061696727
218	0xbaaaa1b6	-0.0013018164
219	0x3d0543bb	0.032535296
220	0xbdce072b	-0.10059961
221	0xb94d8aa1	-0.00019601967
222	0x3e2cabf1	0.16862465
223	0xbf62bbb2	-0.8856765
224	0x8022e79e	-3.205495e-39
225	0x40350bda	2.8288484
226	0xc024cdde	-2.5750651
227	0x3d532881	0.0515523
228	0xbf8b827a	-1.0899193
229	0x3f8d30ea	1.1030552
230	0xbaef13f9	-0.0018240205
231	0x3ff10521	1.882969
232	0x3deae8d9	0.114701934
233	0x00381c71	5.15299e-39
234	0x3e2b31b0	0.16718173
235	0xbfb25ae4	-1.3933988
236	0x3d65dd03	0.056118976
237	0xbe24346c	-0.16035622
238	0xc0080c54	-2.1257524
239	0xbfb21453	-1.3912452
240	0xbd45e945	-0.048318166
241	0x3ec6ebdb	0.38851818
242	0x001e38fd	2.775508e-39
243	0xbf875376	-1.0572345
244	0x3f91daf1	1.1394941
245	0x3ba65d0e	0.005077011
246	0xbb66af68	-0.0035199765
247	0xbe24ccbf	-0.1609373
248	0xbaf234f6	-0.0018478918
249	0xbffa62d3	-1.9561409
250	0x3fa23bf6	1.2674549
251	0x8014fe91	-1.928031e-39
252	0xc07dbbe8	-3.964594
253	0xbe955f9f	-0.29174516
254	0xbab13ffa	-0.0013523095
255	0xbe84fed4	-0.25975668

layers.0.fc_self.weight f4 [64, 9]
0	0xbf25197b	-0.64492005
1	0xbdd1590c	-0.102220625
2	0xbdc8d7cb	-0.09806784
3	0xbec18c72	-0.37802464
4	0xbe5c648b	-0.21522729
5	0xbd3d3a73	-0.04619832
6	0x87f58d90	-3.6946706e-34
7	0x884388fe	-5.884171e-34
8	0x80300bae	-4.412294e-39
9	0xbe50dae7	-0.20396005
10	0x3d4199ac	0.047265694
11	0xb9989161	-0.00029100015
12	0xbe415d53	-0.18883257
13	0xbe8889cc	-0.2666763
14	0xb9f43505	-0.0004657881
15	0xbd01c76a	-0.031684317
16	0xbfe13adc	-1.7596087
17	0x392aeeb8	0.00016301393
18	0xbdb7f27a	-0.089817956
19	0xbf74aa47	-0.9557232
20	0xbf970d3c	-1.1800914
21	0xbe286948	-0.16446412
22	0x3f0faba2	0.56121266
23	0xbe9314dc	-0.28726852
24	0x3e9d7a35	0.307573
25	0x3fa3cd2b	1.2796987
26	0x3ac50374	0.0015030936
27	0x3ee2c70b	0.44292483
28	0x3ecffb2c	0.40621316
29	0xbff6f2cd	-1.9292847
30	0x3f73698e	0.9508294
31	0xbf90575f	-1.1276664
32	0x3a83a286	0.0010042943
33	0xbe9b3ac6	-0.30318278
34	0x3ce5abed	0.028036082
35	0xb7e79d9c	-2.7610738e-05
36	0x3d913fab	0.07092222
37	0x3dfbf2b9	0.12302155
38	0x3c078d81	0.008273483
39	0xbee7c46b	-0.45267043
40	0xbf07daa6	-0.53068006
41	0x3880816d	6.127623e-05
42	0x3fd64b41	1.6741716
43	0x3f1f1973	0.6214821
44	0x39deb23e	0.0004247594
45	0xbf07f802	-0.53112805
46	0x3fe5a322	1.7940409
47	0xbf651f8c	-0.8950126
48	0xbee622ec	-0.44948518
49	0xbf8f986f	-1.1218394
50	0xb9b0fa31	-0.00033755743
51	0xbdf13299	-0.11777229
52	0xbe13cf20	-0.1443448
53	0xb9301290	-0.00016791583
54	0x3ce4a80d	0.027912164
55	0x3e3c1634	0.18367845
56	0x3cd5abbf	0.026082871
57	0xbe96d12c	-0.2945646
58	0xbea0f1cf	-0.31434485
59	0x38396ff7	4.4211713e-05
60	0x3d406260	0.046968818
61	0xbf279b94	-0.6547177
62	0x3a356eed	0.0006921131
63	0xbf5edc8d	-0.87055284
64	0xbfaafa4e	-1.3357637
65	0xbcbcc012	-0.023040805
66	0xbe9c3aba	-0.30513555
67	0x3f0af5b1	0.54281145
68	0xbe919c12	-0.28439385
69	0x002f4905	4.342463e-39
70	0x003ef793	5.782614e-39
71	0x801b0d48	-2.484323e-39
72	0xbf1f58aa	-0.62244666
73	0x3e769ad5	0.24082501
74	0xbdb3027a	-0.08740707
75	0xbe9518c6	-0.29120463
76	0x3cfd86bc	0.030948035
77	0xbcaaf1a9	-0.020867186
78	0xbcf25c39	-0.02958499
79	0x3e193a04	0.14963537
80	0x00406783	5.914605e-39
81	0xbeb2fec8	-0.34960008
82	0xbe2f2a39	-0.1710595
83	0xbce09815	-0.027416268
84	0x3eb3419e	0.35011
85	0x3e29f1b4	0.16596109
86	0xbe7f57ff	-0.24935912
87	0x3ea9b2fc	0.33144367
88	0x3f76d2eb	0.96415585
89	0x3a41cc52	0.0007392812
90	0xbf1bb0f8	-0.6081691
91	0x3dc4a49e	0.09601711
92	0x3be286f7	0.0069130617
93	0xba255ed7	-0.0006308383
94	0xbc8c396e	-0.017117228
95	0xbd48010c	-0.048829123
96	0xbcb2629e	-0.02177554
97	0xbc30451f	-0.010758667
98	0xb9f95372	-0.00047555153
99	0x3e71de51	0.23619963
100	0x3f3ec7a3	0.7452337
101	0xbf8b69b3	-1.0891632
102	0x3f073de3	0.52828807
103	0xbf988323	-1.191502
104	0x3a2bb83e	0.00065505865
105	0xbedffeda	-0.43749124
106	0xbd12e5cf	-0.035863694
107	0xb735101e	-1.0792193e-05
108	0xbe7bf484	-0.24604994
109	0x3f4dff92	0.80468094
110	0x3d8dff49	0.069334574
111	0x3f346d8d	0.7047966
112	0xbfc56f3b	-1.542457
113	0x3980a43a	0.0002453642
114	0xbd7188b9	-0.05896828
115	0xbb284ac9	-0.002567934
116	0xb7a2090a	-1.9316114e-05
117	0x3eebf99b	0.4608887
118	0xbf465ea0	-0.77488136
119	0xbdc30e94	-0.09524265
120	0xbbf8eaa1	-0.0075963293
121	0x3f56d1a6	0.8391365
122	0x3aac8ab7	0.0013163899
123	0xbe4d233b	-0.2003297
124	0x00014c2b	1.1916e-40
125	0x80338346	-4.730702e-39
126	0xbe7b596a	-0.24545828
127	0xbd3839d8	-0.04497704
128	0x3b6ba801	0.0035958292
129	0xbe8dd0be	-0.2769832
130	0xbd631fe2	-0.055450328
131	0xb9b15638	-0.0003382431
132	0x3fd6bc07	1.6776131
133	0x3dcc0b78	0.09963125
134	0x39ebcbb3	0.0004497446
135	0xbd5009a3	-0.05079044
136	0x3eb78194	0.35841048
137	0xbd22671b	-0.03964911
138	0xbf3b0762	-0.7305814
139	0xbea7aef5	-0.3275067
140	0x3cae8f6e	0.021308627
141	0x3dd0bc6e	0.1019219
142	0xbd419d97	-0.04726943
143	0x373db932	1.1308397e-05
144	0x3dcccfe0	0.100005865
145	0x3e3d07d8	0.18460023
146	0x3c939189	0.018013733
147	0x3d41e7be	0.047340147
148	0x3e899ef6	0.2687909
149	0xbe2e265d	-0.17006822
150	0x3eb1aa2c	0.34700143
151	0x3f409306	0.7522434
152	0x3a0db0d7	0.00054050743
153	0xbfb05cb6	-1.3778293
154	0x3ceeff58	0.029174492
155	0xbb5157bc	-0.0031943163
156	0x3e566aa0	0.20939112
157	0x3debad37	0.115076475
158	0xbb0cfc1c	-0.0021512574
159	0x003c1eaa	5.52113e-39
160	0x0042fae1	6.151141e-39
161	0x80282339	-3.686055e-39
162	0x3a031fcb	0.0005001991
163	0x3dfb2069	0.12262041
164	0x3bb821e9	0.005619277
165	0xbc237fa8	-0.009979166
166	0xc013d1cf	-2.3096807
167	0xb88ee4d6	-6.813712e-05
168	0xbd9b408e	-0.07580672
169	0xbf9e3604	-1.2360234
170	0x370a0c7e	8.2283495e-06
171	0xbf68ee5e	-0.9098872
172	0xbf3698a5	-0.7132667
173	0x3d4965a8	0.049169213
174	0x3e2709f1	0.16312386
175	0x3f3c6cc5	0.7360347
176	0x39dc6d57	0.00042043134
177	0xbec4f60b	-0.38468966
178	0x000bd394	1.08609e-39
179	0x00451ea2	6.347638e-39
180	0xbe074bd2	-0.13212517
181	0x3f492800	0.7857666
182	0xbad97ed4	-0.0016593584
183	0x3ea38c23	0.31942853
184	0xbf3eb9fa	-0.7450253
185	0xbcb81a6c	-0.022473536
186	0xbf062b05	-0.5240939
187	0xbec4e68c	-0.38457143
188	0x39053024	0.00012701802
189	0xbf074e59	-0.52853924
190	0x3f11624d	0.5679062
191	0xbcf79d09	-0.030226247
192	0x3caccb8d	0.021093154
193	0xc07b7458	-3.928976
194	0x390b6b71	0.00013296098
195	0x3c18434d	0.0092933895
196	0xbf2b7e5f	-0.669897
197	0x389ba0fe	7.420963e-05
198	0xbf570bdd	-0.84002477
199	0x3f01fb86	0.5077442
200	0xbd8885e0	-0.0666616
201	0xbe1178a3	-0.14206176
202	0x3f673837	0.9032015
203	0xbe95795a	-0.29194146
204	0x800902e9	-8.27563e-40
205	0x0039e66d	5.317284e-39
206	0x803726d6	-5.064884e-39
207	0xbf0c29d0	-0.547513
208	0x3f3553a5	0.70830756
209	0xbf1753cc	-0.5911224
210	0xbeeddc7c	-0.4645728
211	0x3f9033fc	1.1265864
212	0xbb0a0848	-0.0021062065
213	0x3b5f2c27	0.0034053416
214	0xbce0744b	-0.027399203
215	0x3996484d	0.00028664098
216	0x3d5f273e	0.054480784
217	0x3bad4e67	0.0052888873
218	0xbfffb261	-1.9976312
219	0xbcb2cde4	-0.021826692
220	0x3f483389	0.78203636
221	0x396f5bc4	0.00022827002
222	0x000ac580	9.89205e-40
223	0x00393d0b	5.256521e-39
224	0x00073c63	6.64511e-40
225	0x3f110cdf	0.56660265
226	0xbf7b48f5	-0.981582
227	0x3b86faff	0.0041192765
228	0xbf8791a7	-1.0591325
229	0x3ec39a61	0.3820372
230	0x3aa7662f	0.0012771542
231	0xbd6b5a93	-0.057459425
232	0xbecc691a	-0.39923936
233	0x3822bbb9	3.879864e-05
234	0xbdceb5a3	-0.10093238
235	0x3f631f22	0.8871938
236	0x3b01fdaa	0.0019835033
237	0xbf0a6747	-0.5406384
238	0xbe9ef21c	-0.3104409
239	0xb9bab53d	-0.00035611718
240	0xbd97d817	-0.07414263
241	0x3ee62ce0	0.44956112
242	0x80248a08	-3.355594e-39
243	0xbfb82bf8	-1.4388418
244	0xbd308d6a	-0.043103613
245	0x3c9339ce	0.0179719
246	0x3dfa87c6	0.12232928
247	0xbd074291	-0.033022467
248	0x39e7aaa6	0.00044186896
249	0xbe9c4844	-0.30523884
250	0xbea37441	-0.31924632
251	0xb8b3bb9d	-8.570331e-05
252	0x3df9eec1	0.12203742
253	0xbddd181d	-0.10795615
254	0x3b976874	0.004620606
255	0x3df00184	0.11719039

layers.0.fc_self.bias f4 [64]
0	0xbc65023a	-0.013977582
1	0x3fe37f4f	1.7773226
2	0x3e679d76	0.2261866
3	0x3f53c627	0.8272423
4	0x3ff6907b	1.9262842
5	0x3ee1ad58	0.44077563
6	0x3f97dd94	1.1864495
7	0xbf78f88e	-0.97254264
8	0xbe08cf54	-0.1336034
9	0x3f1ea219	0.6196609
10	0x3cc7bfd6	0.024383467
11	0x3f91ca93	1.1389946
12	0x3f343009	0.70385796
13	0xbd262ce6	-0.040570162
14	0x3fa043e0	1.2520714
15	0x3f8327d5	1.0246531
16	0x3f65a23a	0.89700663
17	0xbf37f628	-0.7185998
18	0x3fc3b891	1.52907
19	0xbebf18a9	-0.37323502
20	0x3f2b8269	0.66995865
21	0x3f320282	0.69535077
22	0xbfda2d5c	-1.7045093
23	0x3ca40873	0.02002356
24	0xc03eaa3d	-2.9791405
25	0x3f99cbe5	1.2015349
26	0xbeb8748c	-0.36026418
27	0x3f2e7167	0.6814179
28	0x3e98aa47	0.2981741
29	0xbf4e52c1	-0.8059502
30	0x3e00bb2d	0.12571402
31	0x3ff837c8	1.9392023
32	0x3e55ab5d	0.20866151
33	0x3ec5ba37	0.38618633
34	0x3da820ea	0.08209403
35	0xbeda6fa5	-0.42663303
36	0xc04d4109	-3.2070944
37	0x3fd7c150	1.6855869
38	0xc0222cd2	-2.5339856
39	0x3f20f319	0.6287094
40	0x3f174efc	0.59104896
41	0x3e9f92c0	0.3116665
42	0x3e390805	0.18069465
43	0x3f84ca8f	1.0374316
44	0x3eb4ab4c	0.3528694
45	0x3eb734a9	0.35782364
46	0x83bbb707	-1.1032893e-36
47	0x3e84d795	0.25945726
48	0xc01441e6	-2.3165221
49	0x3f9b822b	1.2149099
50	0xbf24f692	-0.64438736
51	0xbedac7bb	-0.42730507
52	0xbe9bf74d	-0.30462113
53	0x3e32ec41	0.17472936
54	0x3f3a28b6	0.7271837
55	0x3ef824e2	0.4846564
56	0x3f02b695	0.5105985
57	0xc045caa0	-3.0904922
58	0x3f44f3b8	0.76934385
59	0x87d57cda	-3.212206e-34
60	0x3f127a46	0.57217824
61	0x3ea8a4a4	0.3293811
62	0x3f115ee8	0.5678544
63	0xc0833034	-4.099634

layers.1.fc_neigh.weight f4 [1, 64]
0	0xbde187ec	-0.11012253
1	0xbfe5e381	-1.7960054
2	0xbaeb69d1	-0.0017960613
3	0x3cc0bcf0	0.023527592
4	0xbbaba1db	-0.0052378005
5	0x3d09c4d1	0.033634964
6	0xbdbe5552	-0.09293617
7	0xbf9c595e	-1.2214773
8	0x3eb0d612	0.34538323
9	0xbb340ca2	-0.002747335
10	0x3ec54e79	0.38536432
11	0x3cdc6533	0.026903724
12	0x3c9b1a2d	0.01893338
13	0xbdccc8f9	-0.0999927
14	0xbccdad55	-0.025107065
15	0xbbb03e11	-0.0053784926
16	0x3bd26ff6	0.006422038
17	0x3f230937	0.63685936
18	0xbe61f535	-0.22066195
19	0xbee71abf	-0.45137593
20	0xbeccd6fe	-0.40007776
21	0xbf5230f9	-0.82105976
22	0xbefd1623	-0.4943095
23	0xbe5bcdb4	-0.21465188
24	0xc024d50a	-2.5755029
25	0xbd9f3ff8	-0.07775873
26	0x3eecc647	0.46245024
27	0x3e96e859	0.29474142
28	0x3f1367e8	0.57580423
29	0xbf82beb4	-1.0214448
30	0x3e638ab0	0.22220874
31	0xbe7e2ee4	-0.24822575
32	0xbef13c6f	-0.4711642
33	0x3d279a7e	0.04091882
34	0x3d646bd1	0.055766884
35	0x3e5a31d0	0.21308064
36	0xbe8dd2a5	-0.27699772
37	0xbe81051f	-0.2519922
38	0xc0bb3c6d	-5.851126
39	0xbe825f04	-0.25463116
40	0xbf19b25d	-0.60037786
41	0xbeee567d	-0.4655036
42	0x3f175058	0.5910697
43	0xbb282417	-0.0025656277
44	0x3ec7f72b	0.39055762
45	0x3f00ee32	0.5036346
46	0x84653fbf	-2.6948091e-36
47	0x3f30908d	0.68970567
48	0xc0073f28	-2.1132298
49	0x3d20758b	0.039174598
50	0xbe7fef75	-0.2499369
51	0xbf5c0375	-0.85942775
52	0xbeee3d15	-0.46530977
53	0x3e717539	0.23579873
54	0x3c2bb313	0.010479706
55	0xbdf4bb2f	-0.11949765
56	0x3c8d84dd	0.017275268
57	0xbee8a32f	-0.45437
58	0x3d977fac	0.07397398
59	0x06319bfc	3.34046e-35
60	0x3db01d4b	0.08599337
61	0xbf2778cb	-0.6541869
62	0x3dfe0509	0.12403304
63	0xbeb64a4a	-0.35603553

layers.1.fc_self.weight f4 [1, 64]
0	0xbf4cd88e	-0.80017936
1	0xbfad3ac4	-1.3533559
2	0xbf990d90	-1.1957264
3	0x3c86032d	0.016358936
4	0xbf247ebc	-0.6425588
5	0x3dc6cefd	0.09707449
6	0xbebf9a63	-0.37422475
7	0xbf66ed4a	-0.90205824
8	0x3cf5fd09	0.030027883
9	0xbfaf0be2	-1.3675501
10	0x3e853c52	0.26022583
11	0x3c9548dc	0.018223219
12	0x3c36f667	0.011167145
13	0xbf781d3b	-0.969196
14	0xbfa7bd9f	-1.3104743
15	0xbbd85561	-0.006601975
16	0xbfbbbeab	-1.4667562
17	0x3dd9bb81	0.10631467
18	0xc071928f	-3.7745702
19	0x3d964bd2	0.0733868
20	0xbe03d217	-0.12873112
21	0xc0a7efc7	-5.2480197
22	0xbe099372	-0.13435152
23	0xbe1e80cb	-0.15478818
24	0xc05ee50b	-3.4827297
25	0xbd52e05e	-0.051483504
26	0xc00db5e9	-2.214228
27	0x3d7e0b4a	0.062022485
28	0x3ea85523	0.32877454
29	0xbf0449b0	-0.5167494
30	0xc0002d8b	-2.0027797
31	0xbf47b9bf	-0.780178
32	0xbe99d9bc	-0.3004893
33	0x3e96055a	0.29300958
34	0x3d211374	0.039325193
35	0x3dcb66ff	0.09931754
36	0xbe13caaa	-0.14432779
37	0xc093d09c	-4.619215
38	0xc0ab7a42	-5.358674
39	0xc029aa8d	-2.6510346
40	0xbd379238	-0.04481718
41	0xc02d84d4	-2.7112322
42	0x3de67088	0.112519324
43	0xbb3ca860	-0.0028786883
44	0x3e3aaf2e	0.18230888
45	0xbe940b7b	-0.2891501
46	0x85336100	-8.4343556e-36
47	0x3ddb28c3	0.10701134
48	0xbfbce2f2	-1.4756758
49	0xbf60e798	-0.87853384
50	0xbe657a37	-0.22409903
51	0xbf2d468f	-0.6768579
52	0xbd67a959	-0.056557987
53	0xbdf72aa8	-0.12068683
54	0x3ba0e18f	0.004909701
55	0xbfa5198b	-1.289842
56	0x3c5d1c14	0.013495464
57	0xbeb964b4	-0.36209643
58	0x3d3b66ef	0.045752462
59	0x0693b539	5.5561537e-35
60	0xbfdc6811	-1.7219259
61	0xbeb6b71b	-0.35686573
62	0x3d5e87ec	0.054328844
63	0xbee8f2b9	-0.45497683
