N0-Noise/weight_3/best_model_no_noisse_weight_3.pth (torch, 8135 bytes, 5 tensors)

layers.0.fc_neigh.weight f4 [64, 9]
-0.88443 -1.8461491 -1.31925 -1.0263995 -0.65616095 -2.1898413 -0.47812733 0.7193745
2.684708e-39 0.70822364 0.72469944 -0.36324164 0.47987038 0.043222573 0.06136182 -2.6454027
-2.1836536 -3.134078e-39 0.2227973 0.8166521 0.0046543838 -0.011575678 -0.036843892 -0.0011203529
-1.8309994 1.1454871 2.364063e-39 1.1845556 -1.1846182 0.00017141605 0.029413437 -1.0501748
-0.00036063668 -0.08101882 0.14344029 -3.094947e-39 -0.1105883 0.29814067 0.009938833 0.01974708
-2.0234072 -4.4311597e-05 0.7357835 0.38857064 -4.435105e-39 -1.9177214 1.2497243 0.7191875
1.3278216 0.13443123 -0.01097625 -0.95912176 0.65748245 -6.1626e-39 -0.73864067 -0.5325315
0.038309384 -0.57576466 0.74923784 0.17749314 0.21637787 -0.26184824 -4.007749e-39 2.4570644
-2.600485 0.055555318 -0.87495804 0.8064168 -0.0027845649 1.5745625 -0.1431595 -3.403219e-39
0.04237361 0.3395498 -0.019291485 0.3605768 -0.34881988 0.23002231 0.095587775 0.7475989
-2.3429e-39 -0.461321 0.39204037 -0.005901902 -0.78037524 -0.3785582 0.0035779157 0.7240306
-1.5550992 1.137256e-39 -0.0799815 0.4619019 0.0026828651 -0.005966748 -0.8925171 -2.482861e-05
0.56895214 0.8766351 5.827814e-39 0.5626641 -0.5931757 0.024612386 -0.06343045 -0.6609069
0.05836614 -0.7574207 0.16250362 -1.294424e-39 -0.18171586 -0.028235503 0.108559996 -0.022568613
-0.5638807 0.2802874 0.38733092 1.266469 1.044573e-39 0.5365438 -0.1508483 0.002235646
-1.0154748 1.048211 0.0015095298 1.4158777 -1.2540163 3.472575e-39 2.3395e-39 3.47137e-39
3.498853e-39 -3.98026e-39 5.994483e-39 -1.729251e-39 -0.00846896 -0.061977085 2.461738e-39 -1.0350554
-0.3779139 1.1098086 0.39658013 0.96131825 0.07238804 -0.16757914 0.48895508 -1.015904e-39
-0.048757717 -0.12864563 0.00041317855 0.0042903377 -0.06987078 2.9293938e-05 0.22287203 -0.5910167
5.733808e-39 -0.48249343 0.39315313 0.037620082 0.0992524 -0.31598592 -8.1823004e-05 -1.0224258
0.6146762 2.920853e-39 -1.6534606 0.31049678 0.104083575 0.5073489 -0.70024997 0.00057347026
-0.8989127 -0.20875627 -4.763214e-39 1.4328616 -1.4445492 0.3942415 -1.0251228 0.8353093
-0.06212755 1.1491815 -0.03960196 -4.27767e-40 -0.107032776 -0.15526932 0.07185245 -0.3749618
0.20608236 0.030584522 -0.25450498 -0.058928747 4.816355e-39 0.41482183 1.1880004 0.054606266
-0.6797519 -0.5939127 -0.011019062 0.4474928 0.64682 -2.131357e-39 -0.100887634 0.556648
0.018709283 -0.0010681427 -2.5758183 -1.49082e-07 -2.0261261 0.40139627 -2.61934e-40 -0.031969815
0.5438699 0.021058789 -0.051490482 -2.7756054 1.2943872e-05 -0.22130448 0.7597517 -2.531156e-39
-0.3910754 -1.2366405 -2.1861618 -0.035053287 0.46535167 0.2103892 1.1745061 0.89761627
2.777699e-39 -2.4912755 0.18862562 0.63243157 1.8521385 0.67119455 -0.0077000493 -1.494513
1.0127401 1.0144e-40 -0.054106295 0.40521115 -0.15315156 -0.012406289 -1.2673829 6.6838315e-05
-0.9643957 -0.9874428 -2.354816e-39 -0.008735271 -0.18737529 0.001148858 0.014770808 -0.3411494
2.6774816e-05 -0.12789673 -0.53430945 -9.89049e-40 -3.0456223 0.18191059 0.5798394 1.3633555
00000000: 016a 62bf 9d4e ecbf 2fdd a8bf 0f61 83bf
00000010: 2afa 27bf 5c26 0cc0 1bcd f4be ed28 383f
00000020: e03b 1d00 254e 353f e785 393f cffa b9be
00000030: 92b1 f53e 270a 313d 8856 7b3d 474e 29c0
00000040: fbc0 0bc0 8920 2280 fa24 643e 1d10 513f
00000050: cd83 983b eaa7 3dbc 9fe9 16bd ced8 92ba
00000060: 305e eabf 529f 923f 0cbe 1900 859f 973f
00000070: 92a1 97bf 25be 3339 73f4 f03c 216c 86bf
00000080: d613 bdb9 32ed a5bd 03e2 123e 74b3 2180
00000090: 1e7c e2bd e5a5 983e 7dd6 223c a1c4 a13c
000000a0: 817f 01c0 37db 39b8 4f5c 3c3f bbf2 c63e
000000b0: 454b 3080 e577 f5bf f7f6 9f3f ac1c 383f
000000c0: 0ff6 a93f 57a8 093e bbd5 33bc 0189 75bf
000000d0: c550 283f d21a 4380 8e17 3dbf fc53 08bf
000000e0: 4dea 1c3d 5065 13bf 0dce 3f3f c3c0 353e
000000f0: 2992 5d3e f910 86be f9a3 2b80 8b40 1d40
00000100: 596e 26c0 f98d 633d 40fd 5fbf 5571 4e3f
00000110: 3f7d 36bb 448b c93f 6798 12be ca0e 2580
00000120: f38f 2d3d 79d9 ad3e 2d09 9ebc 869d b83e
00000130: 8598 b2be f88a 6b3e 86c3 c33d a462 3f3f
00000140: 0d83 1980 4432 ecbe 84b9 c83e be64 c1bb
00000150: acc6 47bf 61d2 c1be 777b 6a3b 125a 393f
00000160: 7e0d c7bf 3562 0c00 57cd a3bd 687e ec3e
00000170: 02d3 2f3b b684 c3bb 007c 64bf 0947 d0b7
00000180: d9a6 113f 286b 603f 9375 3f00 c10a 103f
00000190: 5dda 17bf ea9f c93c d3e7 81bd 3231 29bf
000001a0: 5511 6f3d 53e6 41bf 5967 263e 5418 0e80
000001b0: b913 3abe 244e e7bc b454 de3d d0e1 b8bc
000001c0: 7c5a 10bf d581 8f3e 3d50 c63e a81b a23f
000001d0: d85f 0b00 ef5a 093f fa77 1abe ea83 123b
000001e0: 14fb 81bf c72b 863f 6adb c53a 7b3b b53f
000001f0: 9b83 a0bf 20d0 2500 9379 1900 c4cc 2500
00000200: 6119 2600 5857 2b80 2e46 4100 73d4 1280
00000210: 65c1 0abc afdb 7dbd 53ce 1a00 b27c 84bf
00000220: ee7d c1be 350e 8e3f 8d0c cb3e f418 763f
00000230: 2e40 943d de99 2bbe 5258 fa3e ed0f 0b80
00000240: 2cb6 47bd aebb 03be e39f d839 f695 8c3b
00000250: 6918 8fbd 41bc f537 9138 643e df4c 17bf
00000260: 866f 3e00 6109 f7be 5e4b c93e 8417 1a3d
00000270: d844 cb3d e8c8 a1be 6498 abb8 d9de 82bf
00000280: 6b5b 1d3f 26ce 1f00 99a4 d3bf 6ff9 9e3e
00000290: c529 d53d 9ee1 013f 9543 33bf f054 163a
000002a0: 251f 66bf 34c4 55be e7dd 3380 0268 b73f
000002b0: fde6 b8bf 06da c93e 3937 83bf d5d6 553f
000002c0: 7579 7ebd 6118 933f aa35 22bd 71a8 0480
000002d0: 0034 dbbd ecfe 1ebe 6127 933d fefa bfbe
000002e0: 4107 533e 648c fa3c 7a4e 82be 455f 71bd
000002f0: 0a72 3400 8763 d43e 6610 983f d2aa 5f3d
00000300: 3804 2ebf aa0a 18bf 4c89 34bc c71d e53e
00000310: ff95 253f 5b35 1780 2d9e cebd 7c80 0e3f
00000320: 3644 993c ec00 8cba 35da 24c0 5913 20b4
00000330: 0dac 01c0 d083 cd3e 2ada 0280 c8f2 02bd
00000340: 0f3b 0b3f 7b83 ac3c afe7 52bd 85a3 31c0
00000350: 8229 5937 a49d 62be 167f 423f d58f 1b80
00000360: 093b c8be 3c4a 9ebf 13ea 0bc0 0994 0fbd
00000370: 9342 ee3e 4470 573e 3756 963f 2eca 653f
00000380: 183f 1e00 0f71 1fc0 1327 413e 09e7 213f
00000390: e012 ed3f 68d3 2b3f b250 fcbb 344c bfbf
000003a0: 78a1 813f c61a 0100 909e 5dbd d677 cf3e
000003b0: c3d3 1cbe bf43 4bbc 9a39 a2bf 8c2b 8c38
000003c0: a3e2 76bf 0dc9 7cbf 45a4 1980 621e 0fbc
000003d0: 4fdf 3fbe 4795 963a 4201 723c 22ab aebe
000003e0: 7b9a e037 5cf7 02be 81c8 08bf 11c5 0a80
000003f0: 7aeb 42c0 c546 3a3e 5b70 143f 6f82 ae3f

layers.0.fc_self.weight f4 [64, 9]
-0.14209104 1.250494 0.00593847 -0.85637224 -0.3628049 -0.0006870553 -0.17530406 0.2733974
0.0011936015 -0.025255049 2.200566 -0.054410387 0.2661935 -1.4310665 -0.062872335 -0.4581593
-0.41001305 4.4843393e-05 -0.5255888 -0.089144394 -0.7394004 0.045738574 -0.0072658947 -5.283325e-05
-0.2546425 -0.17350733 -8.8417466e-05 -0.22501194 0.8586019 0.0014087113 -0.5074776 -0.6472106
0.0001484309 -0.017940443 -0.32028335 0.00016602993 0.0014903574 0.04475248 0.0026727708 0.039887555
-2.3632658 -0.00011184643 -0.3167897 -0.96520793 5.2999194e-06 -1.245367 0.5398157 -1.12253
1.2670171 -0.035735246 0.004185648 0.018627858 -1.214542e-39 -8.8959e-41 -0.79279244 -0.5714693
0.020348549 -0.33756942 1.2724279 -0.16668932 -1.3437317e-08 -4.195129e-39 -3.570834e-39 0.5596828
-0.6060204 -0.00555564 -0.9116396 0.026541093 0.0014819091 -0.20535298 -0.5015835 4.3087606e-05
-0.5268515 1.2055827 0.11304563 0.2540243 -0.32900137 -0.25782868 -0.2264321 -0.00958401
-7.731533e-05 -0.01330715 0.35081443 -0.30772176 -0.12844835 1.047467 -0.0022480958 0.054708086
-0.41644555 0.00011730365 0.0108771715 -0.024959743 0.00095797615 0.07703935 -2.1953576 -5.4676486e-05
-0.30152172 -0.58818436 0.00023168627 0.50471157 0.7524329 -0.018649433 0.44606164 -0.08433307
-0.06510055 1.462012 1.090725 0.0002425432 -1.0278872 0.52149826 -0.0032505437 0.44759047
-0.11920417 -0.27228892 -0.26104617 -0.042389352 -2.1144384e-05 -0.081361346 -0.10989823 -0.0034116677
-0.61540216 1.0443673 -0.00032112477 -0.8671268 -0.47126114 1.8032022e-05 -0.16425838 -0.06314776
0.0070783747 -0.05525569 -0.008054317 -0.15831326 3.812712e-39 3.135122e-39 -4.595568e-39 -0.48418546
-1.4746348 0.48319447 0.19113286 0.8743664 -0.043502927 0.07632265 -5.705144e-39 -2.615077e-39
-0.2807553 -0.7296668 -1.158015 0.0011005583 0.80539197 -8.4098676e-05 4.245845e-39 -1.06317e-39
5.356647e-39 0.123601176 -0.16643026 0.038986214 0.18388249 0.21417764 -0.00033347568 0.06622719
-0.05292955 2.664799e-06 0.21632923 -0.119203106 0.15908939 0.24048565 -1.0778971 0.0010851115
-0.0979151 0.1984737 -2.4895759e-05 -0.11209381 0.06665615 -0.066064075 -0.612149 0.60408133
0.016475167 0.081540234 -0.16802609 6.216594e-06 -0.49082473 -0.9849971 0.067717895 -0.26005054
-0.21395765 -0.060640357 -0.33941448 3.689774e-39 -5.43426e-39 -0.44999966 -0.34367096 -0.079020545
-0.53796476 -0.72053236 -0.0013559883 -5.894583e-39 1.85764e-39 -1.558589e-39 -0.43991533 0.5489352
-0.0024754454 -0.012219467 -3.648392 8.471276e-06 0.036990333 -0.42013782 0.0017597622 -0.3273747
0.3900977 -0.0018711698 0.042958118 -3.4087055 -1.9920286e-05 0.034167178 -0.6281914 0.0001962531
-0.839613 0.016902113 0.016674848 0.029158423 1.082035 -0.2099246 -0.05608163 6.05725e-40
-2.67654e-40 -0.40102226 -0.15285596 0.003003201 1.4161366 0.03334737 0.00075897155 0.081123866
-3.939892e-39 2.730052e-39 0.053513154 -0.32522333 -0.0735762 0.021425562 0.96966445 5.5845434e-05
1.7579316 -0.041207034 0.0005359686 -0.0003385066 -1.1839116 0.0027639575 -0.006430108 0.93831533
-4.9251732e-05 -8.7245e-41 2.831077e-39 4.333437e-39 -0.6024596 -0.24526277 0.24405308 1.526487
00000000: 5080 11be 3010 a03f 7f97 c23b 363b 5bbf
00000010: 90c1 b9be 801b 34ba e882 33be befa 8b3e
00000020: 9f72 9c3a ade3 cebc 13d6 0c40 6ddd 5ebd
00000030: 844a 883e 302d b7bf 36c3 80bd db93 eabe
00000040: 3bed d1be 3a16 3c38 fd8c 06bf 5691 b6bd
00000050: 5849 3dbf 5f58 3b3d be16 eebb 4599 5db8
00000060: 8060 82be e8ab 31be c46c b9b8 8869 66be
00000070: 56cd 5b3f 82a4 b83a 0dea 01bf 98af 25bf
00000080: 1ea4 1b39 d6f7 92bc 2efc a3be 5218 2e39
00000090: 1958 c33a 604e 373d a729 2f3b 2261 233d
000000a0: bf3f 17c0 188f eab8 4232 a2be de17 77bf
000000b0: f6d5 b136 3068 9fbf 5d31 0a3f 10af 8fbf
000000c0: 9e2d a23f 1f5f 12bd c327 893b 7399 983c
000000d0: a639 0d80 fbf7 0080 72f4 4abf d04b 12bf
000000e0: 00b2 a63c e6d5 acbe ebde a23f 9bb0 2abe
000000f0: f2d9 66b2 50ae 2d80 08e2 2680 5f47 0f3f
00000100: 2724 1bbf 160c b6bb 3661 69bf b56c d93c
00000110: 9e3c c23a 0d48 52be c767 00bf f7b8 3438
00000120: bddf 06bf 8950 9a3f 7884 e73d 790f 823e
00000130: de72 a8be 1f02 84be d1dd 67be 4006 1dbc
00000140: 5a24 a2b8 3c06 5abc f39d b33e b58d 9dbe
00000150: f787 03be 6613 863f ca54 13bb 9615 603d
00000160: 5a38 d5be eb00 f638 2a36 323c 6078 ccbc
00000170: b120 7b3a cfc6 9d3d bd80 0cc0 6e54 65b8
00000180: 0e61 9abe 4093 16bf cff0 7239 c734 013f
00000190: 719f 403f b2c6 98bc 3162 e43e d1b6 acbd
000001a0: 7053 85bd 3623 bb3f e09c 8b3f 3253 7e39
000001b0: cf91 83bf e980 053f 1307 55bb 942a e53e
000001c0: 5121 f4bd 7469 8bbe d8a7 85be 75a0 2dbd
000001d0: 385f b1b7 c7a0 a6bd 5312 e1bd 4996 5fbb
000001e0: ff8a 1dbf d4ad 853f a35c a8b9 06fc 5dbf
000001f0: 2449 f1be 7943 9737 5933 28be 9d53 81bd
00000200: b6f1 e73b ca53 62bd 41f6 03bc df1c 22be
00000210: 4a84 2900 7223 2200 930a 3280 28e7 f7be
00000220: d5c0 bcbf 4465 f73e 55b8 433e 7ad6 5f3f
00000230: 2030 32bd 0d4f 9c3d 9f1f 3e80 c579 1c80
00000240: 29bf 8fbe 72cb 3abf d639 94bf 9c40 903a
00000250: 2b2e 4e3f 225e b0b8 b03b 2e00 af93 0b80
00000260: 2754 3a00 9d22 fd3d b26c 2abe 02b0 1f3d
00000270: b14b 3c3e 6251 5b3e 59d6 aeb9 1fa2 873d
00000280: a8cc 58bd e6d4 3236 6985 5d3e c220 f4bd
00000290: 54e8 223e df41 763e 88f8 89bf 4d3a 8e3a
000002a0: b687 c8bd b13c 4b3e 3cd7 d0b7 7191 e5bd
000002b0: 0583 883d 9a4c 87bd ccb5 1cbf 13a5 1a3f
000002c0: eef6 863c 91fe a63d 080f 2cbe 2398 d036
000002d0: 614d fbbe c528 7cbf aeaf 8a3d 5825 85be
000002e0: b717 5bbe 0662 78bd bcc7 adbe 972d 2800
000002f0: 822c 3b80 5b66 e6be a4f5 afbe 86d5 a1bd
00000300: 0fb8 09bf cf74 38bf 6bbb b1ba b32f 4080
00000310: 583a 1400 b6f8 1080 953c e1be 0487 0c3f
00000320: 153b 22bb 2934 48bc 417f 69c0 da1f 0e37
00000330: 2d83 173d 4e1c d7be d2a7 e63a a89d a7be
00000340: e3ba c73e 0a42 f5ba daf4 2f3d 3b28 5ac0
00000350: 7d1a a7b7 e2f2 0b3d 27d1 20bf 4ac9 4d39
00000360: e1f0 56bf 4d76 8a3c b199 883c a5dd ee3c
00000370: 1f80 8a3f 79f6 56be dab5 65bd 8498 0600
00000380: 1cea 0280 ca52 cdbe 4686 1cbe 5ad1 443b
00000390: f743 b53f 4097 083d b8f5 463a 4524 a63d
000003a0: d1e6 2a80 46ba 1d00 9c30 5b3d ac83 a6be
000003b0: 1eaf 96bd a984 af3c ee3b 783f 943b 6a38
000003c0: e703 e13f b5c8 28bd 3e80 0c3a 9679 b1b9
000003d0: 6a8a 97bf 8323 353b a8b3 d2bb 6f35 703f
000003e0: a593 4eb8 34f3 0080 e4d3 1e00 dc2f 2f00
000003f0: cb3a 1abf 2a26 7bbe 0de9 793e ed63 c33f

layers.0.fc_self.bias f4 [64]
0.13851304 0.9308018 0.42808867 0.44699827 1.6941698 -0.73244846 -0.9131225 1.3861561
0.32004347 0.41610038 1.2388482 0.6281496 0.42036006 0.47095954 -0.06820833 -0.4068294
-2.5489614 0.008310482 0.16766195 0.7854853 -0.15255848 -0.4460392 0.42145017 0.6705231
-2.6674883 -0.5536466 -1.7189896 -2.7479942 -1.0771115 -0.43327317 -1.3872955 -0.7978801
0.85923666 0.1453186 0.5227673 0.22412905 0.45336762 -0.17290597 -0.76292765 0.19270907
0.1145589 -0.8883868 0.13330117 1.5612518 0.73241496 -0.13138902 1.6047277 -2.9741466
0.25892255 -0.09478324 0.6745725 -0.21156667 0.37339604 -1.9941822 2.1558847 -0.12200791
1.3974148 1.5892135 0.09930619 1.9714744 0.8964673 -0.123600915 0.13912043 -1.336259
00000000: 5dd6 0d3e 0749 6e3f 702e db3e f5dc e43e
00000010: 8eda d83f be81 3bbf 65c2 69bf 906d b13f
00000020: bddc a33e 1c0b d53e 9492 9e3f 6ace 203f
00000030: 6f39 d73e 9c21 f13e cfb0 8bbd f14b d0be
00000040: 2f22 23c0 b028 083c 93af 2b3e 9115 493f
00000050: 4a38 1cbe 405f e4be 51c8 d73e 67a7 2b3f
00000060: 21b8 2ac0 c9bb 0dbf da07 dcbf 23df 2fc0
00000070: cade 89bf fbd5 ddbe e692 b1bf df41 4cbf
00000080: eff6 5b3f 66ce 143e 14d4 053f 1682 653e
00000090: cd1f e83e 430e 31be 3a4f 43bf 8755 453e
000000a0: db9d ea3d 516d 63bf 1a80 083e 19d7 c73f
000000b0: 8c7f 3b3f d88a 06be b867 cd3f 6b58 3ec0
000000c0: 7f91 843e b71d c2bd c9b0 2c3f efa4 58be
000000d0: c42d bf3e 5d41 ffbf 04fa 0940 48df f9bd
000000e0: 7dde b23f 596b cb3f 0b61 cb3d 4659 fc3f
000000f0: e27e 653f 7a22 fdbd 9675 0e3e 890a abbf

layers.1.fc_neigh.weight f4 [1, 64]
0.21486667 -0.17270754 0.53469133 0.5129288 -0.14065993 0.005635954 -0.06423694 -0.06679774
0.027270248 -0.2303597 -0.15507898 -0.0019667803 0.06602718 -0.13712096 0.21840699 0.003665503
-6.959217 0.08707545 0.03235229 -0.007057644 -0.11265145 0.46929362 -0.8800863 -0.45379147
-0.5060781 0.005511592 -1.6221035 -4.833822 0.006804809 0.7524372 -0.2937909 0.0036857666
-0.48607168 0.42961746 0.5211926 -0.70362294 -0.61276495 0.38710856 -0.050048754 -0.100330286
0.2506538 1.9430692 0.09653918 -0.037459634 0.007646797 -0.22432686 -0.01933285 -0.6447419
0.10991292 -0.1431558 -0.030052608 0.017192755 0.13611005 -3.0670123 -0.3033907 0.24057503
-0.025367336 0.005790249 0.0871125 -0.011947726 0.006262137 -0.7315543 0.49426088 -0.73355144
00000000: 0206 5c3e 3fda 30be 88e1 083f 4d4f 033f
00000010: 2809 10be cfad b83b a88e 83bd 41cd 88bd
00000020: db65 df3c 6ae3 6bbe 06cd 1ebe 19e5 00bb
00000030: 4239 873d 7069 0cbe 15a6 5f3e f038 703b
00000040: e8b1 dec0 9d54 b23d d683 043d cf43 e7bb
00000050: ceb5 e6bd 4147 f03e 564d 61bf 5b57 e8be
00000060: 568e 01bf 969a b43b 16a1 cfbf abae 9ac0
00000070: e0fa de3b b99f 403f c36b 96be e78c 713b
00000080: 63de f8be d2f6 db3e e16c 053f a220 34bf
00000090: 2ade 1cbf 1833 c63e ecff 4cbd f779 cdbd
000000a0: b255 803e 7eb6 f83f 55b6 c53d 466f 19bd
000000b0: fc91 fa3b f1b5 65be ed5f 9ebc ce0d 25bf
000000c0: 061a e13d 6f97 12be e330 f6bc d2d7 8c3c
000000d0: 6f60 0b3e ee49 44c0 0756 9bbe 4d59 763e
000000e0: 29cf cfbc 21bc bd3b 0a68 b23d 65c0 43bc
000000f0: 9d32 cd3b 2547 3bbf c30f fd3e 07ca 3bbf

layers.1.fc_self.weight f4 [1, 64]
-2.0108514 -0.060526624 0.12922218 -0.23940317 -3.9203446 0.0041455985 -0.017836379 -0.053964626
0.15783803 -0.1607792 -3.0553174 -0.2682506 0.0345672 -0.04908039 -4.3367603e-05 0.00087210524
-5.8684525 -0.004320504 0.03259256 -0.007917477 0.5313781 0.49208796 -4.921063 -4.521248
-0.39901754 0.0030795017 -1.0996228 -5.1472406 0.0031473478 0.43491474 -0.08573487 0.0028624092
-2.173958 0.15555003 0.044816934 -2.6842313 -0.06909208 0.062041298 0.35682404 -1.2337043
-1.6135949 -0.09470035 0.03239871 -0.09253207 -1.5651007 -0.50394654 -0.03092409 -0.51067936
0.069623254 0.17165203 -0.018275712 0.008742664 0.107032835 -3.34294 -0.92093545 0.16722639
-1.7767218 -0.5077213 0.03366042 -0.41341633 -0.7795502 -0.5364693 0.1842572 -0.80640453
00000000: cab1 00c0 c4ea 77bd d252 043e 1b26 75be
00000010: ede6 7ac0 cdd7 873b 991d 92bc 030a 5dbd
00000020: 4ba0 213e 4da3 24be 528a 43c0 2558 89be
00000030: 5696 0d3d 8508 49bd 9ce5 35b8 fe9d 643a
00000040: 5dca bbc0 0493 8dbb c77f 053d 4eb8 01bc
00000050: 6508 083f f4f2 fb3e 5979 9dc0 10ae 90c0
00000060: 074c ccbe 77d1 493b 71c0 8cbf 32b6 a4c0
00000070: bc43 4e3b 25ad de3e c395 afbd 4297 3b3b
00000080: 2122 0bc0 8248 1f3e f691 373d 72ca 2bc0
00000090: 2680 8dbd 041f 7e3d a4b1 b63e 06ea 9dbf
000000a0: 478a cebf 42f2 c1bd 82b4 043d 7481 bdbd
000000b0: 3855 c8bf a402 01bf 8454 fdbc e2bb 02bf
000000c0: a396 8e3d 8dc5 2f3e f2b6 95bc 643d 0f3c
000000d0: 0834 db3d bbf2 55c0 6dc2 6bbf 653d 2b3e
000000e0: 9f6b e3bf 06fa 01bf 82df 093d 4eab d3be
000000f0: 9a90 47bf 0d56 09bf ebad 3c3e 8770 4ebf
