N0-Noise/weight_11/best_model_no_noisse_weight_11.pth (torch, 8143 bytes, 5 tensors)

layers.0.fc_neigh.weight f4 [64, 9]
000000 b3 17 cb be 58 02 e0 bf 84 cc 97 bf f1 a5 7e bf
       -0.3966652 -1.7500715 -1.1859288 -0.99471956
000010 40 61 9e be 02 76 eb bf 13 d6 ab bd 58 55 de 3d
       -0.3093357 -1.8395388 -0.08390441 0.10856122
000020 f5 88 3c 80 ae 59 10 bc 10 72 41 bf 90 07 ca 3b
       -5.55926e-39 -0.008810444 -0.7556467 0.0061654523
000030 00 f8 3e bd de 4f 84 bd df 5d 82 39 eb db 4b 3e
       -0.04662323 -0.06460546 0.00024865472 0.19908111
000040 1a 95 87 bf 45 32 00 80 f2 2a 3b 3f 4b 94 b1 bf
       -1.0592377 -1.8033e-41 0.73112404 -1.387338
000050 8f 85 b1 3b 15 13 bb 3d 6b 4e 9f be 16 71 bf 39
       0.0054175328 0.09134499 -0.31114516 0.00036514614
000060 f4 ac 8e 3e 11 a0 68 3f f8 cb 05 00 21 58 0c c0
       0.27866328 0.9086924 5.32348e-40 -2.192879
000070 07 9d e2 3f e0 09 ad 3e 08 68 f9 3e 03 4f 11 3e
       1.7704171 0.33796597 0.48712182 0.14190297
000080 a8 2c 01 bc 25 fa fb bf 6f 60 b2 3e a8 1c 22 00
       -0.007884182 -1.9685713 0.34839198 3.132687e-39
000090 68 7b b9 bc 12 16 4f bf 15 7d ff 3c 4f 84 11 bd
       -0.022641852 -0.8089305 0.031187573 -0.03552657
0000a0 a0 d4 b0 be 51 e2 28 3e 74 95 10 3d b9 cb d1 3d
       -0.3453722 0.16492583 0.03529878 0.10243935
0000b0 18 83 38 00 09 ba 4d bf 5f db c6 bf c0 46 8c bf
       5.189815e-39 -0.8036199 -1.5535697 -1.0959091
0000c0 09 83 6b bf aa fe f0 be 64 cd d1 bf c6 0e f6 be
       -0.9199682 -0.47069293 -1.6390805 -0.48058146
0000d0 54 c7 05 3f 84 28 18 80 70 30 02 3c c7 a5 ce 3b
       0.52257276 -2.218586e-39 0.007946119 0.0063063833
0000e0 4d 95 d7 3b ce e3 f6 3b 70 40 0e 3c 05 2e 29 3c
       0.0065790773 0.0075344807 0.008682355 0.010325913
0000f0 2c f4 8f 3d ee 81 aa 3c 0f 49 20 80 30 ca f3 bf
       0.07028994 0.020813908 -2.964944e-39 -1.9046078
000100 bf d6 6c 3f 09 c6 9b 3e a9 14 39 3f 00 79 fd 3d
       0.92515177 0.30424526 0.7229715 0.123765945
000110 f1 e3 9c bb 5b c0 c2 bf 31 9a 78 3f c0 5b 39 00
       -0.004787915 -1.5214952 0.9711028 5.267537e-39
000120 6e d8 84 be 38 47 bd be fa 6f 63 bf 9d c8 ac be
       -0.25946373 -0.36968398 -0.8884274 -0.33746806
000130 e2 f7 4f 3e bc 8d e2 ba ba f0 9d bf 9e e7 16 be
       0.20309404 -0.0017284672 -1.2339089 -0.14736792
000140 e4 d1 35 80 89 44 35 bf 75 75 cd be fc cd 36 bf
       -4.942576e-39 -0.708077 -0.40128675 -0.7140806
000150 23 d0 9c be 7d 4d 42 be f8 a6 49 be 8a 08 38 3f
       -0.30627546 -0.18974872 -0.196926 0.7188803
000160 b1 bf 20 3f 60 53 23 00 17 c1 80 be 80 6a 7e bf
       0.627925 3.244152e-39 -0.25147316 -0.99381256
000170 08 4f 2d c0 d3 69 38 be 6f 24 4a 3f e6 c4 5e 3d
       -2.7079487 -0.18009119 0.78961843 0.054386996
000180 d2 32 9d be 3d 52 ed be 35 28 16 80 32 b1 6a 3c
       -0.30702835 -0.46351805 -2.034804e-39 0.014324473
000190 bd de c0 be 4a 89 df bb e1 eb 9c 39 5d 74 29 3e
       -0.37669936 -0.006821786 0.00029930382 0.16548295
0001a0 67 db 9e bd c0 fe 8d bd 71 74 47 3f 0f 0d 3d 80
       -0.077566914 -0.06933355 0.7791205 -5.60665e-39
0001b0 da 0a 83 be 6a 09 3e bf b4 7d 99 3d 2b f8 df be
       -0.25594217 -0.74233115 0.07494679 -0.43744025
0001c0 a2 df ce be 1a 73 38 bf 6b 5e cd be f6 5e 58 be
       -0.40404993 -0.7205063 -0.40111098 -0.21129975
0001d0 a4 8f 34 80 41 ae bf be da 9c 6d 3e 4b b7 c4 bd
       -4.826974e-39 -0.37437633 0.23204365 -0.09605273
0001e0 fc 3d 11 3f 5a 01 d9 be 81 89 dc 3d 97 81 cd bd
       0.56735206 -0.42383844 0.10768414 -0.10034483
0001f0 f3 5f 95 3e 6e 18 21 80 70 fa 9c bd 58 60 30 be
       0.29174766 -3.039335e-39 -0.07664955 -0.17224252
000200 3c ff 1b 3b c4 43 ef be f2 af 69 bf d4 e2 10 3b
       0.0023803255 -0.4673139 -0.91284096 0.0022107856
000210 48 ac 7b 3f d1 f7 46 bf a7 91 07 00 3b 4a f5 bd
       0.98309755 -0.7772189 6.95099e-40 -0.11977049
000220 51 64 00 3f 5d d5 c0 3c c7 78 53 3d 22 99 34 c0
       0.5015307 0.02353924 0.051628854 -2.8218465
000230 9f 74 4c ba f1 70 00 c0 79 8d 28 3e 74 3b 45 00
       -0.00077993603 -2.0068934 0.16460218 6.357977e-39
000240 38 49 f1 be 3c 8c 7e bf 62 dc 65 3a b7 92 5e 3c
       -0.47126174 -0.9943273 0.00087684963 0.013584784
000250 66 94 0e be d9 10 34 39 8c 6b 34 be 31 3b f3 bf
       -0.13923797 0.00017172414 -0.17619151 -1.9002439
000260 64 d5 11 80 c9 16 50 bc 48 40 ac be 43 eb 39 bf
       -1.637754e-39 -0.012700745 -0.33642793 -0.72624606
000270 e3 d6 91 be 43 5e 36 be c5 af 28 be d8 59 18 3f
       -0.28484258 -0.17809395 -0.16473301 0.5951209
000280 58 6e e5 3e e6 34 14 00 b2 aa 6c bd f7 74 98 bc
       0.44810748 1.855686e-39 -0.057779975 -0.01861046
000290 8d 7f a4 bd 83 ad 92 bc ae 73 3c bc df a4 80 be
       -0.08032141 -0.017905002 -0.01150219 -0.25125787
0002a0 1f 40 f0 bd 45 c6 e5 be fd f0 30 80 84 35 74 3f
       -0.1173098 -0.4487783 -4.494554e-39 0.9539416
0002b0 cc d4 53 bf 73 71 87 b9 bc 63 da bd 19 53 70 bf
       -0.8274658 -0.00025833733 -0.10663554 -0.93876797
0002c0 bb fb 6c b9 25 20 62 be 0f 22 99 3c d0 15 12 00
       -0.00022600491 -0.22082575 0.018692998 1.660864e-39
0002d0 0a 54 20 40 1f 9c 0a c0 9b 99 be 3d 2e 79 49 bf
       2.5051293 -2.1657789 0.09306642 -0.7870053
0002e0 fe 2f 65 bf 03 b3 b9 ba 4e 05 00 40 50 49 ab 3f
       -0.89526355 -0.001416773 2.0003238 1.3381748
0002f0 48 c1 27 00 eb ee bd be 69 dd bc bf e4 fd 89 3d
       3.65092e-39 -0.37096342 -1.4755069 0.06737879
000300 42 b2 8f be 0a 16 b2 bd de 34 e2 3d 7f 33 04 40
       -0.28065687 -0.0869561 0.1104524 2.065643
000310 f7 d6 9e 3f 23 23 06 80 fc d4 f5 3d 8a f4 88 bd
       1.2409352 -5.63618e-40 0.12003514 -0.06687267
000320 69 4b fa 3b 21 f4 64 3e 09 3b 13 3e fd 9e c9 be
       0.007638384 0.22358753 0.14377989 -0.3937911
000330 8a ac 81 3f 62 c1 9f 3e 9e 07 31 80 d2 06 a8 3e
       1.013078 0.31202227 -4.502672e-39 0.32817703
000340 8c b8 02 bc c9 4e ed bd 88 34 3d 3e 8d 57 83 3e
       -0.00797857 -0.11587293 0.1847707 0.25652733
000350 0a 1f f8 3b eb 52 ab bf e4 9b 39 bf 86 67 22 80
       0.0075720595 -1.338468 -0.72503495 -3.159544e-39
000360 9c ff e7 be 1b ca 59 bf 69 b4 32 3c a8 53 b7 bc
       -0.45312202 -0.85074013 0.010907271 -0.022378758
000370 aa 9b 17 bd b6 a1 68 ba eb fc 32 3c 5d 59 01 c0
       -0.037013687 -0.00088741945 0.010924558 -2.0210793
000380 6c 1c 29 80 fc f9 14 3f b7 96 64 bf 28 23 2e 3c
       -3.775451e-39 0.58193946 -0.8929247 0.010628499
000390 32 15 63 be 7e b8 a6 be 87 6c 33 bb ff f1 aa 3e
       -0.22176054 -0.3256263 -0.002737792 0.33387753
0003a0 63 10 e6 be c4 91 2e 00 ab d3 84 bc 68 69 d9 bc
       -0.44934377 4.276724e-39 -0.016214212 -0.02653952
0003b0 f7 1c 4f b9 f9 df 15 3c 72 ac 28 bd 2a 00 99 b8
       -0.00019751849 0.0091476375 -0.04118008 -7.295639e-05
0003c0 c1 6f 03 bc 0e 79 87 be c8 50 06 00 70 f7 59 be
       -0.00802225 -0.26459545 5.79992e-40 -0.21285796
0003d0 47 f6 eb 3f 55 06 93 ba c6 32 2a bf a8 c1 5a bf
       1.8434533 -0.0011217097 -0.66483724 -0.85451746
0003e0 2a ea ab 39 da 5d 06 3e 87 d8 7f be a4 0e 44 00
       0.00032790127 0.13121739 -0.24984942 6.250066e-39
0003f0 7a b4 8b be ee 66 ca 3f fe d9 18 bb af 72 52 bf
       -0.2728613 1.5812662 -0.0023323293 -0.82206243

layers.0.fc_self.weight f4 [64, 9]
000000 4b 70 39 be f1 0b 6a 3f 3a c4 bd 3b b8 77 fd bd
       -0.18109243 0.9142447 0.0057912143 -0.1237635
000010 a6 53 dc be 1b 7a 42 38 26 2a 97 3e e9 88 1e 80
       -0.4303257 4.6366924e-05 0.29524344 -2.804179e-39
000020 02 01 06 00 b0 8e fd bc f1 7a 6a bf ab 81 9e bd
       5.51375e-40 -0.030951828 -0.91593844 -0.07739576
000030 91 21 45 3d e3 1a 46 3f d5 58 5b b9 d0 c7 0e 80
       0.048127715 0.77384776 -0.0002091856 -1.357376e-39
000040 00 cf 12 80 1e c1 09 00 2e 37 07 be 0d 8d 4d be
       -1.727297e-39 8.95797e-40 -0.13204643 -0.20073338
000050 9e 85 9f ba b1 4a 20 be e0 95 b1 3d 5a b2 98 ba
       -0.0012170558 -0.15653493 0.086711645 -0.0011649833
000060 43 a1 d1 3e 65 15 3a be 0d 40 4f 3a 3f 81 93 bf
       0.40943345 -0.18172224 0.00079059677 -1.1523818
000070 ba b8 7b 3f 21 ad 47 3e 6a 3a c2 3f 83 8b c6 bd
       0.98328745 0.19499637 1.5174077 -0.096945785
000080 b9 46 e9 3a a7 e4 00 bd 31 94 9e 3d b4 92 e6 b5
       0.0017797566 -0.03146806 0.07743109 -1.7179032e-06
000090 56 a8 3c be 9b 50 05 bf ec 35 f4 be 6c 7d f0 3e
       -0.1842359 -0.5207612 -0.4769739 0.4697069
0000a0 49 7f c8 3e 68 28 57 be 43 00 04 3f f0 bc 9b 3f
       0.3915961 -0.21011508 0.515629 1.2167034
0000b0 ec 4c eb 39 ca 68 1b 3d f7 da a5 3e 88 b4 00 bf
       0.00044880004 0.03794173 0.3239362 -0.5027547
0000c0 62 76 f4 3e b4 56 4d bd df 68 be 39 52 27 8f be
       0.4774657 -0.050131515 0.0003631776 -0.27959687
0000d0 7d 8d 99 3d 71 80 86 3a f8 18 21 bd 4c ae e8 3d
       0.0749769 0.0010261667 -0.039330453 0.113613695
0000e0 fa 3e c4 3b 54 81 1d 3a 64 b5 d7 3d 65 34 30 be
       0.0059889527 0.0006008346 0.105326444 -0.17207487
0000f0 74 09 a0 3e 46 70 46 3f 40 4b b5 39 74 3d 0e bf
       0.31257212 0.77515066 0.00034579076 -0.5556252
000100 0c fc 69 3f 56 09 ad bc 07 81 a9 3f da 43 66 bf
       0.9140022 -0.021122616 1.3242501 -0.89947283
000110 cb 49 e4 3a bb 2e 39 3e 40 21 08 00 53 fe 43 80
       0.0017417012 0.18084233 7.46612e-40 -6.244213e-39
000120 5a 8c 53 3e 02 73 2b 3f be 35 27 bb 1d a1 66 3e
       0.20659009 0.66972363 -0.002551421 0.22522397
000130 16 fb 57 3e b6 8c 5c ba 7c de a8 bf ed 36 45 00
       0.21091875 -0.00084133015 -1.3192897 6.356353e-39
000140 1d b9 07 00 a1 e6 c0 3d fb a7 d6 be c6 ea 50 bd
       7.09255e-40 0.09418989 -0.41925034 -0.051005147
000150 4b e2 4a 3e 2d f5 c7 be aa 65 4c 3a f8 47 23 3e
       0.19812886 -0.39054242 0.00077971315 0.15945423
000160 f6 0f 84 bd bc da df 39 a1 1e 40 bf 87 7d 57 bf
       -0.06448357 0.00042696844 -0.75046736 -0.84175915
000170 23 c9 d6 3b 15 1d 22 3e 59 1a 39 3f d2 97 5d bd
       0.006554739 0.15831406 0.7230583 -0.054099865
000180 6c 7e 39 00 29 bc 35 00 04 4a 39 00 03 8b 91 3d
       5.279975e-39 4.93478e-39 5.261175e-39 0.071065925
000190 c0 c3 d1 3d 9b dc fc bb 88 2a 4f be a7 23 ea 3d
       0.102424145 -0.007716728 -0.20231068 0.114325814
0001a0 4b 51 6f bc 11 56 b9 3e c2 42 19 3f 8d 40 ac 39
       -0.014606784 0.36198476 0.5986749 0.0003285449
0001b0 6e 1f 6d 3e 76 d9 3f 3f 54 38 4d 3c 0b 3a e9 be
       0.2315652 0.74941194 0.012525637 -0.45552096
0001c0 c1 88 cc bd 12 5c 26 b9 9b 46 be 3d d0 a7 31 3e
       -0.09987021 -0.00015865293 0.09290811 0.17349172
0001d0 62 de 1b 3a d0 be e2 bd 25 bf ac 3f 1f 55 5d 3e
       0.00059459184 -0.11071551 1.3495833 0.21614502
0001e0 25 f2 15 3f 7f c0 50 3c 5c e0 72 be 89 f7 67 3e
       0.5857261 0.012741207 -0.23718399 0.22653021
0001f0 5e cd dd 3d af ab 43 b8 46 1d b5 be eb 45 32 3e
       0.10830186 -4.6651516e-05 -0.35373896 0.17409484
000200 c4 2c c2 38 88 79 42 be 1a e1 9e 3f f2 e0 8f ba
       9.258979e-05 -0.18991673 1.2412446 -0.0010977073
000210 2c cf e8 3d 05 b3 06 80 43 b1 19 80 a3 d6 bb be
       0.1136764 -6.15233e-40 -2.359477e-39 -0.36687192
000220 72 1c 02 3f 0f 0f 9f 3a 2c 8c 32 bd 0c 48 61 c0
       0.50824654 0.0012135225 -0.04359071 -3.5200224
000230 e4 79 26 39 ab ac 37 3d 63 80 49 bf 74 e7 0a 38
       0.00015876401 0.044842403 -0.7871153 3.311732e-05
000240 cb 27 1d bf 81 35 ac bf 91 16 03 3c a8 33 77 ba
       -0.61388844 -1.3453828 0.008000986 -0.00094299996
000250 e2 ba 8c 3f 3f 37 d6 b8 44 cc 14 80 1f e9 02 80
       1.0994532 -0.000102146056 -1.909987e-39 -2.67299e-40
000260 8a b4 20 00 62 50 30 3e a8 4b c8 be 7d 44 d5 3b
       3.003501e-39 0.17218164 -0.3912022 0.0065084086
000270 da 8c ed 3d 07 5e 42 bf 62 23 34 3a 9a 7c 56 3e
       0.11599131 -0.75924724 0.00068717275 0.20945969
000280 76 86 8f be c5 82 e1 39 23 9d d6 be 24 2f 30 bf
       -0.28032273 0.00043012775 -0.4191676 -0.6882193
000290 5a a3 40 3d 0b 5b fd be c1 59 27 be 40 2c bd 39
       0.047030784 -0.49483523 -0.16342832 0.00036081858
0002a0 96 22 dd 3d c8 e2 0f 00 f8 08 13 80 34 06 90 be
       0.10797612 1.458886e-39 -1.748092e-39 -0.28129733
0002b0 54 a8 20 3f 94 6d 4d 3b 2e 05 08 bf d2 db f8 be
       0.6275685 0.0031345831 -0.53132904 -0.4860521
0002c0 f9 71 20 39 2e 0f 3e be c0 b2 21 bf 8b 93 c5 38
       0.00015301247 -0.18560478 -0.63163376 9.421174e-05
0002d0 c1 c7 dc 3e a6 80 05 3e c0 0b c9 3d a4 ee 25 bf
       0.4312115 0.13037357 0.09816694 -0.6481726
0002e0 39 e4 96 bf df cf 61 3a f0 c0 91 3e 23 86 0d be
       -1.1788398 0.0008614044 0.28467512 -0.138207
0002f0 c6 e3 2b 38 9a b9 01 bd e2 66 51 be 67 81 28 bf
       4.0981708e-05 -0.031671144 -0.20449403 -0.6582245
000300 0f 14 f9 be 04 2e 88 3f 73 97 da bd 04 9f 5b 3f
       -0.48648116 1.0639043 -0.10673418 0.85789514
000310 60 24 53 3c 47 85 44 37 73 71 90 bf ba c0 69 bf
       0.01288709 1.1713541e-05 -1.1284622 -0.913097
000320 a1 4b fa 3c 3b 1f e2 3e 3b e0 d8 3e 74 ba 00 39
       0.03055364 0.44164452 0.42358574 0.0001227649
000330 b3 2d 1f a6 78 7b 36 00 c3 63 2f 80 22 77 e0 be
       -5.522614e-16 5.003409e-39 -4.352056e-39 -0.4384089
000340 52 42 2a 3f 5a 8a 26 3b f6 3c e8 3d 5a 60 79 bf
       0.66507447 0.0025412054 0.113397524 -0.97412646
000350 d1 45 0b bc b0 1f a8 be 03 36 2a bf ce d5 fb 38
       -0.008500532 -0.32836676 -0.66488665 0.00012008437
000360 b5 ef 02 bf a8 f9 47 bf 9d 61 00 bf 67 a0 27 3d
       -0.51147014 -0.7811532 -0.50148946 0.040924456
000370 b1 42 4c 3f 8c c3 97 ba 73 9e 15 00 01 e8 1a 00
       0.79789263 -0.0011578663 1.985386e-39 2.47095e-39
000380 a0 b2 1a 00 5f 12 28 3f 03 22 76 bf 7f b3 12 3b
       2.451801e-39 0.6565303 -0.9614565 0.002238482
000390 9c 80 0f 3e 13 fb 6a bd 43 49 c0 ba 90 3e e6 bd
       0.14013904 -0.05736835 -0.0014670271 -0.112424016
0003a0 ae b2 39 80 e8 2f 30 00 52 aa 8a 3c f0 35 e8 3b
       -5.298721e-39 4.42529e-39 0.016926918 0.007086508
0003b0 dc fe 04 c0 41 04 c8 bb 91 15 22 3f 65 73 06 b8
       -2.0780554 -0.0061040227 0.6331416 -3.205556e-05
0003c0 e9 4e 38 80 ce 12 26 80 f0 fa 36 00 98 44 98 3a
       -5.171095e-39 -3.496495e-39 5.049136e-39 0.0011617122
0003d0 3f 17 80 3f 18 50 75 3b 1d b2 1d be cc 51 32 bf
       1.0007094 0.0037431773 -0.15399976 -0.6965606
0003e0 f2 40 99 b6 d8 5f 7e bd df f1 6a 3e f0 80 05 00
       -4.567316e-06 -0.062103122 0.22943829 5.05432e-40
0003f0 93 46 25 be 91 25 1e 3f af 90 ef 3b 10 6e ab 3e
       -0.16140203 0.6177607 0.007310949 0.3348241

layers.0.fc_self.bias f4 [64]
000000 5b 4c 1d bf 0d 01 24 c0 35 98 82 3f 93 d3 5a 3e
       -0.61444634 -2.5625641 1.02027 0.21369772
000010 8f cb 97 3e 37 9c 9d 3e c4 97 f9 3e d5 c6 97 be
       0.2964749 0.30783245 0.487486 -0.29643884
000020 8e 14 3c be 59 47 a5 3e 71 d7 0f c0 30 74 b8 3f
       -0.18367216 0.32280996 -2.2475245 1.4410458
000030 4b 7e c2 3e 2d ff 99 3e 96 91 82 bf f0 33 49 3f
       0.3798698 0.30077496 -1.0200679 0.78594875
000040 4a d7 2d c0 9c 0e c7 3e c4 9b 1f bf 0b 2b 51 3f
       -2.7162652 0.38878334 -0.62347054 0.81706303
000050 e3 db e6 3f 52 13 50 bf 74 64 84 bd 98 1e 89 3f
       1.8035854 -0.8127948 -0.064644724 1.0712461
000060 91 5d ec bf 65 b7 92 be f5 45 0b c0 24 cf 27 be
       -1.8466054 -0.28655544 -2.1761448 -0.16387612
000070 b3 12 91 3d d7 66 fa be e0 a5 99 bd 2e b1 de 3f
       0.07083645 -0.48906586 -0.07502341 1.7397821
000080 79 43 98 3f 44 7c 99 be cd e3 ad 3e 75 97 1f c0
       1.1895591 -0.2997762 0.3396286 -2.4936192
000090 70 4e 37 3f 84 60 1a 40 27 fb c8 3e 60 e4 c4 3e
       0.7160406 2.4121408 0.39254114 0.38455486
0000a0 1a 03 60 3e d5 a2 20 3f cd 2a 22 3f 08 e0 1b 3e
       0.21876183 0.6274846 0.6334656 0.1522218
0000b0 09 a1 0b 3f 73 34 ae 3e 01 76 ac 3f 23 64 98 be
       0.54542595 0.3402439 1.3473512 -0.29763898
0000c0 b9 0c a4 bc 9c c9 3a 3e 1e 16 f3 be 70 f2 7f bd
       -0.020025598 0.1824097 -0.47477812 -0.062487066
0000d0 b9 4f 63 bc 56 8a 7f 3e 8e 1f 3f c0 30 9d 0b 3e
       -0.013873988 0.24955115 -2.986301 0.13634181
0000e0 30 99 63 bf ad 69 3b bd ac 2e 19 c0 f4 e7 af 3f
       -0.8890562 -0.045755077 -2.3934736 1.3742661
0000f0 93 72 ba 3e e0 90 e6 3c dd 58 31 bb 2e a6 bb 3e
       0.36415538 0.028145254 -0.0027061023 0.36650223

layers.1.fc_neigh.weight f4 [1, 64]
000000 1c ac 23 3f 09 52 11 c0 b0 7a 78 bd c6 ae 20 3c
       0.63934493 -2.270632 -0.06066388 0.009807294
000010 ba 07 6f 3a e2 e9 fd 3d 40 8b 9d 3b 2b 39 26 3c
       0.0009118278 0.12398125 0.0048078597 0.010145466
000020 51 18 69 3e f9 f9 b7 bd b5 ce 2f bf e6 12 40 3c
       0.22763182 -0.089832254 -0.68674785 0.011723256
000030 9f bf 5d 3d e0 99 8f 3c 16 fe b8 be ec 3a 4d bf
       0.054137822 0.017529428 -0.36131352 -0.8016803
000040 b8 bb ff bf d9 b2 01 be 47 67 1e bf 84 3c 19 3f
       -1.9979162 -0.12665881 -0.6187634 0.59857965
000050 70 8e 3c bc 2d 6c c0 be 93 c6 d3 be 09 17 f1 be
       -0.011508569 -0.37582532 -0.41362438 -0.47087887
000060 12 17 04 c0 95 c4 3e bf 16 17 76 c0 6e f6 b4 3e
       -2.063908 -0.7451871 -3.845159 0.3534426
000070 14 05 d0 3e ae 80 57 3f 77 c8 22 bf a2 1c 88 bf
       0.40628874 0.84180725 -0.63587135 -1.0633738
000080 d4 d2 7e be cb 1e 34 3f ea d4 94 be b7 e7 7d bf
       -0.24885112 0.70359486 -0.2906869 -0.99181694
000090 8d ce ba be 55 48 e7 bc 26 ea 94 3d 29 a6 87 3b
       -0.3648571 -0.028232733 0.07271223 0.004139681
0000a0 21 55 07 3d a3 4b e0 bb 42 0b 9f 3c aa 28 21 3e
       0.03304017 -0.006844954 0.019414548 0.15738168
0000b0 49 7a 4b 3d fc bd 97 3c ec 20 e7 bc e5 79 8b 3e
       0.049677167 0.018523209 -0.02821394 0.27241436
0000c0 86 73 4a 3c 9a 48 a1 3d a6 0c cc 3e ff 76 2e 3d
       0.0123566445 0.07875176 0.398534 0.042593952
0000d0 46 c0 4f bd b2 48 08 be fa be 70 c0 50 b3 dd 3e
       -0.050720476 -0.13308981 -3.7616563 0.43300867
0000e0 c7 0d b4 3e 98 bc f7 be 2e c5 58 bf c7 11 79 be
       0.3516676 -0.48386073 -0.8467587 -0.24323188
0000f0 74 24 71 3e ef 55 0a bf 39 3f 83 3c c9 10 06 3e
       0.23549062 -0.54037374 0.016021358 0.1309234

layers.1.fc_self.weight f4 [1, 64]
000000 3f 5b de bf 0b d6 0d c0 8d 38 9b bf a3 b6 b6 3b
       -1.7371596 -2.2161891 -1.2126633 0.005575971
000010 5d bf 90 bf 78 c6 93 bf 6b 33 bc bf f1 1b fb 3b
       -1.13084 -1.1544943 -1.4703192 0.007663243
000020 6a 5e 5c 3e 6a 33 8a bf 47 7b e4 be b1 63 78 bf
       0.21520391 -1.079694 -0.44625303 -0.97027117
000030 fb b7 5d bf 03 5d bd 3d bb 49 73 be 36 d8 a8 c0
       -0.86608857 0.09246256 -0.23758595 -5.276393
000040 33 e8 2d c0 b3 73 a2 bf 62 96 25 bd a7 6d aa be
       -2.7172973 -1.2691559 -0.04042662 -0.33286783
000050 fe fd d6 bd 4f df 18 be 55 1c 14 3f 37 2b 5d be
       -0.10497664 -0.14928935 0.5785573 -0.21598516
000060 3c b7 12 c0 d6 46 8c bf 93 d7 a1 c0 1b e7 0c 3e
       -2.2924337 -1.0959117 -5.057565 0.13760035
000070 34 2e b4 3d 3a 24 11 3e 4c 38 44 bf ed 74 e0 bf
       0.08797875 0.14173976 -0.766484 -1.7535683
000080 1a 92 76 c0 3f c5 aa 3e 19 0e 37 c0 a6 e9 a2 bf
       -3.8526673 0.33353612 -2.8602355 -1.2727554
000090 d3 78 84 be b8 22 22 c0 7f 49 07 3d 3c 21 aa b9
       -0.25873432 -2.533369 0.033029076 -0.00032449688
0000a0 8e 6a 91 3c 87 b1 b0 bf 12 50 d4 bf 07 c6 25 bd
       0.017751005 -1.3804177 -1.6586936 -0.040472057
0000b0 3c c8 1a 3d a8 be 54 3c 18 8b ac be 0a 79 10 bd
       0.037788615 0.012984909 -0.3369987 -0.03527168
0000c0 1d ce 08 3c bc 2f 97 3d aa a0 8c 3e 3b 00 cf bb
       0.0083499225 0.073821515 0.27466327 -0.006317166
0000d0 27 f5 9b bd 33 ef 23 bd c6 8e 85 c0 dd 5d f7 bf
       -0.076151185 -0.04002304 -4.1736784 -1.932552
0000e0 d6 b1 d8 3e db 41 9e be 4e a8 36 bf f4 4b 66 c0
       0.42323178 -0.3090962 -0.7135056 -3.5983858
0000f0 6b aa be bf 54 15 3f c0 c8 35 83 3b 4a 96 2b 3d
       -1.4895757 -2.9856768 0.004004214 0.041891374
