N0-Noise/weight_13/best_model_no_noisse_weight_13.pth (torch, 8143 bytes, 5 tensors)

layers.0.fc_neigh.weight f4 [64, 9]
000000 06 56 3e be b4 2b c8 3f 6a e7 3f 3c 73 68 07 bf
       -0.18587503 1.5638337 0.011712888 -0.5289375
000010 ce ed 28 be a5 9f 34 3c dd db a0 be 6e 79 7d 3e
       -0.16496965 0.01102439 -0.31417742 0.24753353
000020 96 cb 05 80 3a 6b 82 bd d6 e2 37 bf 57 04 1a 3c
       -5.3221e-40 -0.06368108 -0.718305 0.009400449
000030 99 ba 3a 3e 92 70 19 3f 67 48 98 bd 35 21 9a be
       0.18235244 0.59937394 -0.07435685 -0.3010346
000040 e5 13 b4 3e f1 ad 23 80 3b 93 b4 be f7 16 96 bf
       0.35171428 -3.276641e-39 -0.35268578 -1.1725758
000050 49 74 a0 3d d3 ca 17 3d 7e d6 0e 3f 55 21 8e 3e
       0.0783468 0.037058663 0.5579604 0.27759805
000060 b6 cb 41 3f 37 27 b4 3e fb 8d 05 00 8d a2 a6 bf
       0.75701463 0.3518617 5.1011e-40 -1.3018357
000070 3c 04 8d 3f a2 29 c2 3e 66 8b 36 3f 45 fc b2 3e
       1.1016917 0.37922388 0.71306455 0.3495809
000080 d7 40 9a bb 0b 10 2f bf a4 8b f3 3f a0 60 20 00
       -0.0047074365 -0.68383855 1.902699 2.973398e-39
000090 32 ca 3d bf 69 db 5b bf 7c 05 9e bf c0 8a 36 bf
       -0.7413665 -0.8588167 -1.2345424 -0.71305466
0000a0 62 a3 d4 be 93 90 05 bf 17 9a 8f 3f eb 92 7f 3f
       -0.415309 -0.5217373 1.12189 0.99833554
0000b0 61 dd 1b 00 98 1a ce bf 21 af a7 3f 7f fd 8a 3f
       2.558974e-39 -1.6101866 1.310032 1.0858611
0000c0 ff 31 a7 3f 87 ef 0d 3f 6e a4 f4 bb 55 fe 31 bf
       1.3062133 0.55443615 -0.0074658906 -0.69528705
0000d0 47 3f a5 3f cb 52 26 00 c2 0a db 3e 28 e9 8b bf
       1.2909936 3.51945e-39 0.42781645 -1.0930529
0000e0 1b 81 1b 3c b0 74 50 3d 73 86 08 3f 11 74 c2 b8
       0.00949123 0.050892532 0.53330153 -9.27226e-05
0000f0 5a 3f aa 3e 19 81 da 3d 4b e6 17 80 6b 21 ae bf
       0.33251458 0.10669155 -2.19483e-39 -1.3603948
000100 3b e2 a1 bf fe 18 b5 3b 1b 7a c4 3e ea 21 5b 3e
       -1.2647165 0.005526661 0.3837441 0.21399656
000110 ce a7 91 3e b7 90 01 be 3a 9e c2 bd a8 f2 11 00
       0.28448337 -0.1265286 -0.095028356 1.648252e-39
000120 81 5d 2e 3f e4 5a 91 3f aa c5 2c bc aa 23 cc be
       0.68111426 1.1355863 -0.010545174 -0.3987096
000130 bf 95 c2 bd 7e 67 de bd 04 90 bb 3d 1c 8e 1e 3e
       -0.09501218 -0.10859583 0.09158328 0.15483898
000140 f0 e4 17 00 6d 89 93 be d8 d0 3b bf 5c 68 4e 3d
       2.194344e-39 -0.28815785 -0.73365545 0.050392494
000150 bc 0d 1b bd 5a 7a 87 be 0e eb 5b 3e 88 1d 5a bd
       -0.037854895 -0.26460534 0.21476385 -0.05325082
000160 ed 4a 06 3b f8 33 0b 80 7a 60 dd 3c 40 6c a7 3e
       0.0020491437 -1.028833e-39 0.027023543 0.32699776
000170 f8 e7 f4 3d e2 a7 58 be e1 88 f1 bd c5 24 32 bf
       0.11958307 -0.21157792 -0.11793686 -0.69587356
000180 5b 08 81 bd 66 0b a2 bb c7 91 00 80 81 97 9d bf
       -0.06300422 -0.0049452065 -5.2295e-41 -1.231186
000190 ff d1 c3 3f 2c 74 43 3e 5b 96 8e 3e 8a 4a 4d bd
       1.5298461 0.19087285 0.27849087 -0.050119914
0001a0 7e e7 16 b9 00 19 66 bf 06 17 f2 3f 0c 57 0b 80
       -0.00014391352 -0.89881897 1.8913276 -1.041417e-39
0001b0 74 ab bf bf fc 7d ae 3f 29 15 b4 3e 18 85 2d 3f
       -1.4974198 1.3632197 0.35172394 0.6778121
0001c0 8a 92 9b bd fe 4d b6 3a 34 6b db bf 5d b5 b1 3f
       -0.075963095 0.0013908742 -1.7142091 1.3883473
0001d0 d9 4e 0b 80 b3 f4 71 40 d6 fb 1e c0 17 76 90 3e
       -1.038476e-39 3.7805603 -2.4841208 0.28215095
0001e0 c7 4d d5 bf 07 8d ff 3e 29 5e df bb 44 11 ac 3f
       -1.6664361 0.49912283 -0.0068166447 1.3442769
0001f0 c5 76 7c 3d 59 ac 26 80 3c 75 ed 3d bd 8c 07 bf
       0.061636705 -3.551576e-39 0.11594626 -0.52949125
000200 9f c2 5a 3b c8 a5 a8 bd 9a f4 82 3e aa 1a 3c 3a
       0.0033380163 -0.08234745 0.2557724 0.0007175604
000210 23 96 ad 3d 90 22 cf be 48 99 20 80 b4 27 8a bf
       0.08475902 -0.40456057 -2.993723e-39 -1.0793366
000220 e8 dc aa 3f 93 f8 09 3f b9 af 7a 3f 5c bf 37 3f
       1.3348665 0.5389492 0.9792438 0.71776366
000230 1a 94 ef bb fa b9 10 bf cb 1b a6 3f 88 aa 03 00
       -0.0073113563 -0.5653378 1.2977232 3.36682e-40
000240 cd f9 7b bd 66 26 c5 bd 4b 72 a0 3b c9 1a 16 be
       -0.061517525 -0.096264645 0.0048964373 -0.14658655
000250 7c d8 3f 3e 72 7a 2a 3e 2f 1b 85 3e d4 6e 98 3e
       0.18734926 0.16648272 0.25997302 0.29772055
000260 92 b8 01 80 aa 60 72 be ad 87 8d 3f 07 2c 9a 3d
       -1.58047e-40 -0.23669687 1.105703 0.07527929
000270 9f 3c c2 be c6 17 fd bd 7a 6c 85 be 1e a1 08 be
       -0.37936875 -0.1235805 -0.26059324 -0.13342711
000280 15 53 af bd 59 ec 35 80 36 34 1b be 7d dd 29 be
       -0.085607685 -4.952067e-39 -0.15156636 -0.16588397
000290 28 61 a2 be b6 92 0b be ae e3 86 be c8 f5 6f be
       -0.3171475 -0.13630185 -0.2634558 -0.23433602
0002a0 28 3a 14 3f 46 2f b8 be 4f 90 25 00 0d a5 28 be
       0.5790124 -0.35973567 3.449682e-39 -0.16469212
0002b0 41 89 7b be 41 e8 0e 3c 55 36 57 bf b7 63 b6 be
       -0.24564077 0.008722366 -0.8406728 -0.3562295
0002c0 4b 02 05 3b 7c 9a 87 3f 89 4a 5b bf c2 07 07 00
       0.0020295556 1.059402 -0.85660607 6.45631e-40
0002d0 ce be c0 be f1 5a 41 bf 60 98 1a bf b9 44 74 bd
       -0.37645572 -0.7552939 -0.60388756 -0.05963585
0002e0 4b 16 a5 3e 8f 7b c7 3d 70 d1 6d bf 67 e5 7c bf
       0.3224357 0.09740364 -0.928977 -0.9878754
0002f0 2b 3c 32 00 71 56 c6 bd 84 62 21 3f 3a ac 89 3c
       4.613359e-39 -0.09684456 0.6304095 0.016805757
000300 4d 7f 71 bd 20 39 47 c0 e2 50 0f b9 ae 32 14 c0
       -0.058959294 -3.1128616 -0.00013667674 -2.3155932
000310 fe 8a d2 3e e2 02 03 00 70 fd 0b be aa ef b3 be
       0.41121668 2.7654e-40 -0.13670897 -0.35143787
000320 73 93 09 3c 1f d9 64 be 49 7c 60 3f e9 10 75 3d
       0.008396971 -0.2234845 0.87689644 0.05983058
000330 23 12 88 3e 0c 8e 65 be fc f0 44 00 1b 76 43 3e
       0.26576337 -0.22417468 6.331263e-39 0.19088022
000340 6e 25 c3 3e 76 b4 5f bb 80 fa b1 3c df 54 02 bf
       0.38114494 -0.0034134663 0.021725893 -0.50910753
000350 33 69 ce 3d a3 34 0e 3e df ec 8f be 92 c4 13 80
       0.10078659 0.13887267 -0.28110406 -1.81539e-39
000360 6c da c0 bd 83 7b 7c 3d 68 b7 fb bd 41 c2 2b 3d
       -0.09416661 0.061641227 -0.12290841 0.0419333
000370 60 7e 8c be 1b 5f 0c b9 b8 fa 8a bd 67 35 d3 bf
       -0.27440166 -0.0001338687 -0.06786102 -1.6500672
000380 62 0a 09 00 f3 67 0d bf 27 c1 2f bf c2 8f af bf
       8.30244e-40 -0.5523674 -0.686541 -1.3715746
000390 a7 21 8f be 0c c9 95 be f5 0f 95 be c2 0f 22 3f
       -0.27955362 -0.2925495 -0.29113737 0.63305295
0003a0 28 fb dc 3e 71 2a 0c 00 bb 59 32 bd 34 03 dd bf
       0.43160367 1.117251e-39 -0.043542605 -1.7266603
0003b0 7f 38 84 3d 14 ce e1 be 63 aa ef bf 38 50 b7 bf
       0.06456088 -0.44102538 -1.8723873 -1.4321356
0003c0 91 ff 05 be 97 65 b8 3e 03 b9 0d 80 53 8a 59 bf
       -0.13085772 0.36015007 -1.260231e-39 -0.8497669
0003d0 43 59 a1 3f e9 32 20 3b 86 9e 11 be f2 1e 09 be
       1.2605366 0.0024444407 -0.14220628 -0.13390711
0003e0 04 f1 be ba d3 bf da bf 6e b8 a6 3f 6f f3 16 00
       -0.0014567678 -1.708979 1.3025033 2.107708e-39
0003f0 60 41 9a c0 34 84 15 bf 56 4b 40 3a 89 f4 90 be
       -4.8204803 -0.5840485 0.00073354447 -0.28311566

layers.0.fc_self.weight f4 [64, 9]
000000 b7 fa 9d 3e 14 7e 99 3f bd c3 e7 3a 8b 8d 2b bf
       0.30855343 1.1991601 0.0017682236 -0.6701285
000010 81 ca 1d 3f f7 af 0d bc b5 6b ea 3e d6 32 48 3e
       0.6163712 -0.00864791 0.457853 0.19550642
000020 40 9e fb 39 33 6b 71 3d 0f 4f a4 3d 24 31 ef 39
       0.00047992356 0.058940124 0.08022892 0.00045622245
000030 dc 3b 3d be 1a 7b ab bd 27 4b b8 bb 4c e6 dd 3e
       -0.18479866 -0.08373089 -0.005624193 0.43339765
000040 8c 2d 11 3f 79 8f 9a 3a 8c 09 23 bf 6d e9 c2 3e
       0.56710124 0.0011792026 -0.6368644 0.38068715
000050 ca 2c 03 bf 8e 0a 2a be 00 5c 8f 3f 44 2a 92 be
       -0.5124022 -0.16605589 1.1199951 -0.2854787
000060 d4 23 24 00 c1 dc 1b 80 84 dc 26 00 ce b7 5b 3e
       3.31893e-39 -2.55875e-39 3.568855e-39 0.21456835
000070 3c aa eb 3e 41 d5 e0 bf ca 6a a9 3f 34 2b a6 bf
       0.46028316 -1.756508 1.3235714 -1.2981935
000080 8d 22 0b 3b 9c 31 9a be 94 15 aa 3d 88 95 dc b8
       0.002123031 -0.30115974 0.08304897 -0.0001051827
000090 9e e5 c6 3d 79 94 12 bf 4f 22 2f bb 7c cf 9a be
       0.09711765 -0.572578 -0.002672333 -0.30236423
0000a0 aa d8 81 be 0f 2e ff 3a 1a d6 67 bd d2 2d b1 3e
       -0.25360614 0.0019468683 -0.056600668 0.3460527
0000b0 4e 28 35 3b 34 38 05 bf 3c cb 83 3f aa 85 d1 bf
       0.0027642432 -0.52038884 1.0296397 -1.6368916
0000c0 fc 02 c3 3f 15 02 28 bf 66 9b 08 3b 08 ba a5 bd
       1.5235286 -0.65628177 0.0020844578 -0.08092123
0000d0 85 1b 09 bc 54 1d 2f b7 1f b7 13 bb 17 f1 47 3e
       -0.008368378 -1.0437641e-05 -0.0022539569 0.19525562
0000e0 e3 f3 85 3c 37 bb a5 be a6 0b bf be 14 db 21 b8
       0.016351646 -0.32369396 -0.37313575 -3.8589424e-05
0000f0 01 3d 6c 3e b1 83 80 bf ed 2d 28 3a aa 83 74 bf
       0.23070146 -1.0040189 0.0006415535 -0.95513403
000100 29 7d 90 bf e0 96 9c 3c ba f9 96 be 62 b0 07 3f
       -1.1288196 0.019114912 -0.294874 0.53003514
000110 14 a9 91 be e3 1a 0f 00 4e 76 10 00 20 1c 3b 80
       -0.2844931 1.387178e-39 1.511808e-39 -5.428384e-39
000120 fd 39 4c bf 42 2f fc 3d 77 9f a3 bc f8 45 e8 be
       -0.79775983 0.12313701 -0.0199735 -0.45365882
000130 2f 72 a0 3d a8 fc ff bb 5b db 37 00 4d 59 10 00
       0.07834279 -0.0078121014 5.129642e-39 1.501403e-39
000140 2a b7 3b 00 93 30 1f bf c8 38 cd be d4 dd 73 be
       5.484001e-39 -0.62183493 -0.40082383 -0.2381509
000150 b1 95 c5 3e 52 50 37 3e 71 a6 84 be 2b ad e0 3e
       0.38590768 0.17901734 -0.25908235 0.43882117
000160 c2 b0 9f 3f 03 13 6e 3b 41 96 07 bf 9a 5f 96 bd
       1.2475817 0.003632725 -0.52963644 -0.07342453
000170 2a f8 bd bc 44 63 d0 be 8b 95 77 be 37 7c 20 be
       -0.023189623 -0.40700734 -0.2417814 -0.15672384
000180 50 02 37 80 57 60 1c 00 2c 80 31 00 76 9c f2 3e
       -5.051782e-39 2.605954e-39 4.545919e-39 0.47384995
000190 c3 c3 5e 3f 70 52 b3 bf 33 c5 0c 3f 01 d4 b5 bf
       0.8701746 -1.4009533 0.549884 -1.4205323
0001a0 4c 6e 10 3a 20 31 11 bf 62 4a 95 3d 69 b2 07 b9
       0.00055095996 -0.56715584 0.07289578 -0.00012941066
0001b0 8d 6a 40 be 2b e1 80 3f 7e e6 90 3d 32 ec 5c 3f
       -0.18790646 1.0068716 0.07075213 0.86297905
0001c0 1b 1f d6 bf 4a e3 e6 b9 4b c8 2b be 04 11 fb 3d
       -1.6728243 -0.00044038362 -0.16775624 0.12259105
0001d0 c3 49 cd b8 df 14 79 3f e8 d2 0e bf 8d a3 8f 3b
       -9.788901e-05 0.9729747 -0.5579057 0.0043835104
0001e0 4a 12 a4 bf 54 8f e6 bc b2 c2 4b 3b ea 6e 88 3d
       -1.2818081 -0.028144516 0.003109139 0.0666178
0001f0 9f 49 25 be 8d bb 57 39 a9 be 3a bf 2c 0e 9f bd
       -0.16141365 0.00020573866 -0.72947174 -0.07766375
000200 75 eb e6 3a ce 64 18 be 3e 4e f4 bd ad 37 24 ba
       0.0017617779 -0.14882204 -0.11928986 -0.00062644
000210 26 09 ef be de 40 96 bf d2 8c 6e 39 55 a4 e4 be
       -0.46686667 -1.1738546 0.00022749908 -0.44656625
000220 84 83 60 3f 57 a9 14 c0 95 1d a7 3f 50 99 92 bf
       0.87700677 -2.3228357 1.3055903 -1.1453037
000230 eb 50 53 3b ca 47 87 bd 11 b4 22 3b e6 5a 72 b7
       0.0032244276 -0.066054896 0.0024826566 -1.4445488e-05
000240 9c 33 ac bd 94 4d ac 3e 30 c1 da 3b d8 8f 4b 3e
       -0.08408281 0.33652937 0.006675862 0.19879091
000250 c8 ab 26 3e f2 54 a1 be b9 73 bf 3e 7d 96 0b 3f
       0.16276467 -0.3151012 0.37392977 0.545265
000260 db 0e 6e 3b b7 c4 ec be 6c 5c 12 3e b9 8f 87 37
       0.0036324773 -0.46243832 0.14293069 1.616018e-05
000270 78 46 67 be ea ed 33 be 67 3d 25 be c5 00 e7 bd
       -0.22585475 -0.17571226 -0.16136704 -0.11279444
000280 34 60 57 3c 5d 54 d6 ba 95 ce 3f be 4b 58 89 bf
       0.013145495 -0.0016352047 -0.18731149 -1.073007
000290 fa f5 28 3d 0b e2 cc bd 41 76 a7 be 3f 17 8c 35
       0.041250207 -0.10004052 -0.32707408 1.0437578e-06
0002a0 b2 87 85 3b 40 cf 1b 80 32 81 32 00 70 32 c3 be
       0.004075014 -2.553906e-39 4.638121e-39 -0.38124418
0002b0 85 86 30 3c c9 14 3e 38 71 a4 30 be ea d1 a0 3f
       0.010774259 4.5318888e-05 -0.1725023 1.2564061
0002c0 20 69 46 ba 35 e5 cd 3e 6c 1e 20 80 2c 17 3c 00
       -0.00075687654 0.40213934 -2.949649e-39 5.518442e-39
0002d0 01 bc 35 3f 57 1f c7 be 4a 97 d1 bd a5 22 9a 3d
       0.70989996 -0.38891098 -0.10233934 0.07526139
0002e0 fb af 32 3e 2a 21 d0 bd b3 c9 17 be 1e 0b 35 be
       0.17449944 -0.101625755 -0.14823036 -0.17680022
0002f0 eb 04 49 bb 82 45 d0 be 38 e8 fb 3e dd c5 89 bb
       -0.0030673097 -0.4067803 0.49200606 -0.0042044953
000300 9a 25 87 3d a9 04 73 c0 6b 48 60 38 87 57 e7 3c
       0.06598969 -3.7971594 5.3473206e-05 0.028239978
000310 4b f7 4b bf 42 af b0 3a 56 4b ff bb 92 ed 28 3e
       -0.79674214 0.0013479965 -0.007790963 0.16496876
000320 5e 00 5a bd ef e3 bc be 15 1d 64 3f 36 72 61 be
       -0.053223006 -0.3689265 0.89106876 -0.22016224
000330 a7 f5 92 be 50 e8 36 80 d0 ca 06 00 86 6c 88 bf
       -0.28703043 -5.042455e-39 6.23768e-40 -1.0658119
000340 6b 0c a0 be 8c 5c 50 3d 2b 8f 3a bf 5b 8b 2a bf
       -0.31259474 0.05086951 -0.72874707 -0.6661889
000350 d0 a7 c3 bd d1 c4 2e 80 8d 4b 01 00 3a d0 30 80
       -0.09553492 -4.295037e-39 1.18938e-40 -4.482801e-39
000360 ec 5a 26 3d ee 6e 07 3d 69 1c e6 bf 84 97 0c bd
       0.040614054 0.033064775 -1.797742 -0.034324184
000370 6e 7a 63 3f 1e f5 21 39 52 27 02 80 6b 9f 26 00
       0.8885869 0.0001544547 -1.97776e-40 3.546937e-39
000380 63 2e 33 00 38 32 b0 3e 71 31 6a bf e4 fb 57 ba
       4.700251e-39 0.34413314 -0.9148169 -0.0008239134
000390 83 ea 8f 3d 87 d3 34 3e b7 24 ba 3a 19 67 0e 3e
       0.070271514 0.17658816 0.0014201616 0.13906516
0003a0 d9 cd ba bc fb 0e 65 3b 6f b7 05 be 3b 70 80 3f
       -0.022803234 0.0034951556 -0.13058256 1.003425
0003b0 18 19 0a 3c 2a d9 2f bf eb 84 cf be 7b 66 a5 b9
       0.008428834 -0.6869074 -0.40531096 -0.00031547606
0003c0 76 7a 27 3b 52 21 d7 3e 68 6d 3b 80 06 6d b4 bf
       0.002555517 0.4201761 -5.457542e-39 -1.4095771
0003d0 ca 4a cf bd 91 a4 9a 3c 6c df 50 3e a2 05 62 bd
       -0.10121687 0.0188773 0.20397729 -0.055181153
0003e0 b4 0f 73 39 c7 38 32 be 7c 6a 20 be 53 e8 07 b9
       0.00023180136 -0.17404471 -0.1566562 -0.00012961151
0003f0 12 b9 8e 3d 83 e6 d6 bd 7c f9 50 3b c5 89 bc 3d
       0.06968893 -0.10493185 0.0031886986 0.09205965

layers.0.fc_self.bias f4 [64]
000000 78 1b 99 3f c7 e4 ac 3f 57 03 cd bf bf 3b 46 3f
       1.1961508 1.3507317 -1.6016644 0.77434915
000010 d5 d1 20 3f 85 84 07 3f c1 8d a2 3f 6a 6d 9b bf
       0.6282018 0.52936584 1.269951 -1.2142766
000020 6d 2d be be c3 bb ea 3e dc 9f 2b be f6 51 a3 3f
       -0.37144032 0.45846376 -0.167602 1.2759387
000030 8b 36 54 3f c1 0a 77 3f 9e 45 c6 3f d1 8a a3 3e
       0.82895726 0.96500784 1.5489995 0.31941846
000040 cf 39 41 3f 94 e9 c6 3d 1d 5c be be 3a 35 35 bf
       0.75478834 0.0971252 -0.37179652 -0.7078434
000050 05 64 34 3e b8 64 50 3f ce 6d 67 bf f3 d5 20 bf
       0.1761628 0.81403685 -0.90401924 -0.6282646
000060 f0 38 31 c0 a8 fc 15 3e b2 2c c4 be ea cc cb 3e
       -2.7691002 0.14647162 -0.3831535 0.39804775
000070 6f 99 a1 3e 9b a5 d8 bf 17 61 e9 3d d0 17 4f bd
       0.31562373 -1.6925539 0.113954715 -0.05055982
000080 02 b1 c7 be 1f 4d c3 3d 7d 67 1f 3e 1d e9 1e bf
       -0.39002234 0.09536194 0.15566821 -0.6207445
000090 67 a3 34 c0 2f 65 e9 3f 0c d6 20 c0 82 2a 97 3e
       -2.8224733 1.8234004 -2.5130644 0.29524618
0000a0 8a c3 e0 be 93 69 d9 3f 92 40 c1 3e 93 bb b9 3f
       -0.43899184 1.6985344 0.37744576 1.4510368
0000b0 31 ee e5 3f a5 1e a7 3e 09 22 0c 82 67 f9 29 3f
       1.7963315 0.32640567 -1.0295343e-37 0.6639618
0000c0 be ed 05 c0 4d 3e 7e 3f 81 0c 29 3d 57 c9 02 c0
       -2.0926356 0.99313813 0.04127169 -2.0435388
0000d0 25 ab 07 bf 2b f7 85 3e 12 d3 7d 3f a3 d0 a9 3e
       -0.5299552 0.26165137 0.9915019 0.3316699
0000e0 e3 b8 32 3f 7e 2a 2c c0 51 44 46 3f d8 d5 8b 80
       0.69813365 -2.6900935 0.7744799 -1.2841847e-38
0000f0 d9 e9 c0 3f 28 df ab 3e ef 4c d6 3e 7f 5a 6c c0
       1.5071365 0.33568692 0.4185557 -3.6930234

layers.1.fc_neigh.weight f4 [1, 64]
000000 08 f5 b7 bc 0c 21 e2 3c db d7 d4 be 50 66 21 3c
       -0.022455707 0.027603649 -0.41570935 0.009851053
000010 3a 3d 40 bd ad 99 8a 3b 39 fd 1d be b7 dd ae bf
       -0.04693339 0.0042297454 -0.15428628 -1.3661412
000020 ac 96 04 3f 8a e7 cd ba 34 ed 24 3e e3 dc de 3c
       0.5179241 -0.0015709263 0.16106111 0.027204936
000030 75 52 3b 3c 55 fd fa bc 59 e9 84 bf eb 3c d4 3b
       0.0114332335 -0.030638376 -1.0383712 0.0064769886
000040 04 06 ce 3b f6 63 80 3e 01 f6 3b bf 48 97 b3 be
       0.006287338 0.25076264 -0.7342225 -0.35076356
000050 a9 ff 62 3d 75 53 2c bf 47 32 32 bf 54 ac be 3e
       0.055419598 -0.67314845 -0.6960797 0.3724085
000060 0d fa c8 bf 02 e9 b0 bd 34 d3 16 3f 05 df a7 3e
       -1.570131 -0.08638193 0.5891602 0.32787338
000070 60 23 13 3f 90 c2 31 bf b0 9d 52 3e 6d 6d ac 3e
       0.5747585 -0.69437504 0.20567966 0.33677235
000080 a0 bf 41 be ad 14 df 3d c8 22 cf 3d d0 9e 83 3e
       -0.18920755 0.108926155 0.10114056 0.25707102
000090 c5 7a 7e be 4c 1e 71 be 25 ff e9 c0 f8 87 36 be
       -0.2485152 -0.23546714 -7.3123956 -0.17825305
0000a0 24 89 9a 3f 30 fa 97 bc 33 d4 b4 3e 74 56 45 bb
       1.2073102 -0.018551916 0.35318145 -0.0030111345
0000b0 b5 d8 41 be 8b 33 03 3f 76 19 5f 87 5e 08 33 3e
       -0.18930323 0.51250523 -1.6784138e-34 0.1748366
0000c0 5c 9f 10 c0 d4 60 34 3c b4 bd 49 bf c9 06 4b c0
       -2.2597265 0.011009414 -0.7880509 -3.1722891
0000d0 a4 20 5a bf b4 49 23 3e d7 34 b8 3b 26 02 02 be
       -0.85206056 0.15946084 0.0056215334 -0.12696132
0000e0 47 5f f4 3b 75 92 e2 be 69 b8 93 3d bf ae 5a 03
       0.007457647 -0.44252363 0.07212908 6.426504e-37
0000f0 45 0b 86 bc 09 a2 4a bf 2f 9b b5 3e 39 b8 b6 bd
       -0.016362796 -0.79153496 0.35469958 -0.089218564

layers.1.fc_self.weight f4 [1, 64]
000000 1c 93 c6 bd 94 60 a5 bf 02 7c ca bd 39 72 0d 3c
       -0.09696028 -1.2920098 -0.09886934 0.00863319
000010 73 73 41 bf ee d8 7e 3b 2d 14 18 bf 77 fe 43 bf
       -0.75566787 0.0038886624 -0.59405786 -0.7656016
000020 96 54 93 3d b0 9a c4 bf 05 39 69 3e 47 01 9f 3c
       0.07193868 -1.5359707 0.22775657 0.019409789
000030 65 19 f8 3b d9 dc 09 bd 5a 5b 1c c0 ec d9 f3 3b
       0.0075713866 -0.033657882 -2.4430757 0.00744175
000040 34 ed f8 bf fb 33 85 3e 9c 41 85 bd 1a f6 80 be
       -1.9447389 0.2601622 -0.065066546 -0.2518776
000050 73 df 73 3f f3 a0 94 c0 9e f1 bb bf 9c f6 0a be
       0.9526283 -4.644647 -1.4683111 -0.13570637
000060 5e 18 00 c0 a1 15 61 bf 9d 11 01 c0 80 51 45 3d
       -2.0014873 -0.8792363 -2.0167 0.048173428
000070 01 fc a2 3e 89 c6 f1 be 85 ab d0 bf 63 e1 15 3e
       0.3183289 -0.47221783 -1.6302344 0.1463676
000080 e3 26 21 3f 33 f7 b8 3e a5 b3 9d 3d 52 ef 1a 3e
       0.6294996 0.36126098 0.0770028 0.15130356
000090 6a 87 c9 bd cd 3d a0 c0 92 37 c2 c0 ed 48 d7 bf
       -0.09840281 -5.007544 -6.0692835 -1.681913
0000a0 46 89 b9 3e bb df 65 bf 5f 91 ad 3d 87 f6 5d bb
       0.36237544 -0.8979451 0.08474993 -0.0033868866
0000b0 53 08 69 c0 e2 5c 95 be 2f d5 2f 08 6d c1 79 3d
       -3.641133 -0.29172426 5.2912743e-34 0.06097548
0000c0 c5 d4 ab bf 1a 6e bc bf da 91 01 bf 6d ed 3a c0
       -1.3424307 -1.47211 -0.50613177 -2.9207413
0000d0 cf 8d 20 be e9 60 6a 3d c4 c9 95 3a a0 99 af bf
       -0.15679096 0.057221327 0.0011427929 -1.3718758
0000e0 41 5b 8d 3b e5 fa 95 be 7a b4 90 3d b8 4e 30 04
       0.004313857 -0.2929298 0.07065673 2.0724846e-36
0000f0 e0 ef a0 bf 39 e4 9d be c9 0e 09 3e b7 4c ea bd
       -1.2573204 -0.30838183 0.13384546 -0.114404134
