N0-Noise/weight_24/best_model_no_noisse_weight_24.pth (torch, 8143 bytes, 5 tensors)

layers.0.fc_neigh.weight f4 [64, 9]
000000 e0 ed 7f 3d e2 99 95 3f ea 67 63 3a a7 ba d9 3b
       0.062482715 1.1687586 0.0008674847 0.006644565
000010 0e 30 f7 3d c7 ff 58 ba 18 00 82 bf 28 ac 2c 3f
       0.120697126 -0.000827786 -1.0156279 0.6745019
000020 a2 27 32 00 cc 02 1b 3d 4b 54 2e bf 56 f8 47 bf
       4.605992e-39 0.037844464 -0.6809737 -0.78113306
000030 a8 06 3d bd ec 9a ac bd d8 5c 40 39 2f b8 d9 3c
       -0.046148926 -0.084279865 0.00018345134 0.026577083
000040 e4 f0 59 bf bb 2d 30 00 f1 e0 5a be 84 e7 de bd
       -0.85133195 4.424509e-39 -0.21374871 -0.10884002
000050 9e 0b 8a 3b 32 9c dc bd bb 51 20 3e 93 77 50 3a
       0.0042128107 -0.107719794 0.15656178 0.0007952388
000060 43 6e 95 3c da f0 1c 3e 58 97 2a 80 ba fd 23 be
       0.018241053 0.15326253 -3.911383e-39 -0.16014758
000070 35 c9 49 3e 88 8c 89 be 61 ab 74 3d be 20 13 bf
       0.1970566 -0.2686503 0.059733752 -0.57471836
000080 25 0a 1b b8 25 42 34 bf 4d ae 09 c0 5c c0 06 00
       -3.6964328e-05 -0.7041343 -2.1512635 6.20019e-40
000090 e3 9d b0 3e 28 ff 88 bf 08 2e d6 3c 61 92 bf bd
       0.34495458 -1.0702868 0.026144996 -0.093540914
0000a0 6d 41 cb 3e 86 e5 bb be 50 9d 3d 3f 34 d1 84 be
       0.39698353 -0.3669855 0.74068165 -0.2594086
0000b0 dc b3 0f 80 b5 2b 05 3e 75 57 ec be ec 96 15 bc
       -1.442054e-39 0.13004954 -0.46160474 -0.009130221
0000c0 d1 f6 99 bd 26 91 dd bd 75 a4 c3 bd 08 c8 db 3e
       -0.075177796 -0.108187005 -0.09552852 0.4292605
0000d0 39 aa 97 3f df bf 34 80 10 19 80 3d 83 a4 94 bd
       1.1848823 -4.844276e-39 0.0625478 -0.072579406
0000e0 17 2b 5e 3b 19 d2 87 bb 61 b4 09 bd d5 ce aa 3a
       0.0033900195 -0.0041449186 -0.03361929 0.0013031611
0000f0 9c 89 51 be 1c c4 30 be 69 0f 0d 00 48 fe 86 3d
       -0.2046265 -0.1726231 1.19939e-39 0.06591469
000100 18 3b 1f bf 6b 1c a2 3b 81 91 6a bf 61 9f f2 3e
       -0.62199545 0.0049472353 -0.9162827 0.4738722
000110 a5 3e 70 3b 27 c2 95 3f 32 ae 7b bf 91 84 0e 80
       0.0036658433 1.1699876 -0.98312676 -1.333253e-39
000120 d8 a1 99 3e 18 40 3a bf 61 ec 01 3d 2b f6 80 bd
       0.3000629 -0.7275405 0.03171957 -0.06296953
000130 67 fa ed bf 9d 87 98 bf c9 c9 40 be a1 9b cf 3d
       -1.8592042 -1.1916386 -0.18826975 0.10137106
000140 d3 63 32 00 0c 6c 14 3f c8 9e 0f bf 1e a0 e1 3c
       4.627585e-39 0.57977366 -0.56101656 0.02754217
000150 b1 17 d3 be 00 81 32 3e 58 5e f6 ba fe 42 c5 3e
       -0.41229013 0.17432022 -0.0018796427 0.38527673
000160 1e b6 09 3e 89 c3 39 00 6d 95 c8 bd bf e9 61 bd
       0.13448378 5.304768e-39 -0.09794126 -0.05515456
000170 5c c3 c4 ba a8 67 bf 3d 83 f8 bc 3e 5b 94 30 3c
       -0.0015011835 0.09345943 0.3690835 0.010777558
000180 41 cc 21 3e 79 d1 0a bf b9 de 0d 80 16 27 00 bf
       0.15800573 -0.5422588 -1.273759e-39 -0.5005964
000190 72 93 c9 bf 34 e3 c5 bc 89 af 77 3d c8 e8 9b 3e
       -1.5748122 -0.02415619 0.060470138 0.30451035
0001a0 30 25 91 bc 97 56 a5 bd 51 8c df be ce 75 32 00
       -0.017717928 -0.08073156 -0.4366174 4.634035e-39
0001b0 2d 3b 6b be a2 8e 14 bf e7 63 03 bf 48 6f 5b be
       -0.22971793 -0.5803014 -0.51324314 -0.21429169
0001c0 17 c9 2c bd a0 20 14 be b9 1e 1a 3f 30 52 46 3f
       -0.04218396 -0.1446557 0.6020313 0.7746916
0001d0 69 85 24 80 7e 56 2a 83 42 c9 03 82 9e 28 1d 82
       -3.353936e-39 -5.00578e-37 -9.682118e-38 -1.1546195e-37
0001e0 24 4d 34 83 c8 88 97 01 5f e1 86 86 0e 98 34 02
       -5.29858e-37 5.566491e-38 -5.073635e-35 1.3267949e-37
0001f0 87 e9 26 02 44 e9 12 80 9a 92 3e bc b0 fe 5e bc
       1.2262773e-37 -1.736719e-39 -0.011631632 -0.013610527
000200 89 6b 10 3c f5 a4 23 bc fd 9b 25 3d c1 74 a5 3c
       0.008814701 -0.009988059 0.040431965 0.020197274
000210 49 57 a2 3e c7 6b e5 3d 4e 8d 02 00 fc 5c 3a be
       0.31707218 0.112021975 2.34362e-40 -0.18199533
000220 1e 13 a3 bf e3 f3 01 c0 02 9e 4c 3d bc e2 34 3f
       -1.2740209 -2.0305107 0.049955375 0.7065847
000230 41 de 14 3d 22 90 16 40 b7 43 3a 3f d4 83 0f 80
       0.03634477 2.3525472 0.72759575 -1.424823e-39
000240 f6 06 09 bf c6 82 3e bf 3c b8 80 bf e1 4b 0b bf
       -0.53526247 -0.74418294 -1.0056224 -0.5441266
000250 a2 44 aa be 67 44 98 be 73 ec 82 3f bf 72 61 3f
       -0.33255488 -0.29739687 1.0228409 0.88065714
000260 43 67 1f 00 21 99 28 bf 7b ec b3 3f 66 2f 83 3f
       2.883944e-39 -0.65858656 1.4056543 1.024884
000270 6e 7f e2 3f 5c e2 e5 3e 81 76 99 bb 5f 34 d0 bf
       1.7695138 0.4489926 -0.004683316 -1.6265982
000280 97 d0 0c 3e 61 98 14 80 a5 ea 5f be 09 53 11 be
       0.13751446 -1.891373e-39 -0.21866854 -0.14191832
000290 8e ad b1 be 4f 6d 37 bd 3d 27 40 be d1 0f 47 be
       -0.34702724 -0.04478198 -0.18764968 -0.19439627
0002a0 25 6f 3a be f1 27 b4 be 55 49 11 80 49 e2 e2 be
       -0.18206461 -0.35186723 -1.58751e-39 -0.44313267
0002b0 c1 76 8a 3f d2 36 b9 b9 cc 04 c7 be 7c 4d f0 be
       1.0817491 -0.00035326794 -0.38870847 -0.46934116
0002c0 78 1f 19 b9 6b 04 aa bf 7a e4 41 3f 64 6d 2c 80
       -0.0001460294 -1.3282598 0.7573925 -4.080004e-39
0002d0 71 38 9f bc 94 d8 e9 bb d0 e6 17 bb d3 99 c2 bd
       -0.019436093 -0.007136414 -0.0023178346 -0.09501996
0002e0 e2 ea 80 3e 3e fd 8b bb 11 91 d3 3f b9 83 ca 3e
       0.251792 -0.004272132 1.6528646 0.3955362
0002f0 5c c8 34 80 0c 6f f5 be 98 64 f5 bf 8b 35 95 bf
       -4.847321e-39 -0.47936285 -1.9171324 -1.1656965
000300 af 30 96 bf f8 32 7b be d2 de cd bf 8b cc 8b bd
       -1.1733607 -0.24531162 -1.6083624 -0.06826123
000310 c1 73 13 3f a6 b8 0f 80 ed d0 ff 3f 29 36 47 be
       0.575985 -1.443772e-39 1.9985634 -0.19454254
000320 56 3d 38 bf 39 70 30 3e 5e f0 67 bf b3 b3 74 3e
       -0.7196859 0.1723031 -0.90601146 0.23896675
000330 22 0d 86 bd 97 40 c0 bd 1a 5d 38 00 45 fc 24 3f
       -0.06545474 -0.093873195 5.176186e-39 0.6444743
000340 48 1a 4f bf 5d 6c 2e 3b 18 47 a7 be 4a 8d 3f 3e
       -0.80899477 0.0026614883 -0.32671428 0.18706241
000350 a9 4f 1b 3c 15 87 f6 3e 5a d5 0a 3d 02 72 08 80
       0.009479442 0.48149934 0.033894874 -7.75582e-40
000360 83 91 2d bf e1 9f ab 3f fa 3f 73 3f 24 70 07 40
       -0.6780016 1.3408166 0.95019495 2.1162195
000370 3e 82 13 3f a2 53 5e bc af 57 a7 bf 5d 08 ce 3e
       0.5762061 -0.013569744 -1.3073634 0.40240756
000380 50 cb 29 00 4a d4 83 bf 01 7e 8b 3e 5e 88 7c 3a
       3.83819e-39 -1.029916 0.2724457 0.00096333574
000390 1a 91 70 be d5 57 3f 3e c7 c0 63 ba a7 e9 a1 bf
       -0.23492852 0.18685849 -0.0008688089 -1.264943
0003a0 da 36 7a 3e 02 1d 1a 80 d6 54 65 be ef b0 2b bf
       0.24434987 -2.398129e-39 -0.22395644 -0.67066854
0003b0 76 6a 52 3b 89 49 98 3b f5 6e 07 be 20 4d 22 39
       0.0032106913 0.004647438 -0.1322592 0.00015478255
0003c0 bc ca 82 b9 9c 15 bc bf 0f fd 3a 00 c1 2d 74 3d
       -0.0002494658 -1.4694095 5.417239e-39 0.059613947
0003d0 de 8e c2 3c 4f d4 d6 be 4e 70 23 bf bf 61 41 bf
       0.023749765 -0.41958854 -0.6384324 -0.75539774
0003e0 2b d0 16 ba 40 75 3f bf 60 35 1b 3c ef bd 0f 00
       -0.00057530653 -0.74788284 0.009473175 1.445668e-39
0003f0 99 84 c3 3e 28 76 6a 3f ad be f9 3d 7e 4c 17 bd
       0.381871 0.9158654 0.12194572 -0.036938183

layers.0.fc_self.weight f4 [64, 9]
000000 fa b3 43 c0 6b 8c 1f be 50 6b 43 bf 66 4b a2 3c
       -3.05786 -0.15580909 -0.7633562 0.019811343
000010 51 7f b4 3c 77 c0 a0 38 9b bb 05 be aa db 7f be
       0.022033365 7.665244e-05 -0.13059847 -0.24986139
000020 cb 45 83 ba d9 f4 00 bd 3d 1b 91 bf 45 e1 10 3c
       -0.0010015307 -0.031483505 -1.1336437 0.008842771
000030 c7 ab 7e 3d 79 94 2c 3f ea 0d 88 b9 f6 33 09 2e
       0.06217554 0.6741405 -0.00025950308 3.1196344e-11
000040 67 bd 05 00 96 88 2d 00 6d 28 0c 3d d3 02 24 bd
       5.27122e-40 4.181595e-39 0.03421824 -0.040041756
000050 bb 88 bb b9 24 68 b4 bd 79 4e 91 bd 7b 28 61 ba
       -0.00035769292 -0.08808926 -0.070950456 -0.0008589101
000060 36 3d 54 3f 21 65 4e 3f 1a 80 55 3b 36 58 40 3d
       0.829059 0.8062306 0.0032577575 0.046959125
000070 ac 7c 1c be ca 98 df bb bf 99 25 bd d0 b1 6e 3f
       -0.15281934 -0.006823634 -0.040429827 0.9324007
000080 3f 2e 25 39 b6 52 22 80 e8 50 1f 80 92 f8 08 00
       0.00015752854 -3.152078e-39 -2.875924e-39 8.23854e-40
000090 ef b6 a9 be df c3 33 bf 9b ce f2 3b fa 0a 83 3d
       -0.3314738 -0.7022075 0.007409883 0.06398578
0000a0 bf 93 73 3f 34 4d 7b 39 47 ac 4c 3e 64 2e d8 bd
       0.9514732 0.00023965986 0.19987594 -0.10555723
0000b0 95 82 9a 39 31 19 44 bd 41 23 b3 3e 96 88 7d 3d
       0.0002947046 -0.047875587 0.34987834 0.061897837
0000c0 03 fe eb 3d b0 b3 38 3f cf b9 93 be f6 10 32 3f
       0.11523058 0.7214918 -0.28852698 0.6955713
0000d0 91 45 71 3f 4c fa 6b 3b d1 d5 81 be 9b a0 a3 3e
       0.94246775 0.0036007343 -0.2535844 0.3195847
0000e0 db 6e 6e ba f3 81 db 3d 1d 6d af be bc 96 ec ba
       -0.0009095498 0.10718145 -0.34262934 -0.0018050293
0000f0 0b b5 90 3d df f5 99 bd 5c 66 52 3b 46 37 64 bf
       0.07065781 -0.07517599 0.0032104468 -0.8914684
000100 96 7b 14 3f 1e 84 d8 be 4b d2 d0 be 73 86 84 3f
       0.5800108 -0.42288297 -0.4078544 1.0353531
000110 ef c4 e2 ba 31 ba 3f be 3c d6 6c be 2b 64 8a 3a
       -0.0017301122 -0.1872337 -0.23128599 0.0010558417
000120 31 9c 22 be 8b ba 4b 3f 1c b9 49 3b 0b 94 a6 be
       -0.15879895 0.79581517 0.00307805 -0.32534823
000130 f7 50 b4 be 8e 56 a8 b9 d6 7e 3e 3e 18 3f 42 bd
       -0.3521802 -0.00032107945 0.18603072 -0.047423452
000140 64 e0 5d 3b 9d 94 e8 3d 67 b7 0c 3d 7d f8 1b 3c
       0.003385567 0.11356471 0.034354594 0.009519693
000150 b3 15 80 be 73 b8 01 3e 9a b8 32 3a b1 b4 3c 3d
       -0.25016555 0.12668018 0.0006817669 0.04607076
000160 b3 f8 09 be f2 83 ac 3a bf 20 0d 3d ba cf 9b bd
       -0.13473777 0.0013161881 0.034455057 -0.0760798
000170 ae e2 15 bc 49 ef 9d be 62 89 45 3f e8 93 1b be
       -0.009148283 -0.30846623 0.77162755 -0.1519314
000180 3e 12 9d 3e 0a 39 20 80 4b 93 07 80 a0 d6 76 be
       0.3067798 -2.959198e-39 -6.95687e-40 -0.2410531
000190 cf f6 90 bf 39 a3 a9 3b 52 56 d6 3e c7 72 cc 3e
       -1.132532 0.0051769284 0.41862732 0.39931318
0001a0 cb c2 0e bd 26 08 21 80 b1 14 2d 80 68 f6 36 00
       -0.034853738 -3.033494e-39 -4.14002e-39 5.04751e-39
0001b0 22 9e db be 27 7c 63 bf c2 87 64 3b 83 2e 86 bd
       -0.42894083 -0.88861316 0.0034870957 -0.0655184
0001c0 12 8b 25 3f 02 76 70 39 d0 cf 3a 3d 56 a8 28 bd
       0.6466533 0.00022932145 0.04560834 -0.041176163
0001d0 30 4c a6 3c fb 6a 17 03 02 9a a0 82 ae c8 66 86
       0.0203 4.449772e-37 -2.3598283e-37 -4.3405628e-35
0001e0 d9 af f8 82 b9 de de 02 30 ac 8d 86 6f e8 aa 82
       -3.6541256e-37 3.2747805e-37 -5.329131e-35 -2.5112665e-37
0001f0 5d 6c d6 82 28 61 34 80 a8 8a 3c 3e c1 96 f5 3e
       -3.1506671e-37 -4.810299e-39 0.18412268 0.4796658
000200 58 b0 f1 3c e2 78 bf bc 88 15 aa 3e 06 ea 09 bf
       0.029503033 -0.023373071 0.33219552 -0.53872716
000210 65 1c 19 3e 25 81 0f 3f 60 62 ff 3b 4a 84 de be
       0.14952238 0.56056434 0.0077937096 -0.43460304
000220 79 da c4 be f0 78 0f bc be 49 30 be 4a b3 4b 3f
       -0.3844793 -0.008756861 -0.1721563 0.7957045
000230 2d c7 0f bd 1f b4 02 40 af 87 12 00 ce f1 3b 80
       -0.03510206 2.0422437 1.701713e-39 -5.505037e-39
000240 d1 3b 23 3e b0 29 fc be 55 ed f6 ba 26 3f 99 be
       0.15940787 -0.49250555 -0.0018839041 -0.2993099
000250 9f 70 06 bf 93 59 bf 3a 35 d5 2b bd 3d ea 6c 3d
       -0.52515596 0.0014598839 -0.041951377 0.057840575
000260 38 15 6e 3b e7 85 94 bf 4a 23 34 3f 5f 39 0d 3e
       0.0036328565 -1.1603364 0.70366347 0.13791417
000270 6f 40 14 40 a7 ba 46 bd 4c 6f 45 ba 48 ee 0d be
       2.3164327 -0.04851785 -0.0007531538 -0.13860428
000280 e6 0b d9 3d 46 c8 2a b7 c1 6e a4 be 44 8a 85 bf
       0.105979726 -1.0179419e-05 -0.3211575 -1.043282
000290 84 3f 20 3d 68 94 84 3d fa 59 6e 3e 19 9c c0 39
       0.039123073 0.06473619 0.23276511 0.00036737396
0002a0 6b 84 44 3e 32 92 41 00 fe 61 41 80 3f 26 90 be
       0.19191138 6.021752e-39 -6.00446e-39 -0.2815418
0002b0 cf 7a 41 3f ad 7c 79 3c 72 08 94 3c c7 1c 39 bf
       0.75578016 0.015227479 0.018070433 -0.72309536
0002c0 62 c7 6a 39 c6 ba 86 be 8d ec 00 be 17 19 1e ba
       0.00022390255 -0.26314372 -0.12590237 -0.00060309604
0002d0 f7 47 7f bd f9 9f 94 be 6b f7 63 bd 41 80 65 bf
       -0.06232449 -0.290283 -0.055655878 -0.89648825
0002e0 49 39 90 3e 2f f7 a2 39 fe 15 c1 3e 53 57 fb bd
       0.28168705 0.00031083214 0.3771209 -0.12272515
0002f0 d7 9e 51 3b 7a d7 3f be e4 ad 5c 3f 8c 99 5c bd
       0.0031985545 -0.18734542 0.86202836 -0.05385737
000300 37 37 56 be 90 82 e2 be 6e 3f b0 b8 10 5b fb 3e
       -0.209195 -0.44240236 -8.404149e-05 0.49092913
000310 35 22 1a 00 3a 0d 2f 00 f8 d6 40 bf 8e cc 93 3f
       2.399994e-39 4.321013e-39 -0.75328016 1.15468
000320 69 97 a2 bf 59 91 23 3e 64 cb 05 bf 26 c4 68 be
       -1.2702457 0.15973414 -0.52263474 -0.22731075
000330 6f 2f cd 3e 48 cd 5a 3f 4f 86 41 b9 f7 1f 83 3e
       0.4007525 0.85469484 -0.00018455948 0.25610325
000340 c1 f3 a7 be bb 4b 71 bd 90 07 3f 3e 24 e9 b8 be
       -0.32803157 -0.058910113 0.18655229 -0.36115372
000350 80 69 26 bc 5d ac 7f 3e 59 fa 27 be 94 91 d5 3a
       -0.010156989 0.24968095 -0.16404094 0.0016293996
000360 c6 67 88 bf 49 9d 7b 3f 24 19 02 c0 5f 99 08 40
       -1.0656669 0.98286873 -2.0327845 2.134361
000370 69 01 bd bd 49 7b 18 3a bb 0e 5e bd 16 bb e8 3d
       -0.092287846 0.0005816711 -0.054213267 0.11363809
000380 99 84 17 00 28 f0 26 bd 69 3a bb 3e 2c 55 8d 3c
       2.159783e-39 -0.040756375 0.36568 0.017252527
000390 c3 9a 9a 3e b7 2c 62 be e0 b1 6e 39 ab 34 12 be
       0.301962 -0.2208737 0.00022763712 -0.14277904
0003a0 82 a2 2d be 2d d8 9f b9 fd 24 ed be 68 38 ac bf
       -0.16956523 -0.00030487907 -0.46317282 -1.3454714
0003b0 93 6e 5d be e1 0e 73 ba 24 eb 89 3f 49 91 f1 b8
       -0.21624212 -0.00092719315 1.0774884 -0.00011518837
0003c0 e2 e5 10 80 63 31 0b 80 35 aa 30 80 75 d5 49 be
       -1.551834e-39 -1.027907e-39 -4.469163e-39 -0.19710334
0003d0 c0 84 7c 3f 32 ff b4 3b 5a f3 e1 3e 14 12 8f bd
       0.9864006 0.0055235857 0.44130975 -0.0698587
0003e0 3c c3 7e bb 52 0d 2e bd 98 9f 2d 80 fc b2 12 00
       -0.0038873693 -0.042493172 -4.189849e-39 1.717246e-39
0003f0 e6 b6 12 bf eb 8c 4f 3e 4a e2 a5 bd d9 58 8c bd
       -0.5731033 0.202686 -0.08099802 -0.06852884

layers.0.fc_self.bias f4 [64]
000000 3c 2c d6 3e c4 fb 6e bf 75 4e 7b 3f 1e d2 34 c0
       0.41830623 -0.93352914 0.9816659 -2.8253245
000010 bb 14 b4 bd 79 00 8e 3f bf 9f 22 3f e9 b5 68 3e
       -0.087930165 1.1093894 0.63525003 0.22725643
000020 d9 eb d9 bd 82 6c 92 3e 8a 3c ff be 5b 7c c7 bf
       -0.106406875 0.2859841 -0.49850875 -1.5584825
000030 ca 89 a4 3c a6 76 f6 82 49 6f 27 3f 2b 63 0c c0
       0.020085234 -3.6214552e-37 0.6540418 -2.1935527
000040 1a 23 04 3f 51 4f b4 3e 0d 65 c7 be 5a 75 f1 3e
       0.5161606 0.35216764 -0.38944283 0.47159845
000050 90 8b 32 be 67 32 1b bf 8f 71 7e 3e 31 31 b1 bd
       -0.17436051 -0.6062378 0.24848007 -0.08651961
000060 5e 14 7a bd 54 f5 fa 3e 17 cb 3d c0 52 bb 09 bf
       -0.06105458 0.49015296 -2.9655206 -0.53801453
000070 89 80 96 bd 98 f3 c0 3e 23 e1 17 3f 9b 01 30 bf
       -0.07348735 0.37685847 0.59327906 -0.6875245
000080 5d fc 41 3e 8f 7d bb 3f 58 07 db bd fb b5 c1 3f
       0.18943925 1.4647692 -0.1069476 1.5133661
000090 d0 13 16 c0 73 22 c4 3f 10 64 27 c0 78 a0 22 3f
       -2.3449593 1.5323013 -2.6154823 0.63526106
0000a0 09 64 e0 3d 73 0b c5 3f 46 2b b3 3e 1f 5b 50 bf
       0.1095658 1.5394119 0.34993953 -0.8138904
0000b0 ef 08 75 bd cb cd 4b be 01 b5 31 3e 61 26 09 3f
       -0.059822973 -0.19902723 0.17354204 0.53574187
0000c0 2c ac cc 3f 5d c3 71 3e 7a 30 35 c0 90 7c ce 3f
       1.5990043 0.23609681 -2.8310838 1.6131763
0000d0 82 5a 5e 3f e3 4a d1 3f a1 ff 22 3f 31 27 75 3d
       0.86856854 1.6350979 0.6367131 0.05985183
0000e0 fa 4f 18 bf d9 41 25 3d 4b 63 9d 3c 63 ba 60 3f
       -0.59497035 0.040346 0.019212386 0.87784404
0000f0 4b 2f ab bd a7 16 05 c0 a5 be 55 3d 46 6f f0 3e
       -0.0835863 -2.0795076 0.052183766 0.46959895

layers.1.fc_neigh.weight f4 [1, 64]
000000 0f b2 06 3f 61 69 9a bf 25 bc 0e bd 22 3c 5f bf
       0.52615446 -1.2063409 -0.034847397 -0.8720113
000010 ba db 44 bf e1 c4 a1 3c 14 aa 3a be fa 7d 90 be
       -0.76897776 0.0197472 -0.18228942 -0.28221112
000020 60 04 22 3f dc e0 e9 bd ec 53 4c bf 5a ea 87 bf
       0.63287926 -0.11419842 -0.79815555 -1.0618393
000030 c2 36 e8 be 51 5a fd 83 20 78 12 3d 63 60 f2 be
       -0.45354277 -1.4890739e-36 0.03575909 -0.47339162
000040 32 8b 5e bd 1f 8f 88 3b 28 17 12 bf 6d 49 8b 3e
       -0.054331966 0.004167452 -0.57066584 0.27204457
000050 d3 8d 6e be 74 1d 16 3f 31 a5 18 3d cf f3 b6 bf
       -0.23296289 0.5863869 0.037266914 -1.4293154
000060 78 ef b5 3b b4 1a 4d 3e eb b3 43 c0 e1 9e b7 3e
       0.0055522285 0.20029718 -3.0578563 0.35863402
000070 3d ed 6f 3e 86 12 59 be d3 4a d5 3c 9f 51 46 3e
       0.23430343 -0.21198472 0.026036656 0.19367073
000080 1d 6a a5 3e e4 00 74 bd 8d ac f5 be 4b f5 43 be
       0.3230752 -0.059571162 -0.47983208 -0.1913654
000090 c6 81 ba c0 dc d3 e0 3b 8d 9b 7e c0 22 de e5 3b
       -5.8283415 0.006861193 -3.978244 0.0070150057
0000a0 b0 0c 09 3e 07 2e 07 be 96 cc 19 3e 65 aa 74 bf
       0.13383746 -0.13201152 0.1501945 -0.955725
0000b0 8c 4c 0b 3d 58 5a 5f 3e 73 d3 e3 3d 05 ff 65 3c
       0.034008548 0.21811807 0.11124315 0.014037852
0000c0 6e 2a a8 be f0 f2 0e 3e 66 40 2f bf dc 17 b8 be
       -0.3284487 0.13959861 -0.6845764 -0.35955703
0000d0 ac 45 0d 3b 5c d0 5b bd 4a 15 13 3e 71 d1 3e 3e
       0.002155642 -0.053665504 0.1436359 0.18634583
0000e0 3b 1e 05 3f db d4 29 bd 2b 11 0a 3f 05 5e 65 bd
       0.51999253 -0.04146276 0.53932446 -0.055997867
0000f0 cd e4 84 3c 4a d4 8a bf 36 b9 e8 3b f4 6b 8d bb
       0.016222382 -1.0846035 0.007102157 -0.0043158475

layers.1.fc_self.weight f4 [1, 64]
000000 a3 63 37 3e e6 54 79 bf 9f d8 cd bf 5d 9c 9a bf
       0.17909102 -0.9739517 -1.6081733 -1.2078968
000010 61 56 a1 be 7e 7f 8b bf e4 b3 02 bf 4a 46 14 be
       -0.31511214 -1.0898283 -0.5105574 -0.14479938
000020 94 3f 97 bf 49 e5 52 be 28 e4 8a bf 9c 17 25 bf
       -1.1816278 -0.20595278 -1.0850878 -0.6448915
000030 e6 0d 14 c0 82 a3 40 01 4e 44 f1 bf d0 3a 71 be
       -2.3133483 3.5382142e-38 -1.884897 -0.23557591
000040 8e 15 49 bf e4 59 2e 3b 68 02 5c bd 76 05 ce 3d
       -0.78548515 0.0026603872 -0.053713232 0.10059635
000050 ba 74 bc bf 52 40 dd bf 62 94 0c 3d dc c3 97 bf
       -1.4723122 -1.7285254 0.034321196 -1.1856647
000060 3b bf 8b 3b 22 8d 50 3d f0 93 5e c0 6a de 0a 3f
       0.00426474 0.050915845 -3.4777794 0.54245627
000070 96 bd ed 3d b2 08 00 c0 d7 2e c1 bc c5 c9 86 be
       0.11608426 -2.0005307 -0.023581905 -0.26325813
000080 83 4e 37 c0 6b ce cf bc dc 7c df bd 6f 49 66 c0
       -2.864167 -0.025366982 -0.10912487 -3.598232
000090 5b dd a1 c0 ac 69 5a bf d1 71 a3 c0 e1 70 9f 3b
       -5.058271 -0.8531749 -5.1076436 0.004865751
0000a0 10 29 81 3d eb 96 5f bf 5a 3b 6e 3d d7 7e f4 be
       0.0630666 -0.8733966 0.05816207 -0.4775302
0000b0 c0 e2 0c 3f 0f 13 d9 3c b6 f3 4a 3d d2 1e c2 bf
       0.55033493 0.026498346 0.049548827 -1.5165656
0000c0 2c 4b a7 c0 d4 91 c8 bd 2e 7a 18 bf 18 c7 99 c0
       -5.2279263 -0.097934395 -0.5956143 -4.8055534
0000d0 ca 5e 68 38 72 45 3c bf cf 0f c4 3d bf 51 e3 3e
       5.540139e-05 -0.73543465 0.09573328 0.44398305
0000e0 1d 5b 9c 3c 0b 6e fa bc 81 97 16 3e f5 25 61 be
       0.019086415 -0.03057005 0.14706232 -0.21987136
0000f0 c6 85 72 3e 99 c2 16 bf 2b 22 a0 3b 79 fb d5 bf
       0.23683843 -0.5889068 0.0048868856 -1.6717368
