N0-Noise/weight_22/best_model_no_noisse_weight_22.pth (torch, 8143 bytes, 5 tensors)

layers.0.fc_neigh.weight f4 [64, 9]
000000 07 b3 b1 3e e2 c8 c7 bf 9f 9d ec 3c f8 3c dc be
       0.347069 -1.560818 0.028883753 -0.43015265
000010 2c 2e a7 3e 02 01 ec bb 4f 5b 88 3f 24 24 20 3e
       0.32652414 -0.0072022686 1.0652865 0.15638787
000020 57 bd 3a 00 af 30 ab be f8 7d 7a bf 6e 30 48 3d
       5.394381e-39 -0.3343558 -0.97848463 0.04887431
000030 c6 ec e6 3d e2 21 86 bd 38 f8 cc 3d f2 f6 06 3d
       0.1127563 -0.065494314 0.100082815 0.03295035
000040 9d 1a a7 bd 0d 88 2b 00 cf b3 6a be 82 bb ae 3f
       -0.08159373 3.997732e-39 -0.22920154 1.3650973
000050 e3 e8 a0 3c 61 ae 61 be 74 d8 25 bf 16 84 1f ba
       0.019642299 -0.22039177 -0.64783406 -0.0006085051
000060 f9 a5 6b bf c5 a3 95 3f 14 c0 38 00 7d 28 19 c0
       -0.9205013 1.1690603 5.211692e-39 -2.3930962
000070 b6 c8 b1 be c2 87 85 3d a1 30 f7 bd 2f 33 2c bf
       -0.34723443 0.065200344 -0.12069822 -0.672656
000080 4d e6 35 ba 69 e1 f8 be a3 6f 67 bf 5d bb 15 80
       -0.00069389195 -0.48609474 -0.9040472 -1.995759e-39
000090 39 dc a1 3e bf b1 a0 3f 45 6f 62 3d e8 c4 aa bf
       0.3161333 1.2554244 0.055281896 -1.3341341
0000a0 7f 68 47 bf a3 59 26 bc fe 1e 5c 3e b8 bd 8d 3e
       -0.77893823 -0.010153207 0.21496198 0.27683806
0000b0 97 c0 03 00 64 35 d2 bd b3 8a 99 bf 6f ee e7 bf
       3.44595e-40 -0.1026409 -1.1995453 -1.8119639
0000c0 da 34 a8 bd 2a 83 57 3f 1b 54 39 3e d0 02 d3 2d
       -0.08213206 0.84184515 0.1809849 2.3989172e-11
0000d0 36 eb d3 2d fb df 3e 80 e3 e3 de 3e c8 8b e5 be
       2.4092377e-11 -5.77415e-39 0.4353324 -0.44833207
0000e0 80 b4 ea 3a 62 7e 63 3e 16 97 c9 be 35 08 4a be
       0.0017906576 0.2221618 -0.39373082 -0.19729693
0000f0 48 8d 94 3e 33 35 13 3f 68 57 40 00 88 73 ca 3e
       0.2901404 0.5750305 5.908827e-39 0.39541268
000100 b5 5f ff 3e f1 a8 15 3e 7d 4e 90 be 9d a9 24 be
       0.49877706 0.14615227 -0.28184882 -0.16080327
000110 b3 f9 01 bf 4b d9 26 3e 1c 5a 34 bd 29 a0 27 00
       -0.50771636 0.16293828 -0.044031247 3.639039e-39
000120 61 0a 8a be 4f ef 48 3e 7d 93 2b bf f8 d3 13 bf
       -0.26961043 0.19622539 -0.67021924 -0.57745314
000130 de b7 b1 3e cf d4 dc 3d 44 20 41 be 40 5d 35 be
       0.34710592 0.107827775 -0.18859965 -0.17711353
000140 aa 8a 24 80 7a bc 54 bf d0 49 89 3f c4 44 45 3f
       -3.355821e-39 -0.8310009 1.0725651 0.77058053
000150 07 d5 ac 3f f2 6d 34 3e ae 86 ca bb 11 35 7d bf
       1.3502511 0.17620066 -0.006180606 -0.989091
000160 9d f4 ee 3e 71 a5 0d 00 cd 40 61 bf d5 43 27 3f
       0.46671 1.25321e-39 -0.87989503 0.6533788
000170 61 ff a8 3e a4 53 94 3f 99 14 e0 3e d2 c2 b6 bb
       0.3300734 1.1588025 0.43765715 -0.0055774236
000180 ce a4 48 bf 30 2a a2 3f 5b da 27 00 09 9a 91 be
       -0.7837647 1.2669125 3.659916e-39 -0.28437832
000190 be 43 d0 3f 6a cd 38 b9 19 d2 2a bf e4 48 55 bf
       1.6270673 -0.0001762413 -0.66726834 -0.8331435
0001a0 9b 57 87 39 11 32 af 3d 8a b1 ee be 45 f3 35 00
       0.00025814478 0.08554471 -0.46619827 4.95455e-39
0001b0 5c e6 d8 be ae d0 f1 bf d2 82 b2 bf f5 37 a7 bf
       -0.4236325 -1.8891809 -1.3946173 -1.3063952
0001c0 03 82 4b bf 7d b6 d1 bf aa 6b 17 bf ee 23 a7 3d
       -0.7949526 -1.6383816 -0.5914866 0.0816115
0001d0 f9 39 41 00 4c 41 f3 3d d4 fd d1 bf 60 7c db bc
       5.990104e-39 0.11877689 -1.6405587 -0.026792705
0001e0 c5 76 7d be 5b 13 a2 3c a4 56 b0 3e ea e2 d8 3e
       -0.24752338 0.01978462 0.34441102 0.42360622
0001f0 da ef 84 3e 37 af 09 00 0b 56 ca bf 12 f3 87 bf
       0.25964242 8.89375e-40 -1.5807508 -1.0621054
000200 28 17 c4 bf 2e 14 4e bf d7 12 15 bf 16 39 48 bf
       -1.5319567 -0.8049954 -0.5823187 -0.78212106
000210 45 c8 3b 3e 3d 62 66 3f 43 15 1e 00 69 af 43 3e
       0.18338116 0.8999365 2.762692e-39 0.19109882
000220 d1 6c 73 bf 7b dc 97 3c 26 26 7d 3b 26 79 5f bc
       -0.95087916 0.01853775 0.0038627475 -0.013639724
000230 1f 5e 34 bd d0 e6 9a bd 8e 42 07 3f d6 55 0e 80
       -0.044035073 -0.07563555 0.5283593 -1.316489e-39
000240 fc 51 ef bd 04 82 95 3e b7 a1 88 3c f5 cb a3 3d
       -0.11685559 0.29200757 0.016678674 0.07997886
000250 63 dc 53 c0 f4 53 eb 38 8a 25 61 3f 55 7c d1 3e
       -3.3103263 0.00011221311 0.87947905 0.4091517
000260 c9 5a 1c 80 a2 e3 6f 3e 27 64 bd 3e 5c 75 10 be
       -2.603961e-39 0.23426679 0.36990473 -0.14107269
000270 c2 d1 87 be 71 3a c5 3e 2e 88 d5 3c b0 3c 39 bc
       -0.2652722 0.3852115 0.026065912 -0.011305973
000280 9b 56 ee bf 61 26 1f 00 2b 4e 09 be 79 bf f5 be
       -1.862018 2.860668e-39 -0.13408725 -0.47997645
000290 76 46 89 3b da fb 5c 3c ec 4c 31 be b2 2e f0 b8
       0.004189308 0.0134877805 -0.173145 -0.000114527895
0002a0 19 76 8b 3e 47 a0 b5 bf af f2 32 80 d4 e3 80 be
       0.2723854 -1.4189538 -4.678833e-39 -0.2517382
0002b0 0e 03 15 3f 40 d2 4e bb 74 fb 58 be 50 25 17 bf
       0.58207786 -0.0031558424 -0.21189672 -0.5904131
0002c0 05 74 28 bb ef e7 ab bf 78 68 44 3f a6 ab 1f 00
       -0.0025703919 -1.3430156 0.76721907 2.908476e-39
0002d0 2b c9 d6 be 5c a8 61 bf 91 60 65 3c 61 fa 1f be
       -0.41950354 -0.8814752 0.014000074 -0.15622856
0002e0 98 87 17 bd 02 60 33 3c 43 44 8c bf c5 0a 27 c0
       -0.036994547 0.010948183 -1.0958332 -2.6100323
0002f0 41 ae 40 80 b2 9e 2c bf f2 3e 9a bf 12 a0 94 bf
       -5.939982e-39 -0.6742965 -1.2050459 -1.161135
000300 82 f8 a4 bd e2 55 ba 3e 1f b2 f4 b8 5d 55 d1 3e
       -0.080552116 0.36393648 -0.00011668004 0.4088544
000310 bc f0 2c c0 e4 03 32 00 fc cb 50 be 34 e1 04 3f
       -2.7021933 4.59317e-39 -0.20390314 0.5190613
000320 3a 5e 98 be 58 37 c7 bd d4 fd 17 bf 92 1e 94 39
       -0.2975939 -0.09727353 -0.59371686 0.00028251536
000330 d4 0e 4a bf cc aa 11 c0 f6 d2 01 80 12 fc 51 bf
       -0.78928876 -2.2760496 -1.67514e-40 -0.82025254
000340 e7 86 e5 3e 8d e5 2e bf 95 e8 13 bf 28 20 70 3f
       0.44829485 -0.68319017 -0.57776767 0.93799067
000350 97 64 27 be 4b 65 b2 3c 91 76 a3 3f 92 26 3d 80
       -0.16346966 0.021776816 1.2770559 -5.615802e-39
000360 bf 67 99 bd 37 18 1f bf 74 f2 17 3b df a4 99 3c
       -0.07490491 -0.62146324 0.0023185285 0.018755374
000370 d2 64 b4 be 08 21 b5 37 dd 7f 10 be 93 10 97 bf
       -0.3523317 2.1592263e-05 -0.14111276 -1.1801933
000380 40 5a 13 00 f3 e8 0e 3e 19 95 18 3f 8b 3e d4 3b
       1.77725e-39 0.1395605 0.59602505 0.0064771823
000390 45 e5 b0 bd 24 26 1c c0 8a 46 50 b8 40 bb a6 be
       -0.0863748 -2.439828 -4.965676e-05 -0.32564735
0003a0 3c 11 06 3f ad ca 37 80 2b 59 8c 3e 54 e4 b3 bf
       0.5237005 -5.123659e-39 0.2741178 -1.4054055
0003b0 80 f8 37 3d 5a 6c 86 be 81 11 16 3f 5b de 4e bd
       0.044914722 -0.2625454 0.5862046 -0.050505023
0003c0 ec ab aa 3e be 78 df 3e a8 64 2f 80 c8 0f b3 3e
       0.3333429 0.43646806 -4.352377e-39 0.34972978
0003d0 a9 4f e8 be ae 73 76 3b ee 75 8c be be 2a 90 3e
       -0.45373276 0.0037605572 -0.27433723 0.2815761
0003e0 df 92 ad be c8 ae 65 3f 0c da 08 bc a2 61 1e 80
       -0.33901116 0.8971982 -0.008352768 -2.790089e-39
0003f0 e2 45 fe bc cf 7a ff 3d ed dd c1 3b a4 15 20 3e
       -0.031039182 0.12474596 0.005916348 0.15633255

layers.0.fc_self.weight f4 [64, 9]
000000 bf da ce be 8e d2 0a bf 3f fa 59 3c 1c fd 8c be
       -0.40401265 -0.5422753 0.013304292 -0.27536857
000010 fa 85 19 3f 54 10 9b 39 21 5f b7 3e 9a 5c 3d be
       0.59970057 0.0002957607 0.35814765 -0.18492356
000020 89 64 0c 37 a6 09 a4 be 77 52 e8 be 24 52 c3 be
       8.368058e-06 -0.3203861 -0.45375416 -0.38148606
000030 a0 b1 09 3f 54 8b e9 3b 48 99 4d be ef bf 0a 3f
       0.5378666 0.007127205 -0.20078003 0.5419912
000040 cf 87 a3 3f 29 22 01 3b 7b ea 20 bf 06 f1 e7 3e
       1.277582 0.00197042 -0.6285779 0.45301074
000050 2b 27 c3 3b ec a2 71 3e ce 23 31 bf a7 a4 70 39
       0.005955597 0.23597306 -0.6919526 0.00022949521
000060 2d a0 54 be 60 f0 fe bd b1 c7 d0 b8 59 c7 88 bf
       -0.20764227 -0.12448192 -9.955408e-05 -1.0685836
000070 16 5a bd 3e 36 89 d3 3c 0e 25 e7 3d 64 ea d2 be
       0.36982793 0.025822263 0.112863645 -0.4119445
000080 aa 5f f5 39 29 4e 13 80 91 eb 1f 80 b0 9b 13 00
       0.00046801317 -1.772913e-39 -2.931406e-39 1.800725e-39
000090 03 57 ea be 60 98 2a bd 1f 10 e1 be 9e 88 ce be
       -0.4576951 -0.041649222 -0.43957612 -0.40338606
0000a0 fc 79 25 bf b1 24 01 bb 41 a7 06 80 11 62 1b 80
       -0.6463926 -0.0019705708 -6.11012e-40 -2.514738e-39
0000b0 1d 0b 04 80 e7 6e 01 bf 4e 13 04 c0 8d 31 88 bf
       -3.71329e-40 -0.5055985 -2.0636783 -1.0640122
0000c0 77 6c 80 3d 71 82 83 3f cc 51 37 be 36 54 1e 00
       0.06270688 1.0274183 -0.17902297 2.785274e-39
0000d0 39 3d 17 80 ae 73 13 80 f7 2d b8 be 42 85 38 be
       -2.134179e-39 -1.786372e-39 -0.35972568 -0.18019584
0000e0 07 40 96 3d 77 d7 a7 3e 96 37 93 3e 0f 1d 3e be
       0.07336431 0.32781574 0.28753346 -0.18565772
0000f0 99 6b ed 3e 8d f3 84 3f f9 24 2f 3b ec 6b 8b bf
       0.46371153 1.0386826 0.0026724918 -1.089231
000100 f0 a2 6c 3e 26 a9 91 bd 65 5d 39 bd 32 a5 0b 3e
       0.2310903 -0.07112341 -0.045255084 0.13637236
000110 be 70 83 be 64 0f 04 80 c7 1f 38 00 8d b8 21 80
       -0.25671953 -3.72863e-40 5.154187e-39 -3.096776e-39
000120 2e 2e 0b bf b2 69 6f bf ac 8c 97 3d 32 c8 de be
       -0.5436734 -0.93520653 0.07399878 -0.43512112
000130 07 da 1a 3f e2 3e da bd 37 95 98 be 64 39 36 00
       0.60488933 -0.10656525 -0.29801342 4.979705e-39
000140 18 0f 30 00 fd cf 0b bf ff 4f 94 3f 7a a6 a1 bf
       4.413518e-39 -0.5461424 1.1586913 -1.262893
000150 b4 da a8 3f af 24 6f bf 6f 29 02 3b b9 56 35 3c
       1.3191743 -0.9341535 0.0019861122 0.01106804
000160 0a d3 2e 3d c2 9e 19 b6 95 5a 55 3b 28 8f a9 3e
       0.04268173 -2.2891186e-06 0.0032555212 0.33117032
000170 2a b5 00 c0 a1 5c 60 3f f1 ee 90 bf 09 3f 4a 3b
       -2.0110574 0.8764134 -1.1322919 0.0030860326
000180 86 8b 4e 3d 9c e5 a0 3e 79 c0 6f b7 35 ff 90 bc
       0.05042603 0.31425178 -1.4290324e-05 -0.017699817
000190 7c 92 69 3f 79 93 95 3a 47 92 bf bc f2 de 33 bf
       0.9123914 0.0011411748 -0.02338518 -0.7026206
0001a0 e4 ac bc b8 6b 6a 02 bd 63 05 97 3c 37 72 6b b8
       -8.996742e-05 -0.03183977 0.018435186 -5.6134737e-05
0001b0 d5 d6 6c be b1 e0 7e 3f be 70 92 3a 33 19 38 bf
       -0.23128827 0.995616 0.0011172516 -0.7191345
0001c0 6e 63 91 be 47 e4 92 b9 ee 14 50 bd cd 87 8e be
       -0.2839617 -0.0002801737 -0.05080121 -0.27837983
0001d0 e8 b9 10 3b 4b d9 f7 be 4d 02 e9 bf be 98 cd 3c
       0.0022083465 -0.4840797 -1.8203827 0.025097247
0001e0 fa 3a ae 3e d9 d4 54 3f 89 c6 b0 be 6b 49 24 00
       0.3402937 0.8313728 -0.3452647 3.332415e-39
0001f0 34 8c 0e 80 bc 70 35 00 1d 13 72 3e 4a 41 35 bf
       -1.335992e-39 4.907723e-39 0.23640104 -0.7080275
000200 52 e9 59 bd b8 65 39 3e e9 41 47 3d a3 5d dd 3a
       -0.053201027 0.18105209 0.04864684 0.0016888868
000210 47 f3 2d 3e a5 5b f2 bc 94 88 88 3a c7 3d fe bd
       0.16987334 -0.029584715 0.001041668 -0.12414127
000220 78 66 0d be 7f 95 a5 3b ee 34 9d bb 82 e0 ab bd
       -0.1380862 0.0050532217 -0.0047975695 -0.08392431
000230 58 f3 ca b9 a5 08 ad 3e 01 12 30 3f 88 e7 a4 3a
       -0.00038709748 0.33795658 0.6877747 0.0012581209
000240 33 cb b6 bb 0b cf d5 3d 67 43 19 3c 88 e1 cb 3c
       -0.0055784225 0.10439881 0.009354449 0.024887815
000250 b2 74 27 c0 c0 0c d0 b8 ce 20 66 be 1f 4f b8 bf
       -2.6164975 -9.920588e-05 -0.22473451 -1.4399146
000260 e1 a9 33 36 06 42 89 bd 3f 04 70 3f a2 cc 9b bc
       2.677196e-06 -0.06702046 0.9375648 -0.019018475
000270 47 cd 10 3f 9f 0e 93 bf 4a 7d db bc 44 89 7f bd
       0.5656323 -1.1488837 -0.02679314 -0.062386766
000280 eb 05 55 bf a2 f9 3b 39 c4 5c 53 be 40 a4 5e bf
       -0.83212155 0.00017926705 -0.20640856 -0.86969376
000290 bf 83 cb 37 eb 0c c8 b8 b8 81 5a 3f bc 67 42 b6
       2.4260835e-05 -9.539149e-05 0.85354185 -2.8968634e-06
0002a0 88 f6 26 80 3c 86 14 00 95 99 1c 00 b3 48 85 be
       -3.578188e-39 1.884864e-39 2.626489e-39 -0.26032028
0002b0 d4 bb eb 3e 21 26 a6 3b 9f 1c 94 3e 6a 3a ca be
       0.4604174 0.0050704633 0.28928086 -0.3949769
0002c0 74 19 88 39 bd 55 97 3d 89 e2 be bd 6a 6b 0d 38
       0.00025958905 0.073894 -0.09320552 3.3717057e-05
0002d0 f9 bc 76 be b0 a7 a3 3d 10 ea 22 3b 86 88 1c 3e
       -0.24095525 0.07990968 0.002485875 0.15286455
0002e0 11 b1 2d 3f b5 d8 2d bc 4e 69 43 80 17 1a 25 80
       0.67848307 -0.010610749 -6.190754e-39 -3.407273e-39
0002f0 fa 21 45 80 af c0 26 bf c5 4f 7a bf e1 ec 8b bf
       -6.348838e-39 -0.6513776 -0.9777797 -1.0931665
000300 49 a1 a6 3d d0 f3 7d 3f 46 48 3f 38 08 44 1c 80
       0.081362315 0.99200153 4.560526e-05 -2.595799e-39
000310 12 8f 3d 00 e7 99 2c 80 f1 ea 4d 3d 4a b2 f2 bc
       5.653289e-39 -4.095972e-39 0.050272886 -0.02962603
000320 e1 dd b1 bf c1 88 04 3d 96 56 81 3f 10 d9 ad b8
       -1.3895837 0.03235698 1.0104549 -8.289714e-05
000330 13 29 18 00 55 ae 40 80 b2 3d 1e 80 a8 9c 4b 3d
       2.218787e-39 -5.94001e-39 -2.777197e-39 0.049709946
000340 cd bd b9 3e ab 76 59 3b 38 7f fc be 49 e2 ae bd
       0.3627762 0.0033182304 -0.4931581 -0.08539254
000350 16 8c 23 bc b8 79 89 3e ec fb 09 3f 06 c1 47 3a
       -0.00998213 0.26850677 0.5390003 0.00076200103
000360 06 d1 86 bc a4 66 b2 bf ac 8f 6f 3b 8b a1 10 bc
       -0.016457092 -1.3937573 0.003655414 -0.008827577
000370 f5 02 80 3f d9 ac 21 b8 54 3f 1f 80 9c 37 29 00
       1.0000902 -3.8546368e-05 -2.869618e-39 3.785204e-39
000380 a0 e0 1f 00 c8 7f f7 3c 51 8f 83 bd 6c 85 d4 3b
       2.92748e-39 0.030212298 -0.0642382 0.0064856317
000390 15 6e 1d 3e da 6c c3 bf b9 67 c4 b7 55 39 3c 3d
       0.15374024 -1.5267594 -2.341332e-05 0.045953114
0003a0 aa 22 04 be c7 73 1b 3a 97 78 4d 3d c9 3e 85 be
       -0.12903848 0.0005930033 0.05016383 -0.26024464
0003b0 49 40 d2 3b 11 31 40 3e 60 8f 62 bf cb 98 34 38
       0.006416355 0.18768717 -0.8850002 4.3057644e-05
0003c0 13 f9 00 bd 06 2b ff be ac b8 02 3b 93 6b da be
       -0.031487536 -0.49837512 0.0019946499 -0.42660198
0003d0 9a b7 e3 be ee ac d1 be 45 97 aa 3e b5 06 d8 3e
       -0.44476014 -0.40952247 0.33318534 0.42192617
0003e0 0e d6 b9 ba f4 65 b9 3d 1e 38 41 be b9 f9 02 39
       -0.0014178173 0.09052649 -0.18869063 0.00012490795
0003f0 9e 17 5a 3d a3 ee 65 bb a4 8d 8d 3a ac 7b 06 be
       0.05324518 -0.0035084866 0.0010799658 -0.13133115

layers.0.fc_self.bias f4 [64]
000000 c8 a2 32 be a7 49 9f 3e ca 53 e2 3e 48 8e 15 bf
       -0.17444909 0.3111088 0.4420455 -0.5842023
000010 91 80 c6 be 5a 4e 26 c0 92 39 cc 3e 60 01 60 be
       -0.38769963 -2.5985322 0.39887673 -0.21875525
000020 6a 75 cc be 17 87 23 3d 4a 2d f6 3e 28 e7 a1 3d
       -0.3993333 0.039923754 0.48081428 0.07905418
000030 14 d5 c0 3e 28 79 11 c0 5b 06 94 3e bb ee 81 3f
       0.37662566 -2.2730198 0.289111 1.015098
000040 87 70 d2 3f cc d7 62 3f 11 ee 30 c0 ae 7f 29 3e
       1.6440591 0.8861053 -2.7645304 0.16552612
000050 69 94 22 c0 49 80 27 c0 12 8e 0a c0 b4 6e 80 3f
       -2.5403082 -2.617205 -2.1649213 1.0033784
000060 9e 92 03 c0 57 e0 67 3f 86 da 0c 3f 1d 4c c8 3d
       -2.0558238 0.9057669 0.5502094 0.097801425
000070 c1 81 04 40 b6 ea 85 bf a3 9c be bd 6d a9 ca 3f
       2.0704195 -1.0462253 -0.0930722 1.5832955
000080 b4 d3 d6 3f af d8 67 3e 08 39 08 3f a1 e5 48 3f
       1.6783357 0.22641252 0.5321202 0.78475386
000090 36 8a e1 3e 5b a4 66 3f 24 7d 40 be 9c 5e 7b 3f
       0.4405076 0.90094537 -0.18797737 0.9819124
0000a0 84 30 09 3f f9 7b 63 3f 35 64 8b 3e c6 11 92 3e
       0.53589654 0.8886104 0.2722489 0.28529185
0000b0 ff 74 02 3e ff 0e 3e 3f 36 12 bb 3f 2e 75 41 3e
       0.12739943 0.7424163 1.4614933 0.18892357
0000c0 c2 de c0 be 68 8b 1a c0 16 59 d9 3e c0 77 87 3e
       -0.3766995 -2.4147587 0.4245078 0.2645855
0000d0 25 b8 4f 3f 85 e4 8b 3d 36 74 2e 3d 9e 3e d8 bf
       0.8114036 0.06830696 0.042591296 -1.6894109
0000e0 0d 5d f5 3e d9 6c af 3c c8 3a 68 bd 66 f9 43 3f
       0.47922555 0.021414207 -0.056696683 0.76552427
0000f0 fd 7b 0f 3f 3c 5c 8f 3f 58 4f 35 be c9 75 7d 3f
       0.56048566 1.1200023 -0.17706048 0.9900785

layers.1.fc_neigh.weight f4 [1, 64]
000000 8d c8 5c bf d9 55 72 3c 14 9a 4a 3e e0 21 0b 3f
       -0.86243516 0.0147909755 0.19785339 0.54348564
000010 b6 07 5c 3f 9c d5 cc be 6e 62 8c 3c 3e b7 62 3e
       0.85949266 -0.4000672 0.017136779 0.22140214
000020 97 b7 10 be 1b d5 d3 3b 25 75 3d 3c bb f9 b9 3e
       -0.14132534 0.006464613 0.011563574 0.36323342
000030 f9 e1 3d 3f b4 35 21 bf 47 d6 90 bd 36 91 a4 ba
       0.7417293 -0.6297257 -0.0707212 -0.0012555483
000040 a4 3f 79 be e9 67 d7 be fd fb 51 c0 1c 8c c9 3e
       -0.24340683 -0.42071465 -3.2810051 0.39364707
000050 5f 71 6e bf 74 70 4c c0 be ae 44 bf 47 3e 66 3d
       -0.9314174 -3.1943636 -0.76829135 0.056211736
000060 c3 d2 2d c0 0f f9 10 be 7e d2 7f be 3e 93 c5 bf
       -2.7159889 -0.14157508 -0.2498264 -1.543556
000070 f2 e8 34 bd c0 36 31 bf 63 92 c3 be 97 4c 94 bd
       -0.044167466 -0.69224167 -0.38197622 -0.07241171
000080 c4 8b 18 bf 38 7f 3c 3f 8b 4f db 3d c4 94 17 3e
       -0.59588265 0.7363162 0.10708531 0.14802843
000090 b7 db e4 3c 37 3b 20 3c dc 2e e6 3d d8 85 d6 3b
       0.0279368 0.009779743 0.112394065 0.006546717
0000a0 0d 97 bc 3d e2 99 37 3d ef 1b 8b bd e5 52 b2 be
       0.09208498 0.04482449 -0.06792437 -0.34828869
0000b0 38 f9 d7 3d e6 7e 33 3c 47 8d 4a bf 85 b1 6f 3c
       0.105455816 0.010955548 -0.7912182 0.014629726
0000c0 e6 43 66 bc c7 f2 89 c0 f4 8b 25 3f 26 ff 12 3f
       -0.014054274 -4.310886 0.64666677 0.57420576
0000d0 b3 55 01 3c d7 a2 bf 3c ba cf 4d bf 4f d1 43 be
       0.007893967 0.023393078 -0.8039509 -0.19122814
0000e0 94 4f 1c 3e 4d 33 17 3f 2d 47 28 3d 16 07 e4 3a
       0.15264732 0.59062654 0.041083504 0.0017397131
0000f0 fe 4e 06 3d 3d b4 5f bb 88 59 99 3e 65 d6 2b bd
       0.032790177 -0.003413453 0.2995112 -0.04195251

layers.1.fc_self.weight f4 [1, 64]
000000 de e5 04 bf 0c 86 c6 bf f1 d6 8c 3d 29 f5 df 3e
       -0.5191325 -1.5509658 0.06876934 0.4374173
000010 9f 74 39 3f f5 33 94 be 3b 77 f8 bf f1 6e 1e 3e
       0.72443575 -0.2894589 -1.9411386 0.15472008
000020 0e 4a 78 bd 01 48 be 3b bb d6 3a 3c 8e ff 1f 3e
       -0.0606175 0.0058069234 0.011403735 0.1562483
000030 04 33 e7 bf d5 15 2e bf f2 14 4e bf 16 ec ec bf
       -1.8062444 -0.68002063 -0.8050071 -1.8509548
000040 9b 08 6d c0 49 18 0d be 9b f1 84 c0 b0 9d 9b bd
       -3.7036502 -0.13778795 -4.154493 -0.07598436
000050 e6 77 64 bf 21 a0 26 c0 68 60 6f bf 8a ee 21 bf
       -0.8924545 -2.6035235 -0.9350648 -0.63254607
000060 ed b7 44 c0 20 94 de bf 19 af eb bf cc 36 5c be
       -3.073726 -1.7388954 -1.841281 -0.21505278
000070 68 48 70 c0 0b 15 e3 bf e5 fc ea bd a9 a3 1d bf
       -3.7544193 -1.7740797 -0.11474017 -0.6157785
000080 2f 2b a3 c0 48 79 2c bd ef 8d a7 3d 0a d7 4f 3d
       -5.0990214 -0.04210785 0.081813686 0.050742187
000090 88 15 31 3e 5e 70 e0 3b 82 d9 e0 3e 2c 88 18 bf
       0.1729337 0.0068493327 0.43915945 -0.5958278
0000a0 02 ac 23 be 6f 35 1b 3d 42 02 42 bf 40 f9 fc be
       -0.15983585 0.037892755 -0.75784695 -0.49408913
0000b0 71 1e 0a 3f 0f 53 06 3c 37 79 09 c0 27 ac 5c 3c
       0.539527 0.008198514 -2.1480234 0.013468779
0000c0 bc ae 20 bd bf cf ae c0 88 cb 0d 3e ee f6 3b 3e
       -0.03922914 -5.4628596 0.13847172 0.18355915
0000d0 8b 33 2b 3b 1e 1c c1 3d b7 14 d6 be 92 21 8e bd
       0.0026123251 0.09429191 -0.4181268 -0.06939997
0000e0 fa 13 c2 3d 00 8a 10 3e 93 c1 ed 3c b3 dd 77 bf
       0.094764665 0.14115143 0.029022967 -0.9682266
0000f0 53 f1 c5 3c 7e c9 48 bb 97 0a d5 3d 24 c7 f4 bf
       0.024162924 -0.0030637677 0.104024105 -1.9123273
