N0-Noise/weight_10/best_model_no_noisse_weight_10.pth (torch, 8143 bytes, 5 tensors)

layers.0.fc_neigh.weight f4 [64, 9]
0	0x3f1e0f21	0.61741835
1	0x3f9cb935	1.2244021
2	0x3a76aca8	0.0009409883
3	0xbf7cbf0f	-0.9872903
4	0xbf14fa64	-0.58194566
5	0xb9e9d0a5	-0.00044596675
6	0x3e068fb0	0.1314075
7	0x3f2d780c	0.677613
8	0x8009fba3	-9.1679e-40
9	0xbdf52a43	-0.119709514
10	0x3fc46373	1.534285
11	0x3cc6f6db	0.024287632
12	0xbea1f8ab	-0.3163503
13	0xbf4ee535	-0.8081849
14	0x3b79514e	0.0038042846
15	0x3e0a9baa	0.13535944
16	0x3e42ab5b	0.1901068
17	0x802814d4	-3.680892e-39
18	0xbe2cd772	-0.16879061
19	0x3fa4ee4f	1.2885226
20	0xb9a441ef	-0.00031329642
21	0xbe92aa5a	-0.28645593
22	0xbf2a2e51	-0.66476923
23	0x392c05f9	0.00016405423
24	0xbb73ecdc	-0.0037220037
25	0xbc57ca76	-0.013170829
26	0x801f2a68	-2.862113e-39
27	0xbf52bce0	-0.8231945
28	0xbfb313b0	-1.3990383
29	0xc0121c71	-2.282986
30	0x3e4b2e9d	0.19842
31	0x3f8340cd	1.0254151
32	0x3da36c27	0.07979613
33	0x33fd9863	1.18089496e-07
34	0x3a8f9e00	0.0010957122
35	0x800c0106	-1.102393e-39
36	0x3ed86477	0.4226415
37	0xbf8032e1	-1.0015527
38	0x3ca44670	0.020053118
39	0xbd082e1c	-0.0332471
40	0x3eba9ccd	0.36447755
41	0xbef3b73b	-0.4760073
42	0x3f169281	0.588173
43	0x3d7ce4d4	0.061741665
44	0x80065cc2	-5.84288e-40
45	0xbfa044a1	-1.2520944
46	0x3f19fa73	0.6014778
47	0x3de62558	0.112375915
48	0x3e957ae9	0.29195336
49	0xbd3a1034	-0.04542561
50	0x38f55995	0.00011699196
51	0xbfb79ca2	-1.4344676
52	0x3f7f388a	0.99695647
53	0x001c6c50	2.610249e-39
54	0x3e87505d	0.264285
55	0xbf0ca51d	-0.5493944
56	0x3bcb3852	0.0062017823
57	0xbf28af4a	-0.6589247
58	0xbc69ab67	-0.014262057
59	0xbb096329	-0.0020963645
60	0x3f1dce7c	0.61643195
61	0xbed340d4	-0.41260397
62	0x803c95f0	-5.563917e-39
63	0xb9c7bc82	-0.00038096687
64	0x3efd4315	0.49465242
65	0x3c0ade52	0.008475857
66	0x3ddbb881	0.10728551
67	0xc00aa746	-2.1664596
68	0xb9300811	-0.00016787673
69	0xbfc075a3	-1.50359
70	0x3f829c65	1.0203978
71	0x0021a25c	3.088815e-39
72	0x3ea7a500	0.32743073
73	0x3f098fff	0.53735346
74	0x3da70525	0.08155278
75	0xbeb6e38d	-0.35720482
76	0xbe352ed5	-0.17693646
77	0xbe66bbca	-0.22532573
78	0xbe410697	-0.1885017
79	0xbe3d607e	-0.1849384
80	0x802e083a	-4.227384e-39
81	0xbc086f3a	-0.0083273
82	0x3c5f99cf	0.013647511
83	0xb9be441d	-0.00036290372
84	0x3c80212d	0.01564082
85	0xbd1d3ac2	-0.038386114
86	0xb9077d47	-0.00012921273
87	0xbbd7fae1	-0.0065911864
88	0xbe9ba563	-0.30399618
89	0x000f0854	1.38052e-39
90	0xbe2b6660	-0.16738272
91	0xbf2d909c	-0.6779878
92	0xbe0c71a3	-0.13715224
93	0xbe0464fd	-0.12929149
94	0xbd3f83b5	-0.046756465
95	0xba612a7f	-0.0008589401
96	0xbc6fd6cc	-0.014638614
97	0x3f88d9cc	1.0691466
98	0x80296f55	-3.805194e-39
99	0xbfce78c9	-1.6130611
100	0x3f946c95	1.1595637
101	0x3ef05ae8	0.46944356
102	0x3fa59544	1.2936177
103	0x3f078423	0.52936
104	0xbc3e2928	-0.011606492
105	0xbf699d89	-0.91256005
106	0x3f9f2011	1.2431661
107	0x001a7152	2.428375e-39
108	0xbe7d3835	-0.24728473
109	0xbfcb65a5	-1.5890394
110	0xbffc93d9	-1.973262
111	0x3e91b11a	0.2845543
112	0x3ed53d55	0.41648355
113	0x3d51f810	0.05126196
114	0xbe970dfa	-0.2950285
115	0xbec2bdcd	-0.38035432
116	0x0008e09a	8.15256e-40
117	0xbba588ff	-0.0050517316
118	0xbe24d468	-0.16096652
119	0x391d7730	0.00015017088
120	0x3c4420a5	0.011970674
121	0xbe627022	-0.22113088
122	0x37d3be69	2.5241827e-05
123	0xbd8f8cb0	-0.07009256
124	0xbf0c9663	-0.5491697
125	0x002fd504	4.392684e-39
126	0x3f022039	0.5083042
127	0x3f96b934	1.177527
128	0x3d75a186	0.059968494
129	0xbf4c9d61	-0.7992764
130	0xbede16a0	-0.43376637
131	0xbbae2253	-0.0053141504
132	0x3ea121b9	0.3147104
133	0x3e6ecf14	0.23321182
134	0x001a9960	2.442743e-39
135	0xbf7af2a6	-0.980265
136	0x3f049e35	0.51803905
137	0x3d1453ea	0.03621284
138	0x3e342d22	0.17595342
139	0x3db97efa	0.09057422
140	0x38bab818	8.903461e-05
141	0xbfad3fc9	-1.3535091
142	0x3f3cf933	0.7381775
143	0x801dcec7	-2.737407e-39
144	0xbe8010f9	-0.2501295
145	0x3e2f8401	0.17140199
146	0x3ea89ff4	0.32934535
147	0x3dadcb87	0.084860854
148	0x3f12523e	0.5715674
149	0x3ea974c2	0.33096892
150	0x3e7dd822	0.2478948
151	0x3f0a57fa	0.5404049
152	0x00072718	6.56873e-40
153	0xbf9b4d93	-1.2133049
154	0x3f638cef	0.8888692
155	0x3ea8eef3	0.32994804
156	0x3f5747b3	0.8409378
157	0x3e8d7bba	0.27633458
158	0xba57d1b4	-0.00082328473
159	0xbff69215	-1.9263331
160	0x3f3fa7e8	0.7486558
161	0x0012d46b	1.72924e-39
162	0x8144902c	-3.6102953e-38
163	0x81aa1e7a	-6.249187e-38
164	0x8275fad8	-1.8071746e-37
165	0x826e77e7	-1.7519889e-37
166	0x821b20ae	-1.139698e-37
167	0x8708af83	-1.0283081e-34
168	0x001b5ab8	2.512102e-39
169	0x00389530	5.196306e-39
170	0x001b0954	2.482905e-39
171	0xbe3584a0	-0.17726374
172	0x3f1e76e2	0.6190015
173	0x3c9e467a	0.019320715
174	0xbd7e3600	-0.062063217
175	0xbffedfa1	-1.9911996
176	0xb930d366	-0.0001686342
177	0xbfc3ef43	-1.5307392
178	0x3e92b231	0.28651574
179	0x0005ba3b	5.25984e-40
180	0xbdd01d53	-0.10161843
181	0x3e61d200	0.22052765
182	0x3c5f87a0	0.013643175
183	0x3b472b5b	0.0030390832
184	0xc039b699	-2.9017699
185	0x3951ccc4	0.00020008074
186	0x3eff9e09	0.4992526
187	0x3eecd68a	0.4625743
188	0x000518c4	4.68062e-40
189	0x3eab0670	0.3340335
190	0x3f2a1fd9	0.66454846
191	0x3d0ad94a	0.03389863
192	0xbde94eda	-0.11391993
193	0x3d946375	0.072455324
194	0xbea03dd1	-0.31297162
195	0x3eabb24b	0.33534464
196	0xbe65f582	-0.22456935
197	0x0002aec2	2.46362e-40
198	0x3f557583	0.83382434
199	0xbf7e4b65	-0.9933379
200	0x39874301	0.00025799128
201	0x3e4c65be	0.19960687
202	0xbf6491b9	-0.89284855
203	0xb9c3f0cd	-0.0003737271
204	0xbea8568c	-0.3287853
205	0x3e052b19	0.13004722
206	0x801f95e3	-2.90067e-39
207	0xbca8969e	-0.020579632
208	0xbf9d818d	-1.2305161
209	0x3db4ade4	0.088222295
210	0x3e65082a	0.22366396
211	0xbdfff68a	-0.124981955
212	0x3dbe1e0c	0.09283075
213	0x3eb83115	0.35974947
214	0xbebcff49	-0.36913517
215	0x001e55b9	2.785816e-39
216	0xbe49d9c5	-0.19711979
217	0xbead8258	-0.33888507
218	0x3da1ffd3	0.07910123
219	0xbf30290b	-0.68812627
220	0x3f28f119	0.65992886
221	0x3e78e638	0.24306571
222	0x3f2325ba	0.6372944
223	0xbe380b33	-0.17973022
224	0x001a722a	2.428677e-39
225	0xbe1dddce	-0.15416643
226	0xbea7ee47	-0.3279898
227	0xbc18ad23	-0.009318623
228	0x3adbf404	0.0016781096
229	0x3f8e76d0	1.1130009
230	0x39c17730	0.0003690063
231	0xbfd7518c	-1.6821761
232	0xbf36f2c2	-0.7146417
233	0x8043fdb9	-6.243997e-39
234	0x3cc2055b	0.023684194
235	0xbf0a3301	-0.53984076
236	0x3bf073ce	0.0073380237
237	0xbdc6ccb9	-0.097070165
238	0x3d34f4d0	0.044178784
239	0xbdc1a106	-0.09454541
240	0x3cb8da85	0.022565136
241	0x3f213821	0.6297627
242	0x00402625	5.891155e-39
243	0xbf2cd063	-0.6750547
244	0x3f3a1144	0.72682595
245	0xbecb47ec	-0.3970331
246	0xbedd769a	-0.43254548
247	0xbf01e779	-0.50743824
248	0x3abd254e	0.0014430673
249	0xbf28d1ab	-0.6594493
250	0xc00bffa8	-2.187479
251	0x803be3ba	-5.499987e-39
252	0x3e93a6bf	0.28838155
253	0xbf52b3a7	-0.8230538
254	0x3b97ecf0	0.0046363994
255	0xbdd2721d	-0.10275672

layers.0.fc_self.weight f4 [64, 9]
0	0xbfd5496d	-1.6663033
1	0x3e9ed8b5	0.3102471
2	0x3c21daea	0.009878853
3	0xbe89ef71	-0.26940492
4	0xbec3eedb	-0.3826817
5	0x39178837	0.00014451226
6	0x803d3c8a	-5.623683e-39
7	0x0028ed25	3.758491e-39
8	0x001f8cbd	2.897388e-39
9	0x3d447156	0.047959648
10	0x3e304dce	0.1721718
11	0xbf15b71a	-0.58482516
12	0xbed11861	-0.40838912
13	0x3dc220b0	0.09478891
14	0xbc015503	-0.0078938035
15	0x3b4a8f39	0.0030908121
16	0xbce99955	-0.028515497
17	0xb9462e1f	-0.00018899933
18	0xbd3fea64	-0.04685439
19	0x3f1d1d14	0.61372495
20	0x3a50caca	0.0007964788
21	0xbe55fcff	-0.20897292
22	0xbec8c484	-0.3921243
23	0xb6d58809	-6.3637312e-06
24	0x3d823a37	0.0635876
25	0xbd165e17	-0.036710825
26	0xb68654df	-4.0033915e-06
27	0xbf777264	-0.9665892
28	0xbfe5e2cd	-1.7959839
29	0xbfbbabdc	-1.4661822
30	0xbe48e545	-0.1961871
31	0x3f780af5	0.9689172
32	0xbda22e90	-0.07919037
33	0x0013d9f2	1.823058e-39
34	0x000aeefe	1.004089e-39
35	0x002abf01	3.92561e-39
36	0xbed8c750	-0.42339563
37	0xbf51ee7d	-0.8200453
38	0x3bd8bbcc	0.006614184
39	0x3e6d1aa8	0.231547
40	0x3f59b2e0	0.85038567
41	0x39449695	0.00018748113
42	0x3e5527c0	0.20815945
43	0xbe64a810	-0.22329736
44	0x3866001b	5.483637e-05
45	0xbe93b0e8	-0.28845906
46	0x3f58a930	0.8463316
47	0x3d8b88a5	0.06813172
48	0x3f07ec30	0.5309477
49	0xbf93bc97	-1.1541928
50	0x397792d9	0.0002361046
51	0x3c8d265b	0.017230203
52	0x3e4f4c6f	0.20244001
53	0xb6580ee6	-3.219518e-06
54	0xbe9ce139	-0.3064058
55	0xbe80d7ba	-0.25164586
56	0xbc1a30fc	-0.009411093
57	0x3c6104b9	0.013734036
58	0x3ece7c26	0.40329093
59	0xb83d9e0b	-4.52083e-05
60	0x3e678aea	0.22611585
61	0xbf161657	-0.5862784
62	0x389ba5cb	7.421857e-05
63	0xbe3f247f	-0.18666266
64	0x3e0e5aad	0.13901778
65	0x3bc4899e	0.0059978506
66	0xbd2c8a88	-0.0421243
67	0xc0271497	-2.6106317
68	0x38349f37	4.3063625e-05
69	0xbe315134	-0.17316133
70	0xbf3c49b2	-0.7354995
71	0x3785c997	1.5948708e-05
72	0xbf9c44b7	-1.220847
73	0x3d90ae10	0.0706445
74	0x3c63ccb7	0.013903788
75	0xbefdf098	-0.4959762
76	0x3e37c596	0.17946467
77	0xbe49b221	-0.19696857
78	0x801ceb3a	-2.655777e-39
79	0x0035b346	4.931592e-39
80	0x0028e20d	3.754512e-39
81	0x3cb247aa	0.021762688
82	0x3d97cae4	0.07411745
83	0xbfd67ee8	-1.6757479
84	0xbc245dea	-0.0100321565
85	0x3f14687f	0.5797195
86	0x38e11b85	0.00010733962
87	0x8027f9ae	-3.671153e-39
88	0x801eedb8	-2.840342e-39
89	0x0024f7db	3.394992e-39
90	0x3ecff8ac	0.4061941
91	0xbef0fa61	-0.47066024
92	0x3c18ff54	0.009338219
93	0x3d820a72	0.063496485
94	0xbf93d330	-1.1548824
95	0x39366637	0.0001739495
96	0x3dd28652	0.10279526
97	0xbe9a1486	-0.30093783
98	0x39a0ec9b	0.00030693863
99	0xbeb9691f	-0.36213014
100	0x3f53942d	0.82647973
101	0xc007d66c	-2.1224623
102	0x3fd2b778	1.646224
103	0xbf534512	-0.8252727
104	0x3b82fcda	0.0039974274
105	0xbd885254	-0.06656328
106	0x3d117a30	0.035516918
107	0xb551e28d	-7.818824e-07
108	0xbf73ed7a	-0.95284235
109	0xbfd3a1d7	-1.6533765
110	0xbb894c94	-0.004190037
111	0xbea0c28e	-0.31398433
112	0x3fbab78f	1.4587268
113	0xbd4cfc7d	-0.05004548
114	0x001c8af7	2.621245e-39
115	0x00255923	3.42989e-39
116	0x003426b0	4.789324e-39
117	0x3b2aebbf	0.0026080457
118	0xbf299d85	-0.6625598
119	0x3af79582	0.0018889161
120	0xbc0a6ed6	-0.008449277
121	0x3f220d0a	0.63301146
122	0xb7e9832b	-2.7836844e-05
123	0x8018eab0	-2.288242e-39
124	0x803b2919	-5.433037e-39
125	0x000858b6	7.66507e-40
126	0xbf4c18db	-0.79725426
127	0xbf4386cd	-0.76377565
128	0xbdae8dc0	-0.085231304
129	0xbe79958a	-0.24373451
130	0xbf20e864	-0.628546
131	0xba3ff2c6	-0.0007322248
132	0x003ed17e	5.768952e-39
133	0x0006ecda	6.3598e-40
134	0x00055ada	4.91769e-40
135	0xbe29107a	-0.16510192
136	0x3f6625e5	0.8990157
137	0x3d1d006c	0.03833048
138	0x3de9f749	0.11424119
139	0xbf552d87	-0.83272594
140	0x3967e9f7	0.00022117035
141	0x3df3d586	0.11905961
142	0xbdf29e95	-0.11846653
143	0xb6fe1f63	-7.573444e-06
144	0xbf7dfb6c	-0.99211764
145	0x3ec6d949	0.3883765
146	0x3cf090cf	0.029365925
147	0x3d632c7c	0.055462345
148	0xbef1c269	-0.47218636
149	0xbea3e070	-0.3200717
150	0x3dde735a	0.10861845
151	0x3d2325ed	0.03983109
152	0xb651fcfa	-3.1290679e-06
153	0x3f107a1c	0.56436324
154	0x3e2ca013	0.16857938
155	0x3dbdde90	0.09270966
156	0x3f1459ad	0.57949334
157	0xbf5d77de	-0.8651103
158	0xb8489a50	-4.782743e-05
159	0xbef60f58	-0.4805858
160	0x3dbc28c9	0.09187467
161	0xb5f78b36	-1.844345e-06
162	0x812cbf28	-3.1728559e-38
163	0x81e0ec08	-8.262329e-38
164	0x81a6c490	-6.1260823e-38
165	0x82aaa6f1	-2.5075075e-37
166	0x829b33d0	-2.2804942e-37
167	0x87533883	-1.5890483e-34
168	0x800fbf68	-1.446196e-39
169	0x80442850	-6.259275e-39
170	0x000a19a0	9.27547e-40
171	0xbece6418	-0.4031074
172	0x3eea23a0	0.45730305
173	0xbb382772	-0.0028099683
174	0x3d57736c	0.05260031
175	0xc06d9f51	-3.712849
176	0x38cb7967	9.702407e-05
177	0xba6b432a	-0.0008974547
178	0xbeef55ac	-0.4674505
179	0x3982e9c9	0.00024969716
180	0xbdaab3b4	-0.08335057
181	0x3d02acf3	0.03190322
182	0x3bf8ebcd	0.007596469
183	0x3d7e9275	0.06215139
184	0xc0179b01	-2.3688357
185	0xb99aa9b4	-0.00029499608
186	0xbdb7c32a	-0.089727715
187	0xbfaa4c32	-1.3304503
188	0x3397e002	7.072232e-08
189	0xbe12068c	-0.1426031
190	0xbccde132	-0.025131796
191	0x3c7d08f1	0.015444026
192	0xbe80d0cc	-0.251593
193	0x3e1eb16c	0.15497369
194	0xbda020e9	-0.07818777
195	0x3ddadf8e	0.10687171
196	0xbc2a5a39	-0.010397487
197	0xb69fc79e	-4.7618078e-06
198	0xbe53f462	-0.20698693
199	0x3ee864a2	0.45389277
200	0x3a48d33b	0.00076608703
201	0xbefde0d8	-0.49585605
202	0xbece54a1	-0.40298942
203	0x39576cb4	0.00020544493
204	0xbe2787e0	-0.16360426
205	0xbf46abf1	-0.7760611
206	0x3838758b	4.397849e-05
207	0xbf48f193	-0.78493613
208	0xbf8177b2	-1.0114653
209	0xbfd3a344	-1.65342
210	0xbe4fdd49	-0.20299257
211	0x3fc85ca8	1.5653276
212	0xbdbc5647	-0.091961436
213	0x003fd6b7	5.862661e-39
214	0x003785d0	5.098955e-39
215	0x801f65d4	-2.88343e-39
216	0xbd829a8f	-0.06377136
217	0xbf89bb99	-1.0760375
218	0x3bea9b9c	0.0071596634
219	0xbf13e392	-0.5776912
220	0x3f227adb	0.6346871
221	0xbe7214da	-0.23640767
222	0x00271612	3.589502e-39
223	0x00294182	3.788755e-39
224	0x80021aa0	-1.93222e-40
225	0xbe3efd8f	-0.18651412
226	0x3eb7c6da	0.358939
227	0x372f1b6a	1.0437196e-05
228	0x3ba6dcbb	0.005092231
229	0xbf9a3615	-1.2047755
230	0xba0b5ded	-0.0005316425
231	0xbae350d5	-0.0017342815
232	0xbf528d4f	-0.8224687
233	0x3943f396	0.00018687392
234	0xbb23be64	-0.0024985308
235	0x3ed356b8	0.412771
236	0x3c853bfa	0.01626395
237	0x3e44d227	0.19220792
238	0x3de69ced	0.112604
239	0xbe04734d	-0.12934609
240	0x3dc14563	0.094370626
241	0x3e3c62ee	0.18397114
242	0x388fe056	6.860557e-05
243	0xbccc728b	-0.024956962
244	0x3cc31279	0.02381252
245	0xbefb9714	-0.491387
246	0xbe1f6d0c	-0.15568942
247	0x3f916332	1.1358397
248	0xba3d8437	-0.00072294794
249	0x3ee35b52	0.4440561
250	0xbe3e4579	-0.18581189
251	0x36a2ccc9	4.8518164e-06
252	0xbf12a32f	-0.5728025
253	0xbcdbadfd	-0.026816363
254	0x3a9a466e	0.0011770257
255	0xbe72ee3c	-0.23723692

layers.0.fc_self.bias f4 [64]
0	0xbe61bf80	-0.22045708
1	0x3cac1bdc	0.021009378
2	0xbce593af	-0.028024523
3	0xc01d33a5	-2.4562771
4	0x3d03df0a	0.03219513
5	0x3ed8cfa9	0.42345932
6	0x3ec5b4cb	0.38614497
7	0x3f8aa201	1.083069
8	0xbe4e431a	-0.20142785
9	0xc019d117	-2.4033868
10	0x3f004be6	0.5011581
11	0x3e698561	0.22804786
12	0xc047d5d6	-3.1224265
13	0xc0020111	-2.031315
14	0xbf5af42f	-0.85528845
15	0x3ebdcd17	0.37070534
16	0x3f13aae3	0.5768263
17	0x3f049bd2	0.5180026
18	0x813091c0	-3.2430665e-38
19	0x3f03a17e	0.5141829
20	0x3feb2560	1.8370781
21	0xbdb959b5	-0.090503134
22	0x3f739ca6	0.951609
23	0xc049c8f0	-3.1528893
24	0xbe9df82e	-0.3085341
25	0x3f524ff3	0.8215324
26	0x3f633282	0.88748944
27	0xbe8fd994	-0.28095686
28	0x3febc608	1.8419809
29	0x3f1d2c74	0.61395955
30	0x3eaecab0	0.34139013
31	0x3e4f700a	0.20257583
32	0xbdda1978	-0.10649389
33	0x3f1630e7	0.5866837
34	0x3f9ba777	1.2160481
35	0xc00861c8	-2.130968
36	0x3fa49456	1.2857769
37	0x3fc4dfc0	1.5380783
38	0x3f557fd4	0.83398175
39	0x3f8cf32d	1.1011711
40	0x3e9d33fc	0.30703723
41	0xbecbb4b5	-0.39786306
42	0x3fe19cb2	1.7625945
43	0xbe9132f4	-0.28359187
44	0xc01109b1	-2.2662165
45	0xbfc42bfe	-1.5325925
46	0xbeaf4330	-0.34230947
47	0x3f5b1dfb	0.8559262
48	0xbea84c53	-0.3287073
49	0xbe1c108a	-0.15240684
50	0x3f0abf6b	0.5419833
51	0x3f7647be	0.9620322
52	0x3f40b6ed	0.7527912
53	0x87fb6a75	-3.7828852e-34
54	0x3fedc823	1.8576702
55	0xbeb10fea	-0.34582454
56	0x3f48c6d5	0.78428394
57	0x3f322bbd	0.6959799
58	0x3dc6981a	0.0969698
59	0xbfc81072	-1.5630019
60	0x3f25bfb7	0.6474566
61	0x3cfd10c2	0.03089178
62	0x3e2c07e3	0.16799884
63	0x3f2f3d4b	0.684529

layers.1.fc_neigh.weight f4 [1, 64]
0	0x3f69a8da	0.9127327
1	0x3f80a9f6	1.0051868
2	0x3f0caeab	0.5495402
3	0xbf84896b	-1.0354437
4	0xbf3bb906	-0.733292
5	0x3d1b9e20	0.037992597
6	0xbf9ff29b	-1.2495912
7	0xbe73b055	-0.23797734
8	0x3e54514f	0.20734142
9	0xc0734661	-3.8011706
10	0xbe173ccb	-0.14769284
11	0x3c2a940e	0.010411276
12	0xbeecfbbe	-0.46285814
13	0xc079fb81	-3.9059756
14	0x3ee95435	0.45572057
15	0x3db0609b	0.08612176
16	0x3d0115d7	0.03151497
17	0x3c7b38e7	0.015333391
18	0x871f3fff	-1.1980637e-34
19	0xbf37b1d1	-0.717557
20	0xbe27c813	-0.16384916
21	0x3ea5e388	0.32400155
22	0x3f20b328	0.6277337
23	0xbe80c876	-0.2515294
24	0xbe8d3b09	-0.27584103
25	0xc03be108	-2.9356098
26	0x3d086063	0.033295047
27	0xbec4413f	-0.3833103
28	0xbf35e863	-0.7105772
29	0x3d81748e	0.06321059
30	0x3d3d182d	0.046165634
31	0x3e763422	0.24043325
32	0x3f3ab6b4	0.7293503
33	0x3e14b099	0.14520492
34	0xbc0d2f84	-0.008617286
35	0xbe469d25	-0.19395883
36	0xbe3029f6	-0.17203507
37	0xbc9af122	-0.01891381
38	0x3dc127e8	0.0943144
39	0xbbd7ad91	-0.00658197
40	0xbe573ec4	-0.21020037
41	0xbecdbe76	-0.40184373
42	0xbdf3842e	-0.11890446
43	0x3f1ac572	0.6045753
44	0xc02545da	-2.5823884
45	0xbfdae213	-1.7100242
46	0x3f04e388	0.51909685
47	0x3dd6027a	0.10449691
48	0x3efaba6f	0.48970363
49	0x3e9fe527	0.31229517
50	0x3cafdd03	0.021467691
51	0x3df5a58f	0.119944684
52	0xbd365517	-0.04451474
53	0x868278cd	-4.9078066e-35
54	0xbd99ddb4	-0.0751299
55	0xbee6ff99	-0.4511688
56	0xbcfafb8c	-0.030637525
57	0xbcc64711	-0.024203809
58	0xbf65c06f	-0.89746755
59	0xbd37e4a4	-0.044895783
60	0x3e27e1d9	0.16394748
61	0xbf414980	-0.7550278
62	0x3ea4e316	0.32204503
63	0xbcad9b11	-0.021192105

layers.1.fc_self.weight f4 [1, 64]
0	0xbdc4fdbb	-0.09618708
1	0x3f41aab7	0.75651115
2	0x3e6780fe	0.226078
3	0xbf4b7e76	-0.7948984
4	0xbe83ba95	-0.25728288
5	0x3ced22a9	0.028947191
6	0xbf2e1d2c	-0.6801326
7	0xc0839de9	-4.113026
8	0x3eafc74a	0.34331733
9	0xc09c22fd	-4.879271
10	0xbfce10ac	-1.6098838
11	0x3c0db761	0.008649678
12	0xbed5b5b0	-0.4174018
13	0xc09cf250	-4.904579
14	0x3ea48532	0.3213287
15	0x3d82443d	0.06360672
16	0x3cdfeffb	0.027336111
17	0x3c38ba43	0.011274877
18	0x878bf7fb	-2.1060145e-34
19	0xc0a127dc	-5.0361156
20	0xc08aa180	-4.3322144
21	0x3ecd81cf	0.401381
22	0xbf0ade9d	-0.5424593
23	0xbeb7d8a4	-0.3590747
24	0xbe1d7c02	-0.15379336
25	0xbfe5d21f	-1.7954749
26	0xc00c6588	-2.193697
27	0xbec396b0	-0.38200903
28	0xbfe7ef6b	-1.811994
29	0x3cfdae7f	0.030966995
30	0x3e5262dc	0.20545524
31	0xc02eb03f	-2.7295072
32	0xbdcf696f	-0.10127532
33	0x3d5a37f6	0.053276025
34	0xbc0119d7	-0.007879696
35	0xbd4bf9e1	-0.04979885
36	0xbfe1209b	-1.7588075
37	0xbd14c9f2	-0.036325403
38	0x3e405f73	0.18786411
39	0xbeafd8c9	-0.3434508
40	0xbea42a09	-0.3206332
41	0x3f0931f9	0.5359188
42	0xbf2327ba	-0.6373249
43	0x3e299f37	0.16564642
44	0xc030fdb4	-2.7654848
45	0xbf7da3c6	-0.99078023
46	0x3dcf06b2	0.10108699
47	0x3e2f54d4	0.17122203
48	0xbde7d47b	-0.11319824
49	0x3e80fdde	0.25193685
50	0x3c808a1a	0.015690852
51	0x3dc50fde	0.09622167
52	0xbf3dff0e	-0.7421731
53	0x05b9f5c7	1.7487601e-35
54	0xc002f235	-2.0460331
55	0xbe0eee69	-0.13958134
56	0xbf45609c	-0.7710054
57	0xbf6d83ba	-0.92779124
58	0xbf53907f	-0.8264236
59	0xbc9a18c6	-0.018810641
60	0xbf5ff9ee	-0.8749074
61	0xbf44b2f8	-0.76835585
62	0x3d28b2af	0.04118603
63	0xbf97fe15	-1.1874415
