N0-Noise/weight_25/best_model_no_noisse_weight_25.pth (torch, 8143 bytes, 5 tensors)

layers.0.fc_neigh.weight f4 [64, 9]
000000 b6 b6 2d bf 2e 9e 5c bf 02 7e a2 3d 06 ae f0 bc
       -0.6785692 -0.86178863 0.0793419 -0.029379856
000010 7b 57 3c bf 4f 4b 49 be a8 91 bd be 20 b6 34 be
       -0.73570985 -0.19657634 -0.3702519 -0.176476
000020 af e3 27 80 7a b9 03 3e 9c af 8e 3f 32 9f ae ba
       -3.663262e-39 0.12863722 1.1147342 -0.001332259
000030 98 70 af bd c7 55 f8 be a9 95 d1 ba ac 89 d8 bd
       -0.085663974 -0.48502943 -0.0015990037 -0.10573134
000040 e2 f3 6c 3f de 70 26 00 92 1c 3c be 6a 02 d4 3f
       0.92559636 3.530238e-39 -0.18370274 1.6563237
000050 ed 14 d6 b9 e6 c4 34 bf e4 c5 66 bf 51 0a e6 39
       -0.00040832852 -0.70612943 -0.9014571 0.00043876705
000060 13 37 8e 3e cd e2 0f bf 98 0c 17 00 9f f7 4a bf
       0.27776393 -0.56205446 2.116734e-39 -0.7928409
000070 4f 34 3e 3f 08 f7 59 bd 14 af bf 3d c4 a4 85 be
       0.74298567 -0.053214103 0.093595654 -0.2610227
000080 76 93 d1 bc 1d 3e 3b bf b6 fc db bd 6d 07 09 80
       -0.02558301 -0.7314165 -0.1074156 -8.29183e-40
000090 27 cd 43 80 1f aa 05 80 8c 29 da 81 73 79 30 00
       -6.226573e-39 -5.20205e-40 -8.014017e-38 4.451672e-39
0000a0 5d 66 01 00 e3 0b 30 00 71 a3 e5 bc a7 a4 9c bc
       1.28557e-40 4.412368e-39 -0.028032036 -0.019121481
0000b0 5f c3 10 80 25 5e 95 bf 35 67 73 3f f3 e6 fc 3e
       -1.539454e-39 -1.1669356 0.95079356 0.4939495
0000c0 fc 87 52 3f c8 f7 07 3e 28 0a 33 bb 2d cf f7 bf
       0.82238746 0.13278115 -0.0027319286 -1.93601
0000d0 00 d6 5a 3f 3b f4 38 80 c3 8b b5 bd 2a bd 81 3f
       0.8548279 -5.230401e-39 -0.08864548 1.0135853
0000e0 76 23 0e 3d 99 99 0e be a4 bb 6b 3e 94 3c d6 ba
       0.034701787 -0.1392578 0.23020798 -0.0016344958
0000f0 ae 9f 70 bf b2 46 aa 3f 5e db 19 80 b0 9c 3c bf
       -0.9399365 1.3302824 -2.374582e-39 -0.73676586
000100 ed a5 01 3f a2 96 fd 3c 09 7c 99 3c 83 5a 91 be
       0.5064381 0.030955616 0.018735902 -0.28389367
000110 6c 08 e2 39 c0 be 8b bf 0d 9b 2f 3f c8 f8 33 80
       0.00043112354 -1.0917587 0.68595964 -4.772856e-39
000120 1d b7 21 8f 51 88 5c 8e 87 03 c3 8f f7 6b c6 8c
       -7.973179e-30 -2.7182728e-30 -1.9229843e-29 -3.057171e-31
000130 21 5f 95 0d b5 c2 d3 92 46 5d 3a 8e 68 24 31 8e
       9.205735e-31 -1.3363971e-27 -2.297118e-30 -2.1834463e-30
000140 b2 9b 0c 00 e9 c4 09 3f 05 ed 82 bf ec f8 d7 3b
       1.157879e-39 0.53816086 -1.0228583 0.006590953
000150 d2 46 b7 bd 3b ef ae 3d 18 0c ad 3a b1 79 b7 3f
       -0.08949055 0.08541723 0.0013202457 1.4334012
000160 7b d4 41 3f 59 3d 29 00 de 3e 06 3e 9a 62 fc 3e
       0.75714844 3.787263e-39 0.1310992 0.49293977
000170 c4 a6 52 be cc ac 25 3e e0 5e 9b be 79 42 09 3e
       -0.20571429 0.16179198 -0.3034582 0.13404264
000180 9f 41 13 be b3 42 b4 be 54 30 34 80 01 54 05 3e
       -0.14380501 -0.35207137 -4.792783e-39 0.13020326
000190 dd dc b8 3e 15 1b 3b 3e cc 17 e4 be 30 c0 40 3d
       0.36106005 0.1827205 -0.44549406 0.047058284
0001a0 d3 79 4f bf f3 23 1f 3e 35 8f f3 bb 9f f6 30 80
       -0.81045264 0.15541057 -0.007432843 -4.496575e-39
0001b0 db be bb be 22 a0 62 bf 5e 17 ce 3a 1e ce d0 3a
       -0.3666905 -0.88525593 0.0015723517 0.0015930568
0001c0 ba b8 1a be 35 51 39 39 98 c5 00 be 87 b0 d7 bf
       -0.1510953 0.00017673227 -0.12575376 -1.6850747
0001d0 f8 75 17 80 d6 60 70 3e 32 da 8f bd 69 2d fd 3a
       -2.154536e-39 0.2347444 -0.07024039 0.0019315901
0001e0 b9 2b 0e bf 8c 90 22 3f b5 fb 0c 3a 51 38 07 3f
       -0.55535465 0.6350181 0.00053780834 0.52820307
0001f0 71 41 b9 be 76 bd 0c 80 63 5f 0d 40 ce 38 ed bf
       -0.3618274 -1.169992e-39 2.208947 -1.853296
000200 5c a0 b8 3d be 0b 4f bf 3c e9 89 bf 01 6f 67 b9
       0.09014961 -0.8087729 -1.0774302 -0.00022071229
000210 65 54 09 40 c8 c4 b5 3f 88 8d 3c 80 55 1a 8b bf
       2.145776 1.4200678 -5.560902e-39 -1.0867411
000220 11 68 e7 3e 6a 81 ad 3b df 7d 3a be 29 f8 94 3e
       0.45196584 0.0052949684 -0.18212079 0.2909558
000230 43 da 31 ba 98 20 b4 bf 3a 82 c7 3e 8c 2d 0d 00
       -0.00067845377 -1.4072447 0.38966542 1.2102e-39
000240 c4 f6 c6 bd b4 6b ce bf 5e e8 92 bf 49 cc 84 bf
       -0.097150356 -1.6126618 -1.1477163 -1.0374843
000250 55 24 c4 bd 95 c2 dd bf db b7 89 3d c6 84 38 3e
       -0.09577242 -1.7325007 0.06724521 0.18019399
000260 b6 8e 2d 00 27 97 2e bf 0b 2c 28 c0 69 09 ae 3c
       4.183792e-39 -0.6819939 -2.6276882 0.021244721
000270 5e 58 7c be a1 49 b4 3e 57 46 ab 3d 41 72 6b bf
       -0.24643084 0.35212424 0.08363026 -0.9197121
000280 a0 1f 96 bf 25 12 36 80 82 1a e4 be e7 bc a4 3e
       -1.1728401 -4.965626e-39 -0.44551474 0.3217537
000290 11 56 60 3c 9f c2 6e 3e 0a 0c 20 3f 69 42 82 be
       0.013692395 0.2331643 0.6251837 -0.25441292
0002a0 4e 39 4b 3e e7 1c cc be 47 66 08 80 f2 4e 3c 40
       0.19846079 -0.398658 -7.71374e-40 2.9423184
0002b0 93 27 ec bf d8 26 fc 3e 6f 2d 73 bf 7d 30 47 3e
       -1.8449577 0.49248385 -0.949912 0.1945209
0002c0 a9 48 44 bd 8c 07 ef 3f 73 72 22 3f 94 aa 17 80
       -0.047920857 1.8674178 0.63455886 -2.173408e-39
0002d0 1e 14 b3 bf cd b8 b9 3f 56 54 60 3f f7 b7 98 3f
       -1.3990514 1.4509522 0.87628686 1.1931142
0002e0 b9 fa 8e 3f dc ed 78 bc 61 39 9c bf 21 8e 14 3f
       1.1170264 -0.015193429 -1.2205011 0.5802937
0002f0 7a 14 08 80 91 b5 5a 3e e8 be 80 3e 74 41 09 3a
       -7.4203e-40 0.21358325 0.2514565 0.00052358885
000300 76 f1 13 bf 6a f0 9d bc e9 e1 58 3e 7e 3d a5 3e
       -0.57790315 -0.019279677 0.21179928 0.32273477
000310 09 53 94 3d fe f2 1d 80 26 d0 1f 3f b5 ae 8f bf
       0.072424 -2.750399e-39 0.62426984 -1.1225191
000320 e4 40 98 3c 8e 87 9d be 78 8f e3 be 51 89 c2 39
       0.01858563 -0.30767483 -0.44445395 0.00037104872
000330 50 13 cc 3d df 8c 09 3e a8 2f 0e 80 c8 89 8a bf
       0.09964621 0.13432644 -1.302793e-39 -1.0823298
000340 0e dc a0 3f d2 a1 a6 3e 81 d0 6a 3f 9a e2 02 be
       1.2567155 0.32545334 0.917244 -0.12781754
000350 19 5d 4c ba e7 39 cc bf 43 87 78 3f 87 2b 1f 00
       -0.0007795855 -1.595517 0.97081393 2.862515e-39
000360 6d 8a 13 bf a3 26 50 3e 6c 1d 6e 3c d9 d4 6a bd
       -0.57633096 0.20327239 0.014533382 -0.057331894
000370 e0 6b 27 be ec e9 d2 39 52 e6 c8 bf 4e 1a 73 3f
       -0.16349745 0.00040228607 -1.5695288 0.9496201
000380 44 02 13 00 9c b3 fc bc 30 dd 6a be 4a 7e cf ba
       1.745687e-39 -0.030847363 -0.22935939 -0.0015830484
000390 12 4e 9c 3d b3 14 83 be 23 26 3a b9 bc 9d cf bd
       0.07632078 -0.2560173 -0.0001775255 -0.10137507
0003a0 56 4e 8b bf fe 9b 00 00 04 28 8f 3e 90 16 9f 3e
       -1.0883281 5.596e-41 0.27960217 0.310719
0003b0 97 cd 44 bd 20 1d e2 3e 98 ef 64 be ff ac 08 3d
       -0.04804763 0.44162846 -0.22357023 0.033368107
0003c0 78 09 01 c0 ac 44 23 c0 d8 d0 41 00 a7 43 9e be
       -2.016203 -2.5510664 6.044226e-39 -0.3091099
0003d0 9b f7 c9 3f 0e 89 b3 ba c2 63 34 bf 3e 6d 8b bf
       1.5778688 -0.0013697462 -0.7046472 -1.0892713
0003e0 0b 78 8e ba c3 80 4b bf 11 d1 d4 3d a0 2d 14 80
       -0.0010869516 -0.7949335 0.10391439 -1.853077e-39
0003f0 a3 35 70 bf e7 60 84 3f bf e9 15 3d f4 21 88 3e
       -0.93831843 1.0342072 0.03659987 0.26588404

layers.0.fc_self.weight f4 [64, 9]
000000 41 3d e1 be 3a 57 c2 bd 8c f2 58 be e2 8c 28 3e
       -0.43992046 -0.094892934 -0.21186274 0.16459993
000010 7e 3e 9a bf 40 1f a4 ba f3 4e ed bd fe 74 aa 3d
       -1.2050321 -0.001252152 -0.11587324 0.08323096
000020 7c 73 3c 3b a1 81 79 bf 99 4a 60 3e 22 2b d6 3a
       0.0028755357 -0.97463423 0.21903457 0.0016339759
000030 1a 3a a9 3d 4f 22 09 be 7e fb 78 b9 7c a3 23 80
       0.08263035 -0.13391994 -0.00023744811 -3.27289e-39
000040 42 1b 1b 00 62 b5 04 00 3f cd 07 3d 57 0f 41 3f
       2.489337e-39 4.3241e-40 0.033154722 0.7541403
000050 b5 fc 60 38 ca ac d6 bd ff 01 f7 be 5c fb 02 b8
       5.3641113e-05 -0.10482176 -0.4824371 -3.1228512e-05
000060 7b d1 e8 bd e5 ca 04 3e 18 ed 32 00 dd 6d 6a 3c
       -0.1136808 0.12968023 4.676828e-39 0.01430842
000070 01 e2 c1 3f ad 96 0f 3d 2b af ab 3e bf 26 79 3e
       1.5147096 0.035055805 0.3353208 0.24331187
000080 73 a7 1e bd 26 31 8f 3d c2 87 01 3e bb 8d 83 b5
       -0.03873391 0.06991796 0.12649444 -9.80151e-07
000090 eb 75 7e bb 13 36 0f bd d7 8d bc bc 10 a5 9c bc
       -0.0038827609 -0.03496368 -0.023016853 -0.019121677
0000a0 1e 61 f0 bc 46 95 db bc cf 31 b7 3d 6e 47 3e 3e
       -0.029343184 -0.026804578 0.08945047 0.18581936
0000b0 89 f3 94 3b 59 f9 16 be ff 58 a0 3e 5e 5e 09 bd
       0.004545633 -0.14743556 0.313179 -0.03353726
0000c0 10 c7 ad 3f 13 5b 07 bf 50 ef ac 39 5e cf 49 3e
       1.3576374 -0.52873343 0.00032984698 0.1970801
0000d0 7e b8 05 3f 78 f8 4f b7 6b 28 7f 3e 45 56 04 3f
       0.5223464 -1.2396013e-05 0.24917762 0.51694137
0000e0 71 84 97 bf 34 53 9b 3e 96 fb 11 be af af 8a 39
       -1.1837293 0.30336916 -0.14256129 0.00026452306
0000f0 40 94 3b 3d 7c c8 13 3e 7e e5 19 ba 1d 0b 7a be
       0.04579568 0.14431947 -0.0005870684 -0.24418302
000100 0a fd 6e 3f 7c 1f 02 3c 2c bc 88 3e 79 9d 82 bf
       0.93354857 0.007942077 0.26706064 -1.0204307
000110 03 2c 42 38 f5 ca a6 3d 6b fd 95 bc b9 4f 08 ba
       4.6294193e-05 0.0814418 -0.018309316 -0.0005199868
000120 1d 6b 43 8f 68 67 e0 8e b1 87 84 8f a0 4e 40 8e
       -9.6348715e-30 -5.531984e-30 -1.3068471e-29 -2.3703684e-30
000130 17 f8 7c 0e 89 aa de 93 8c c3 4b 8c 69 eb 91 8c
       3.1180849e-30 -5.620884e-27 -1.5697396e-31 -2.248247e-31
000140 f0 e3 43 00 e5 54 b6 3e f7 ad 6f bf 50 cb ed 3a
       6.234747e-39 0.35611644 -0.93624824 0.0018142257
000150 6d 3a 0f bd b5 1b ea bd 1a a4 18 bb cc b0 65 3f
       -0.03496783 -0.11431066 -0.0023291172 0.89722896
000160 3e 4c e0 bd f1 3a f4 3a a2 8a 23 be 34 46 87 3f
       -0.10952042 0.0018633289 -0.15970853 1.0568299
000170 a2 d0 49 bf 24 2a ad bc 05 e6 17 bf e4 10 05 be
       -0.78833973 -0.021138258 -0.59335357 -0.12994725
000180 f9 30 d7 bd 58 3f f1 bd e9 8e a5 b9 14 2d 4c bf
       -0.10507388 -0.1177966 -0.0003157773 -0.79756284
000190 3d e5 ad bd d3 fd 32 be 88 61 8e be 70 80 84 3c
       -0.08490989 -0.17479639 -0.27808785 0.016174525
0001a0 59 0d 8e be 27 f9 06 00 ea 88 0e 80 72 71 06 80
       -0.27744558 6.40392e-40 -1.334812e-39 -5.9171e-40
0001b0 14 40 56 be c7 06 53 bf c4 9a 67 be 65 f7 d1 3b
       -0.20922881 -0.82432216 -0.22617632 0.0064076656
0001c0 d7 10 6c 3f 5f ce fd b8 4e 68 14 00 52 7a 39 00
       0.92213196 -0.0001210242 1.874127e-39 5.278504e-39
0001d0 92 42 28 80 4b 46 29 bd 47 8d 46 be 10 32 94 ba
       -3.697301e-39 -0.041326802 -0.1938983 -0.0011306424
0001e0 06 44 32 be 4a ac 8d 3e c0 9a d5 b8 ad a0 03 3c
       -0.17408761 0.2767051 -0.00010185456 0.008033914
0001f0 a1 fd e0 be d4 12 16 3a a3 6e 19 3f 44 86 ba 3e
       -0.43943503 0.00057248515 0.59934443 0.36430562
000200 b2 70 05 3e 8f 69 35 bf bc 4f b3 bf cd e6 0b 3a
       0.13031271 -0.70864195 -1.4008708 0.0005336821
000210 8d c8 21 3f 7f 63 a2 be f8 cf 1a 39 d0 0b 93 3d
       0.6319664 -0.31716534 0.00014764059 0.071799874
000220 f5 e4 14 3f 94 70 90 3c fd c1 55 3e 20 18 87 be
       0.5816186 0.017631806 0.20874782 -0.26385593
000230 57 a8 31 39 32 ce 2c be 42 3f 61 3e 5a 91 1a ba
       0.00016942747 -0.16875532 0.21996787 -0.0005896293
000240 c0 32 11 be 22 e4 86 3f e2 53 92 3b d0 0c 43 bf
       -0.14179516 1.0538371 0.004465566 -0.76191425
000250 af c0 24 bf fb 65 a2 b7 aa 3f 5b 3e af d7 f5 bc
       -0.6435651 -1.9359393e-05 0.21411005 -0.030010073
000260 3b 96 4f 3b 98 7b 03 c0 1d 7a e4 bf a2 79 b3 3c
       0.0031675238 -2.0544186 -1.7849766 0.021908585
000270 a2 93 71 3e f3 19 e7 3f 14 9c a7 bd d0 46 3b 80
       0.23591474 1.8054794 -0.081840664 -5.443697e-39
000280 56 2c 2a 00 d8 44 11 80 24 46 8d be ff 22 b1 bf
       3.872996e-39 -1.5859e-39 -0.27592576 -1.3838805
000290 33 32 33 3d 5c c8 ab be a1 54 d8 3e 79 5c e0 39
       0.043749046 -0.335513 0.42252067 0.00042793507
0002a0 29 d3 e7 3d 54 ed 04 bc 66 a2 69 39 b7 04 b7 3e
       0.113195725 -0.008113224 0.0002228111 0.35745785
0002b0 01 fa 30 3d 33 5d 6b 3d 53 cf 14 bf 14 34 25 bf
       0.043207172 0.05746193 -0.5812885 -0.6453259
0002c0 37 fb 54 3c aa 45 73 bd f7 c0 d9 be 36 f0 ce 37
       0.012999347 -0.05939261 -0.42530033 2.466897e-05
0002d0 e2 a1 90 bf 31 82 87 3f 18 dd 0e c0 f1 d2 db 3f
       -1.1299403 1.0586606 -2.2322445 1.7173749
0002e0 dc 4d e8 bd 54 68 92 3b 83 a0 23 3d 3b 88 33 3e
       -0.113429755 0.0044680033 0.039947998 0.17532437
0002f0 31 a1 3a b7 f4 d6 29 bf 59 7a 83 3e f4 ee 10 3d
       -1.1123994e-05 -0.6634362 0.2567928 0.035384133
000300 15 a3 33 bf d2 e2 48 be e7 f4 4f be 30 73 90 be
       -0.7017072 -0.19617775 -0.20308267 -0.2821288
000310 09 d3 5c 3e bc 41 b2 38 1f a0 9d bd 71 01 75 3d
       0.21564879 8.4999454e-05 -0.07696556 0.059815828
000320 ba 7d 05 3b 4e 27 8f be 66 05 17 be 6b f8 5e b9
       0.0020369128 -0.27959675 -0.14748153 -0.00021264113
000330 65 8d ee 3f 5b 39 14 bf b8 e4 16 3a c7 a3 95 be
       1.86369 -0.5790002 0.00057561276 -0.29226515
000340 96 8c cc 3e 8e 33 7a bc 12 ae 81 3f 8b c0 a7 bf
       0.3995101 -0.015271081 1.0131247 -1.3105634
000350 03 e2 c1 39 bb 61 67 bd ca 36 ca 3e 51 69 fd b6
       0.0003698022 -0.056489687 0.39494926 -7.552248e-06
000360 af 28 29 bd 2d 1c 0d 3f c2 4d 5a 3c 7a e4 59 3e
       -0.041298565 0.5512112 0.013324203 0.21278563
000370 6c 24 0e bf 5a de 76 b8 0d d0 75 bd 83 27 11 bb
       -0.55524325 -5.885805e-05 -0.060012866 -0.0022148795
000380 df 9d 0a ba e5 f7 4e 3d 7c 98 37 be 13 38 5a bf
       -0.0005287807 0.05052938 -0.17929262 -0.8524181
000390 06 f2 62 bd 30 a4 59 3f a6 f9 70 39 91 76 11 00
       -0.055406593 0.85016155 0.00022981185 1.603737e-39
0003a0 f1 25 13 00 a0 6b 36 00 08 8f 53 3d 74 83 d8 3f
       1.758485e-39 4.997725e-39 0.051650077 1.6915116
0003b0 ed 50 c3 bb 4f 07 d9 3d a5 d2 9c bf bb c1 0b bd
       -0.005960575 0.10597097 -1.2251784 -0.034120303
0003c0 09 f8 08 bf 6a 2d 57 bf e7 16 65 39 af 16 c7 bd
       -0.5350347 -0.8405367 0.00021847674 -0.097211234
0003d0 5c db 3b 3f 6c 5e b4 3b 68 16 6a 3e c1 d0 d1 be
       0.7338159 0.00550442 0.2286011 -0.4097958
0003e0 28 6d 98 39 07 2d 07 3e 79 4c 6c 3e 81 e7 22 00
       0.00029073027 0.1320077 0.23076047 3.205455e-39
0003f0 10 3a 26 be 52 70 5d 3f 63 13 c9 3c ea e0 5d 3e
       -0.16233087 0.8649951 0.024545377 0.21667829

layers.0.fc_self.bias f4 [64]
000000 65 3f b8 3d 63 4e 86 bf 12 bd 86 bc d7 78 49 bc
       0.089964665 -1.0492672 -0.016447578 -0.012296877
000010 eb c1 3b 3e e5 b7 85 3d e1 ce 20 3e a1 98 b5 3e
       0.18335693 0.06529216 0.15703918 0.3546801
000020 56 fd e0 8e 01 98 09 3f 00 26 c6 3e b4 82 a8 be
       -5.5464217e-30 0.53747565 0.38700867 -0.3291222
000030 43 da 1c c0 91 30 ef 3e 6b f1 0c 40 a7 68 5e 3e
       -2.4508216 0.4671674 2.202235 0.21719609
000040 3c 60 29 be 04 99 76 c0 7c 57 d9 bd 30 04 f5 3f
       -0.16540617 -3.8530893 -0.106123894 1.9141903
000050 f1 ad 81 3e 64 95 30 3e 7a 77 e2 3f 5d f1 3a 3f
       0.2532802 0.17244488 1.7692711 0.7302454
000060 b3 0a d0 3e 2f a6 4b c0 73 86 c4 3f 69 65 a3 be
       0.40633163 -3.182018 1.5353531 -0.31913307
000070 60 a1 38 3f 50 a2 0f be 1a dd 12 be aa 3b 0f c0
       0.7212124 -0.14026761 -0.14342156 -2.2380166
000080 4c 52 ee 3c 0a 45 a2 3f 30 0a 20 84 73 62 f0 3f
       0.029091977 1.2677319 -1.8812587e-36 1.8780044
000090 73 d8 3b 3f 37 12 73 bf c4 01 7f 3e 7e f4 37 3f
       0.7337715 -0.9494967 0.24903017 0.7185744
0000a0 c5 97 82 3f ad 6d bd be 2e 1a 3d 3e d7 90 28 3f
       1.0202566 -0.36997738 0.18467018 0.6584601
0000b0 2f 9b f5 3e 06 cd fa bf 8d bb 85 3f e1 4f e5 3f
       0.47969958 -1.9593818 1.0447861 1.7915002
0000c0 72 a0 70 bf 0d 88 09 3e 24 5f 1d c0 1b e0 15 bf
       -0.9399482 0.13430806 -2.458932 -0.5854508
0000d0 2e d0 59 3e 0f ee bb 3e e3 ef 5a 3e 0d 77 be 3e
       0.2127082 0.36705062 0.21380572 0.37200204
0000e0 60 ac 92 3e 82 a2 11 3f 2f f9 d6 3f 9d f7 f2 3f
       0.28647137 0.5688859 1.6794795 1.8981816
0000f0 73 2e 6e 3e da 0d d9 3e 8a ad e6 bd 45 3e e9 bd
       0.23259906 0.4239338 -0.11263569 -0.1138883

layers.1.fc_neigh.weight f4 [1, 64]
000000 16 54 08 3f 3b a2 d5 3f 38 4d c6 3e e6 0b a6 3d
       0.53253305 1.6690134 0.38730788 0.08107738
000010 f4 2c 1d 3d f3 23 14 3c 0f c2 d8 3d 3f f2 be 3d
       0.03837295 0.009041774 0.10583889 0.093235485
000020 85 4f 37 8f 67 cd 6d bd d1 1f 2e 3e 1c 49 01 3e
       -9.0379115e-30 -0.058057215 0.17004324 0.12625545
000030 c1 1f 8d c0 5f fe a3 be c9 26 22 bc 48 9d 25 3e
       -4.410126 -0.32030007 -0.009896942 0.1617328
000040 44 cf 90 3f 8e 7f 21 be ea 5b 1d bf 58 ae 3d bc
       1.1313252 -0.15771315 -0.61468375 -0.011577211
000050 9b ab ea 3b 30 f7 5f 3e 44 a5 17 bd 71 60 35 3c
       0.0071615702 0.21871638 -0.037022844 0.011070357
000060 9d b2 05 3e 55 f6 db bf 28 f1 55 be 2b a2 e2 3e
       0.13056417 -1.718455 -0.20892775 0.4426435
000070 b7 ce 88 3d 39 9a 3a 3e 72 c3 00 3d 74 08 b5 c0
       0.06680053 0.18222894 0.03143639 -5.657282
000080 13 da b1 bf dc 96 9d bc 70 90 0d 00 08 6a 6b be
       -1.3894676 -0.019236974 1.245676e-39 -0.22989666
000090 8c 4b 14 3c e6 15 5b be c5 10 2e bf 51 05 f7 3c
       0.009051215 -0.21395072 -0.6799434 0.030153902
0000a0 97 4d e5 3c 4d 74 87 be a3 a3 14 3e 32 56 e3 3c
       0.0279911 -0.26455918 0.14515547 0.027751062
0000b0 4a 85 1c bd 61 53 f5 bf e0 23 3d be 7b d0 0b bd
       -0.03821305 -1.916607 -0.18470716 -0.03413437
0000c0 6b 36 0f 3d 9b 30 ca 3e ab 2b 0b bf 0d 27 16 bf
       0.034964006 0.39490208 -0.5436351 -0.58653337
0000d0 6d 55 ce 3b 25 d3 23 3f 2c d6 91 be 5d 5a fd 3e
       0.0062968046 0.63994056 -0.28483713 0.49483004
0000e0 27 ce 1c 3e 74 6d 13 bf 14 fb f9 bd 7e be 33 be
       0.15313016 -0.5758889 -0.122060925 -0.17553136
0000f0 61 7f 00 3e 2e 93 c0 bd e4 27 8e bd 34 77 d2 bf
       0.12548591 -0.09403072 -0.06941202 -1.6442628

layers.1.fc_self.weight f4 [1, 64]
000000 17 3f 1e c0 b9 0a a4 3e ab e3 2b 3e 88 8a 8a 3a
       -2.4726007 0.3203943 0.16786067 0.001056985
000010 73 0d ba bf b1 c5 bb 3b 97 53 5a 3d aa 64 49 3d
       -1.4535354 0.0057303538 0.053302374 0.049168266
000020 8d e2 bd 90 0a c0 81 bf 4d 18 00 3e 59 2e 2c 3e
       -7.489641e-29 -1.0136731 0.1250927 0.16814555
000030 6f 0c 62 c0 b9 a6 65 bd 0c 11 d0 bd ac e7 5e 3d
       -3.532009 -0.056067202 -0.101595014 0.05442016
000040 e2 09 f8 bf ad e4 7e be 33 6e 0a bf 4d a3 23 bc
       -1.9378016 -0.2489192 -0.540744 -0.009987664
000050 18 b8 ba 3b 29 75 ad bd 0b 85 2a bf 43 0e fa 3b
       0.005698215 -0.08469612 -0.6660926 0.0076310947
000060 72 c2 55 3d 46 33 20 c0 ef 3a db bd 29 83 cc 3d
       0.05218739 -2.5031295 -0.107046 0.09985954
000070 e4 9b 01 3d a7 1c 87 be 77 8c 17 3d b5 74 80 c0
       0.03164281 -0.26389048 0.036999192 -4.0142465
000080 b4 cc 27 bd fa f9 97 bf 7b 69 1c 03 31 da 7f bf
       -0.040966704 -1.1873162 4.5965365e-37 -0.9994231
000090 93 1e b5 3b 47 0c 90 bd 49 d8 01 bf 4d b8 07 c0
       0.0055273264 -0.07033592 -0.5072065 -2.1206238
0000a0 6b 8c a5 bf f1 56 02 bf 51 68 ac bb 67 da f0 bf
       -1.2933477 -0.5091391 -0.005261459 -1.8816651
0000b0 4d 92 82 bf 66 5c 53 bf 33 af 58 c0 c0 1a 98 bd
       -1.0200897 -0.82562864 -3.3856933 -0.07426977
0000c0 a2 37 28 3e 75 ee 30 bc 35 31 86 be 9d f6 dc be
       0.16427472 -0.01079904 -0.26209417 -0.431569
0000d0 f6 c4 90 3b c8 80 14 c0 44 12 98 be a4 46 64 be
       0.004418011 -2.3203602 -0.29701436 -0.22292572
0000e0 1f 0e 27 be 93 2b 86 c0 15 d5 63 c0 fe ca 81 c0
       -0.1631398 -4.192819 -3.5598805 -4.0560293
0000f0 92 51 d9 3d 5e 8a 72 bf 04 db d8 be 4f 1e 23 bf
       0.106112614 -0.9474238 -0.42354596 -0.6371812
