N0-Noise/weight_21/best_model_no_noisse_weight_21.pth (torch, 8143 bytes, 5 tensors)

layers.0.fc_neigh.weight f4 [64, 9]
0	0xbd06961e	-0.032858007
1	0xbe920eb1	-0.28526834
2	0xbaa8006c	-0.0012817509
3	0x3da8df5c	0.082457274
4	0xbe6ab89c	-0.22921985
5	0xb924c588	-0.00015713845
6	0x3e055a5c	0.1302275
7	0xbf8d9fee	-1.1064432
8	0x80215644	-3.061518e-39
9	0x3ff3a388	1.9034281
10	0xbfe580f8	-1.7929983
11	0x3d8ac006	0.06774907
12	0xbedd6540	-0.4324131
13	0xbf8d63e8	-1.1046114
14	0xba3aba6c	-0.0007123116
15	0x3fde6976	1.7375934
16	0x3fe93b1f	1.8221167
17	0x000d3751	1.213705e-39
18	0xbe0cfead	-0.13769026
19	0x3fe2e4e0	1.7726097
20	0x3da8f824	0.08250454
21	0x3f2c5a9b	0.6732575
22	0x3e403936	0.18771824
23	0xbd850b88	-0.0649634
24	0x3d216fc4	0.03941323
25	0x3ebf2667	0.37333986
26	0x80372a02	-5.066022e-39
27	0xbe95ca2c	-0.29255807
28	0xbed95df4	-0.42454493
29	0xbce36611	-0.02775863
30	0x3ddd26e2	0.10798432
31	0x3e4f8fad	0.20269652
32	0x3e85eaf1	0.2615581
33	0x80077510	-6.84843e-40
34	0x00366baf	4.997746e-39
35	0x80029d3e	-2.40079e-40
36	0xbefca71a	-0.49346238
37	0x40065db5	2.0994694
38	0x3f6a3cbb	0.9149892
39	0x3fc5d3aa	1.545522
40	0x3ec14e01	0.37754825
41	0xbb9c1f34	-0.004764462
42	0xbfc7aaed	-1.5599037
43	0x3d1c8fcc	0.038223073
44	0x802827e2	-3.687727e-39
45	0xbdc04ff7	-0.09390252
46	0xbda08a3b	-0.07838865
47	0x3c64b94c	0.013960194
48	0x3dc2b5a7	0.09507304
49	0x3f17afbf	0.5925254
50	0xbdd3742e	-0.10324894
51	0xbc772ac1	-0.015085877
52	0xbf4ccfa4	-0.80004334
53	0x80243478	-3.3249e-39
54	0xbf822cec	-1.0169959
55	0x3f0893dd	0.5335062
56	0x3e7ba372	0.24574068
57	0x3f464be6	0.7745956
58	0x3f60887d	0.87708265
59	0xbb3875ed	-0.002814646
60	0xbfe3e95d	-1.7805592
61	0x3f91a4af	1.1378382
62	0x801b7399	-2.521027e-39
63	0xbd10e7bc	-0.03537725
64	0xbdd49c7a	-0.10381408
65	0xbada7533	-0.0016667008
66	0x3dd3c77f	0.10340785
67	0x3b97c7fb	0.004631994
68	0x3e3c1a65	0.18369444
69	0xbd9b05b5	-0.07569448
70	0x3c11f1be	0.0089077335
71	0x80217823	-3.073668e-39
72	0xbf15a8ad	-0.58460504
73	0xbf9838b8	-1.1892309
74	0x3b056162	0.0020352234
75	0xbc6ecbed	-0.014574987
76	0xbd8e750e	-0.0695592
77	0x393b028c	0.00017834659
78	0x3e31a062	0.17346337
79	0xc02b3b43	-2.675492
80	0x003955be	5.265382e-39
81	0x3e932c35	0.28744665
82	0x3eeaaaeb	0.45833525
83	0x3e3c2f47	0.1837741
84	0xbe632e69	-0.22185673
85	0xbe162252	-0.1466153
86	0xbecb9956	-0.39765424
87	0x3ea81686	0.32829684
88	0xbdb26e76	-0.08712475
89	0x800b766b	-1.052671e-39
90	0x3e839ed4	0.25707114
91	0xbf267a31	-0.650302
92	0xbf1ee226	-0.62063825
93	0xbcb0993d	-0.021557445
94	0x3f597813	0.84948844
95	0x3e3a1087	0.18170367
96	0x3d80881c	0.06275961
97	0xbe0f1889	-0.13974203
98	0x0028ebf3	3.758062e-39
99	0xbea7207d	-0.32641974
100	0xbf9e3cc6	-1.2362297
101	0x3d833262	0.06406094
102	0xbf826f5b	-1.0190233
103	0xbff15b15	-1.8855921
104	0xbfb4c447	-1.4122399
105	0xbea33b14	-0.3188101
106	0x3c594d16	0.013263008
107	0x8042f758	-6.149873e-39
108	0xbca9da2d	-0.020733917
109	0xbdea1382	-0.11429502
110	0x3a828d67	0.0009960354
111	0x3bf89330	0.0075859055
112	0xbe379414	-0.17927581
113	0x37a0682c	1.9121995e-05
114	0x3d492f54	0.0491174
115	0xbf061f9f	-0.52392
116	0x00003de7	2.2206e-41
117	0x3fe8ed72	1.8197463
118	0xbfe5559b	-1.791675
119	0x3db08330	0.08618772
120	0xbf60d53d	-0.87825376
121	0x3f252ae5	0.64518577
122	0xbb4adc97	-0.0030954236
123	0x3fe980f1	1.8242475
124	0x3f10fc0f	0.5663461
125	0x00349f1d	4.832525e-39
126	0xbeb1e040	-0.34741402
127	0x3fcd71bf	1.6050338
128	0xb9d3bc7c	-0.00040385488
129	0xbec8ae78	-0.3919561
130	0xbf6f9eb7	-0.93601555
131	0x39b7c4e6	0.0003505118
132	0xbf0eefcb	-0.55834645
133	0xbd763c90	-0.06011635
134	0x8007a4d7	-7.01982e-40
135	0xbe6007b9	-0.21877946
136	0xbf936141	-1.1514055
137	0x3d1e6a01	0.038675312
138	0xbefa5de7	-0.48899767
139	0x3f1e1521	0.6175099
140	0xbd0ae45c	-0.033909187
141	0x3f87506d	1.0571419
142	0xbe18772f	-0.14889215
143	0x00308ee3	4.459362e-39
144	0x3f3e175a	0.7425438
145	0xbe048602	-0.12941745
146	0x3f37cc8e	0.717965
147	0xbec2bd58	-0.38035083
148	0x3eaa3b41	0.33248332
149	0xbe38e58a	-0.18056312
150	0x3ec15e5b	0.377673
151	0x3d867ffc	0.0656738
152	0x00116f7f	1.6012e-39
153	0x3ed2c411	0.41165212
154	0x3d85abda	0.06526919
155	0xbe1244c7	-0.14284049
156	0x3ed643ba	0.41848546
157	0xbedd538d	-0.43227807
158	0x3d562aaa	0.05228678
159	0x3e26d6af	0.16292833
160	0xbfae924c	-1.3638396
161	0x00169524	2.073882e-39
162	0xbf873cf6	-1.0565479
163	0x3f45f348	0.7732434
164	0x3cc5059e	0.02405053
165	0xbe5d29d6	-0.2159799
166	0x3e520f51	0.20513655
167	0xba259c50	-0.0006317543
168	0xbfcc7cc3	-1.5975574
169	0x3f996eb9	1.1986915
170	0x003a9235	5.378908e-39
171	0xbf19f810	-0.6014414
172	0xbf63290b	-0.887345
173	0xbf7e3bb9	-0.9930988
174	0xbf369819	-0.7132583
175	0xbed6862d	-0.41899243
176	0xbf1b9e21	-0.6078816
177	0x3f88b2ad	1.0679528
178	0x3e974aed	0.2954935
179	0x001514d4	1.936017e-39
180	0x3e5f5378	0.21809185
181	0x3fa7907a	1.3090966
182	0x3f595811	0.84900004
183	0x3f40a48b	0.7525107
184	0xbce5c440	-0.02804768
185	0x3d2a714d	0.04161196
186	0xbfa96f91	-1.3237172
187	0x3f8d6446	1.1046226
188	0x8041777f	-6.012174e-39
189	0xbd2523ab	-0.04031722
190	0x3f4f3237	0.80935997
191	0x3d8cb08c	0.06869611
192	0x3e55f981	0.2089596
193	0x3e81cf0e	0.25353283
194	0xbab8860d	-0.0014078036
195	0xbf80a487	-1.005021
196	0x4002433e	2.0353541
197	0x000f0a1d	1.38116e-39
198	0x3f092a20	0.535799
199	0xbf781588	-0.96907854
200	0x3c72240c	0.014779102
201	0xbdee0608	-0.11622244
202	0xbea5b907	-0.32367727
203	0xb96ec377	-0.00022770265
204	0xbe5224ab	-0.205218
205	0xbe61eabb	-0.22062199
206	0x8037e218	-5.13206e-39
207	0xbf904c67	-1.1273316
208	0x3fca4787	1.5803078
209	0x3f2229ed	0.63345224
210	0x3ff4c075	1.9121233
211	0x3f440858	0.7657523
212	0xbc8e9229	-0.017403679
213	0xbfc7fa6a	-1.5623295
214	0xbda84d50	-0.08217871
215	0x80203419	-2.957425e-39
216	0xbf1b4bd1	-0.6066256
217	0xbe629e2a	-0.22130647
218	0xbc3ce735	-0.011529733
219	0xbecafd3b	-0.39646325
220	0xbe9684b1	-0.2939811
221	0x3c79ffbf	0.0152587285
222	0xbf640998	-0.8907714
223	0xbd87f01d	-0.06637595
224	0x0010a685	1.529104e-39
225	0xbf505851	-0.8138476
226	0x3ffa9b39	1.957862
227	0x3f15ec97	0.5856413
228	0x3f74ae4d	0.9557846
229	0x3f47cc8e	0.780465
230	0xbba6fff3	-0.0050964295
231	0xbff5b623	-1.9196209
232	0xbe21bfe8	-0.15795863
233	0x80090761	-8.29167e-40
234	0x3ff7608e	1.9326341
235	0xc0028c26	-2.039804
236	0x3d87df96	0.066344425
237	0xbf412a3e	-0.7545508
238	0x3dc60782	0.09669401
239	0xbaaa9fa5	-0.0013017548
240	0x3fe8560f	1.8151263
241	0x3f6ff2cc	0.93729854
242	0x0038e02d	5.223207e-39
243	0x3d3805cd	0.044927407
244	0xbe72a28f	-0.23694824
245	0x3b04490b	0.0020185139
246	0xbe1e79d3	-0.1547616
247	0xbf856339	-1.0420905
248	0x3a6c691d	0.00090183486
249	0x3f11fe27	0.5702843
250	0xbf21e556	-0.63240564
251	0x00007f21	4.5605e-41
252	0xbe85d962	-0.26142412
253	0xbf19123a	-0.59793437
254	0xbe9a71c2	-0.30164915
255	0xbe8526fb	-0.26006302

layers.0.fc_self.weight f4 [64, 9]
0	0x3d162651	0.036657635
1	0xbe72da2e	-0.23716041
2	0xbfa65284	-1.2993932
3	0xbd6ee2be	-0.058321707
4	0x3f501786	0.81285894
5	0x39148823	0.00014165095
6	0x802cd36a	-4.116603e-39
7	0x0012c912	1.72517e-39
8	0x801b763f	-2.521977e-39
9	0x3f24ac72	0.6432563
10	0x3d88dc56	0.06682651
11	0x3daaf68f	0.083478086
12	0xbef9b68c	-0.48772085
13	0xbf9a784c	-1.2067962
14	0x3a1a41fa	0.0005884465
15	0x3f7c5dde	0.9858073
16	0x3da22189	0.079165526
17	0x39eddafd	0.00045367322
18	0xbd10068c	-0.035162494
19	0xbf0d1bc3	-0.55120486
20	0xbf55a82e	-0.83459747
21	0x3e3b4d2c	0.18291157
22	0x3e4c8e7e	0.19976231
23	0xbd07001d	-0.032959092
24	0x3e1883c6	0.14894018
25	0xbe1bc88e	-0.15213224
26	0xb9824cbf	-0.00024852713
27	0xbf0f9668	-0.56088877
28	0xbf11e87c	-0.5699537
29	0xbecad8f7	-0.39618656
30	0x3e8d13e3	0.27554235
31	0xbe9888dc	-0.29791915
32	0xbe96cd8c	-0.29453695
33	0x3f257fa9	0.6464792
34	0x3fb1aa4a	1.3880093
35	0x3bb63404	0.0055604
36	0xbf7c1da7	-0.98482746
37	0x3fb0b05b	1.380382
38	0x3ee70e00	0.4512787
39	0x3fe20b15	1.7659632
40	0xbd5741bc	-0.052552924
41	0xbb0b0a99	-0.0021216033
42	0xbde478d4	-0.11155859
43	0x3dd2376b	0.102644764
44	0xb609cc4c	-2.0533507e-06
45	0xbcee85cb	-0.029116532
46	0xbf869982	-1.0515597
47	0xbd4ae420	-0.049533963
48	0x3d4cf18e	0.050035052
49	0x3f1bf5be	0.6092185
50	0xbd7aee8a	-0.061262645
51	0x000b6b25	1.048627e-39
52	0x8014542d	-1.866907e-39
53	0x8028d936	-3.75134e-39
54	0x3c8620d4	0.016373076
55	0xbea41249	-0.320452
56	0x3df702c0	0.120610714
57	0x3f27228f	0.6528711
58	0xbef1d39f	-0.47231767
59	0xb8b00a1d	-8.394218e-05
60	0xbd85d9dc	-0.06535694
61	0x3ef0d493	0.4703718
62	0xb756db55	-1.2806461e-05
63	0xbf16e33a	-0.5894047
64	0xbe698b79	-0.22807111
65	0x3d13afe7	0.036056425
66	0x3ea5de21	0.32396033
67	0xbd9cf2fc	-0.07663533
68	0xbea7c7b2	-0.32769543
69	0xb9f6afda	-0.00047051796
70	0x800694bc	-6.04369e-40
71	0x0042866e	6.109367e-39
72	0xbf348da4	-0.70528626
73	0xbfc0f1f4	-1.5073838
74	0x3c3a079d	0.011354354
75	0x3cb8ddc6	0.022566687
76	0x3f9b996a	1.2156193
77	0xb9346392	-0.0001720323
78	0x801acefd	-2.461976e-39
79	0x8014bd51	-1.904624e-39
80	0x001580d0	1.974755e-39
81	0xbf34dedf	-0.70652574
82	0x3ca3bb23	0.019986695
83	0x3ca5f5f5	0.020258883
84	0xbe4cde0a	-0.20006576
85	0xbdbcd256	-0.09219806
86	0xbec13017	-0.37732002
87	0x00383e2e	5.165094e-39
88	0x80228979	-3.171723e-39
89	0x80206c92	-2.977684e-39
90	0xbf08cb43	-0.5343515
91	0xbf25a6fa	-0.6470791
92	0x3ce05df6	0.027388554
93	0xbdfc9300	-0.123327255
94	0x3f3da729	0.7408319
95	0xbe39af39	-0.18133248
96	0x3df0750a	0.117410734
97	0xbe1e654b	-0.15468328
98	0xba0ae900	-0.0005299002
99	0xbe0584e9	-0.13038982
100	0x3f72deab	0.94871014
101	0x3bc1240e	0.0058941906
102	0xbee6f9f4	-0.45112574
103	0xbed555eb	-0.41667113
104	0xb87fb37d	-6.09639e-05
105	0x3cd40e34	0.025885679
106	0x3dd10b25	0.10207204
107	0x8012363d	-1.672496e-39
108	0xbe4e32f1	-0.2013662
109	0xbf74728c	-0.95487285
110	0xc0009467	-2.0090578
111	0xbb3aaa4f	-0.002848286
112	0x3f82a369	1.0206119
113	0xb8bbd5b7	-8.956662e-05
114	0x00275bdd	3.614539e-39
115	0x001f2592	2.860378e-39
116	0x00341135	4.781619e-39
117	0x3d98b1f7	0.07455819
118	0xbe1dea1c	-0.15421337
119	0x3d08e208	0.033418685
120	0xbf38a2ca	-0.72123396
121	0x3e2aa699	0.16665114
122	0x3aa46a8f	0.0012543964
123	0x3dd410aa	0.10354741
124	0xbedcaead	-0.43102017
125	0x398af6c0	0.00026505254
126	0x3d873e6e	0.066037044
127	0x3fa4347d	1.2828518
128	0x3af7e192	0.001891183
129	0xbec25ed7	-0.37962982
130	0xbf3d4ebb	-0.7394826
131	0xb838120d	-4.388583e-05
132	0xbdd0d344	-0.10196546
133	0xbcdffbce	-0.02734175
134	0xb9ef8429	-0.000456841
135	0xbf013281	-0.5046769
136	0xbef4df11	-0.47826436
137	0x3c302248	0.010750361
138	0xbe553baa	-0.20823541
139	0x3ef1d415	0.47232118
140	0x38497af4	4.8036643e-05
141	0x3d5c44e6	0.053776644
142	0xbe120d54	-0.14262897
143	0x3b41caaf	0.0029570272
144	0xbe0aa81b	-0.1354069
145	0x3f8690f0	1.0512981
146	0x3e5e45c5	0.21706302
147	0x3e206dc9	0.1566688
148	0xbe42b6e1	-0.19015075
149	0x3d3f56d7	0.046713676
150	0x3caab8e4	0.020840116
151	0xbe27a2e7	-0.16370736
152	0x361bdaab	2.3224081e-06
153	0x3ebb93f6	0.36636323
154	0x3f962fea	1.1733372
155	0xbe2412c3	-0.16022782
156	0x3e8de91e	0.27716917
157	0xbf12c7dc	-0.5733621
158	0xbd5c0b7a	-0.053721882
159	0xbf0b87c2	-0.54504025
160	0xbe4ea96d	-0.20181818
161	0x399ab518	0.00029508094
162	0xbe3675fe	-0.17818448
163	0x3f008ca1	0.5021458
164	0x3d0563fb	0.032566052
165	0x3f29f63c	0.6639135
166	0xbf557876	-0.83386934
167	0x39beacc9	0.0003636836
168	0xbe44c2a4	-0.19214875
169	0x3ede54b3	0.43423995
170	0xb78505ba	-1.5857502e-05
171	0x3e45e7a0	0.19326639
172	0xbed29e61	-0.4113646
173	0xbdc94f65	-0.098295964
174	0x3b5f12fd	0.0034038418
175	0xbd815cf6	-0.06316559
176	0x3aa875c7	0.0012852483
177	0x3e48f60b	0.19625108
178	0x3d8142c4	0.06311563
179	0x3baea134	0.0053292755
180	0x3f229632	0.6351043
181	0x3f6a1f3d	0.91453916
182	0x3f26ce8c	0.65158916
183	0x3f3d6cfd	0.7399443
184	0xbe282ab6	-0.16422543
185	0xbcdb3c08	-0.026762024
186	0xbe460210	-0.19336724
187	0x3e8ff974	0.28120005
188	0x358ef0af	1.0649873e-06
189	0x3e8752da	0.26430398
190	0x3edf4c49	0.43612888
191	0xbfa96e3f	-1.323677
192	0x3e71b0e1	0.2360263
193	0xbf1b365c	-0.6062982
194	0x3a1bbe97	0.0005941181
195	0xbebad4ad	-0.36490384
196	0x3f438498	0.76374197
197	0xb854bb2e	-5.0719063e-05
198	0xbec599aa	-0.385938
199	0x3c8fb9e0	0.017544687
200	0x3b666da9	0.0035160577
201	0xbea981dd	-0.3310689
202	0xbe00fe90	-0.12597108
203	0xb9025903	-0.00012430926
204	0x40623af2	3.5348477
205	0x3f3b8dfa	0.73263514
206	0x3a897a5e	0.0010488739
207	0xbfb57458	-1.417613
208	0x3f7ae39a	0.9800354
209	0x3e1dc3ae	0.15406677
210	0x400fef2c	2.248973
211	0x3f4de7c7	0.8043179
212	0x3a5a6688	0.00083313184
213	0xbdf7d84c	-0.12101802
214	0x00290ca8	3.769796e-39
215	0x0011c38a	1.63135e-39
216	0xbe17aa30	-0.14811015
217	0x3ed48bf4	0.41513026
218	0x3de129e1	0.10994316
219	0xbf09344b	-0.5359542
220	0xbeae7e72	-0.34080845
221	0xbd9256f9	-0.07145495
222	0xbe03dbc9	-0.1287681
223	0x8045232f	-6.349271e-39
224	0x80448a10	-6.294341e-39
225	0xbe884d23	-0.2662135
226	0x3f81f686	1.0153358
227	0x3d79c06d	0.060974527
228	0x3fe4e8d4	1.7883554
229	0xbf507eea	-0.81443655
230	0xb9fb7bf5	-0.00047966806
231	0xbe0bcec5	-0.13653095
232	0x3e4c5f17	0.19958149
233	0xb6697bd9	-3.4791794e-06
234	0x3e613dec	0.21996278
235	0x3ee5bda4	0.44871247
236	0x3d925bb8	0.071464
237	0xbf20162c	-0.6253383
238	0xbf237a46	-0.6385845
239	0x3a1aa914	0.00058998284
240	0x3e852460	0.26004314
241	0xbe8fe82f	-0.2810683
242	0x38eded1e	0.00011345207
243	0xbe7581ae	-0.2397525
244	0xbd390a90	-0.04517609
245	0x3b631c52	0.0034654331
246	0xbd919db5	-0.07110158
247	0x3f586853	0.84534186
248	0xb9ee3f0c	-0.0004544187
249	0x3e8e8f8f	0.27843902
250	0x802b7437	-3.990616e-39
251	0x802b16ae	-3.957062e-39
252	0xbf42c44c	-0.76080775
253	0xbeb7b8df	-0.35883233
254	0x3d21cc68	0.039501578
255	0xbe9d85e6	-0.3076622

layers.0.fc_self.bias f4 [64]
0	0xc01c15ea	-2.4388375
1	0x3fdc6c4b	1.7220548
2	0x3e4a47d1	0.19753958
3	0x3e4051ae	0.18781158
4	0x3f1a0441	0.6016274
5	0xbf6ee6af	-0.93320745
6	0x3e149f68	0.14513934
7	0xbf34d80e	-0.70642173
8	0xc03ff074	-2.999051
9	0xbeabacce	-0.33530277
10	0x3e8cc51b	0.2749413
11	0xbd7716ea	-0.060324587
12	0xc017d848	-2.3725758
13	0x3faebfd8	1.3652296
14	0x3e438211	0.19092585
15	0x3db45a89	0.08806331
16	0x3f616817	0.88049453
17	0x3f73b8d4	0.952039
18	0x3e67ae2c	0.22625035
19	0x3e8aab90	0.27084017
20	0x3f8b5a82	1.0886996
21	0x3ebf3462	0.37344652
22	0x3ff13f38	1.8847418
23	0xbe6316ae	-0.2217662
24	0xbf009adc	-0.50236297
25	0x3ef35bcc	0.47530973
26	0x3fbbb748	1.4665308
27	0xbeaece4c	-0.34141767
28	0xbfbb5bd9	-1.4637405
29	0x3fb78883	1.4338535
30	0x3fda5cb9	1.7059547
31	0x3d263424	0.04057707
32	0x3ea307af	0.318418
33	0xb0944762	-1.0788705e-09
34	0xbff5af0c	-1.9194045
35	0xc01fe9ab	-2.498637
36	0x3fc71297	1.5552548
37	0x3ed9abc2	0.42513853
38	0xbe162a79	-0.1466464
39	0x3f04d8bb	0.51893204
40	0x3dcc90b2	0.09988536
41	0x3f970430	1.1798153
42	0x3f133700	0.575058
43	0xbe56f793	-0.2099288
44	0xc017f819	-2.3745177
45	0x3eb47d82	0.35252005
46	0xc0038076	-2.0547156
47	0x3edf5ec7	0.43626997
48	0x3faf6490	1.3702564
49	0x3f2c4262	0.6728879
50	0x3f31c108	0.6943517
51	0xbe30c4fd	-0.17262645
52	0x3c0162c2	0.007897081
53	0x3f3dae41	0.74094015
54	0xbeda459f	-0.42631242
55	0x3f0c07ca	0.54699385
56	0xbdd11aa0	-0.102101564
57	0x3fd84442	1.6895831
58	0x3e589b7c	0.21153063
59	0x3edcffad	0.43163815
60	0x3fedec6a	1.8587773
61	0x3efb412b	0.49073157
62	0x3e553b1e	0.20823333
63	0x3e3e8f99	0.18609466

layers.1.fc_neigh.weight f4 [1, 64]
0	0xbfcdfe33	-1.60932
1	0xbb5fbb52	-0.0034138751
2	0x3e648d82	0.22319606
3	0x3c53de1d	0.012931374
4	0x3b70e202	0.0036755805
5	0xbf7b9720	-0.98277473
6	0x3c41827f	0.011810898
7	0xbe60f5e7	-0.21968804
8	0xbfe743b6	-1.8067539
9	0x3e522909	0.20523466
10	0x3e30a28b	0.17249505
11	0x3f3067eb	0.68908566
12	0xc0e5c32c	-7.1800747
13	0xbd15180c	-0.036399886
14	0x3e7e8a69	0.24857487
15	0xbf93f294	-1.1558404
16	0xbaedb75b	-0.0018136309
17	0xbe192093	-0.14953832
18	0x3d3481b9	0.044069026
19	0xbd8c2f52	-0.06844963
20	0x3b69256a	0.003557528
21	0x3d5eb948	0.054375917
22	0xbb4a8484	-0.003090174
23	0x3b8777f6	0.0041341735
24	0x3d55aa14	0.052164152
25	0x3ba9ad6f	0.0051781456
26	0xbc85ace1	-0.016317787
27	0xbf4b58e0	-0.7943249
28	0xbe55996c	-0.20859307
29	0xbe7b8b09	-0.24564756
30	0x3ac1c1b4	0.001478246
31	0x3f06ec69	0.52704483
32	0x3d41e034	0.047332957
33	0xaf77c2b5	-2.2533693e-10
34	0xc00981b0	-2.1485405
35	0xbf61a579	-0.88143116
36	0xbe48dde2	-0.19615892
37	0x3c5d5bdb	0.01351067
38	0x3f572a96	0.84049356
39	0xc08c0df5	-4.3767037
40	0x3ea7b4c3	0.32755098
41	0xbe8cea3f	-0.27522466
42	0x3bf9947e	0.0076165786
43	0x3f029a5a	0.5101677
44	0xbf8a4073	-1.0800918
45	0xbefebf58	-0.4975536
46	0xbf0d5392	-0.55205643
47	0x3d6e9b21	0.05825341
48	0xbc9fc831	-0.019504638
49	0x3dfc686e	0.12324606
50	0x3ddfb298	0.10922736
51	0xbe64f796	-0.22360072
52	0x3f74c74a	0.9561659
53	0x3d684aa2	0.0567118
54	0x3ef47f45	0.4775335
55	0x3da27c58	0.07933873
56	0xbd264d63	-0.040601145
57	0xbe798db1	-0.24370457
58	0xbedb22bb	-0.42799935
59	0x3e0f2d8a	0.13982216
60	0xbe18fe35	-0.14940722
61	0xbcf88b16	-0.030339759
62	0x3e6c20db	0.23059408
63	0xbe853bb7	-0.2602212

layers.1.fc_self.weight f4 [1, 64]
0	0xc036a1ea	-2.8536325
1	0xbdc9b8ae	-0.09849678
2	0x3ddbae44	0.10726598
3	0xbfd16fd4	-1.6362252
4	0x3b109726	0.0022062748
5	0xbfa17445	-1.2613608
6	0x3c10f68e	0.008847846
7	0xbd1eaffa	-0.038742043
8	0xc00bcf1c	-2.184516
9	0x3dfe4ed2	0.124173775
10	0x3e068746	0.1313754
11	0xbfd165f4	-1.6359239
12	0xc09cb1b5	-4.8966928
13	0xbd887f79	-0.066649385
14	0x3da04c98	0.07827109
15	0xbf079895	-0.52967197
16	0xbb1a2f67	-0.002352679
17	0xbd8e8348	-0.06958634
18	0x3cf4d07d	0.029884571
19	0xbf8ca52a	-1.0987904
20	0xba6da74b	-0.0009065761
21	0x3d30391d	0.043023217
22	0xbf61c65e	-0.8819331
23	0x3b36d2a7	0.0027896555
24	0x3e96932c	0.29409158
25	0x3b6adbf4	0.0035836669
26	0xbdba2493	-0.09089007
27	0xbedc7f9d	-0.4306611
28	0xbd9219fa	-0.07133861
29	0xc08e1a29	-4.4406934
30	0xbe3978cf	-0.18112491
31	0x3e519275	0.20466025
32	0x3d69a8fd	0.057045925
33	0xb224223b	-9.5538395e-09
34	0xc02ba986	-2.682222
35	0xbf167665	-0.58774406
36	0xbfb9dec7	-1.4521111
37	0x3c34d38f	0.011036768
38	0xc0462d9e	-3.0965343
39	0xc02d09ae	-2.7037158
40	0xc049767d	-3.147857
41	0xc08769ad	-4.23165
42	0x3bc57cb4	0.0060268287
43	0x3d95e26f	0.073185794
44	0xbf5b8769	-0.85753495
45	0xc08fa117	-4.4884143
46	0xbf1bb48f	-0.60822386
47	0xbdac7f08	-0.08422667
48	0xbf809254	-1.0044656
49	0x3d8704e8	0.06592733
50	0x3d77a91c	0.06046401
51	0x3f7bb06f	0.9831609
52	0x3e1da268	0.15393984
53	0xc04a732c	-3.1632795
54	0xbe0f0f54	-0.13970691
55	0x3d7322eb	0.059359472
56	0xbf3e2da7	-0.7428841
57	0xc09dbb00	-4.929077
58	0x3cbefeb9	0.02331482
59	0x3dd45e87	0.10369592
60	0xc0564b81	-3.3483584
61	0xbc367dcc	-0.011138391
62	0x3db457f0	0.08805835
63	0xbe9e6122	-0.3093348
