N0-Noise/weight_16/best_model_no_noisse_weight_16.pth (torch, 8143 bytes, 5 tensors)

layers.0.fc_neigh.weight f4 [64, 9]
00000000: 51dc d4be 2eb1 2c3f 8e82 f93d e3f7 21bf
00000010: e925 63bf 4d1c 3bbd a784 e0be 849c ddbc
00000020: 8665 0280 a98f e8bf b9f0 183f 18d9 8e3e
00000030: 1362 263f 88e0 743e 01ae 5fbb 4101 dcbf
00000040: f801 583f ea22 4100 b53d 943f 7bcb 62bf
00000050: fc4f e339 313b 05bf a004 67bf 4961 f7b9
00000060: 578d 513d d11a 5cbe a0a0 1180 5a1c 1d3e
00000070: e975 373e 3058 7cbf dee4 f43e d471 47bf
00000080: ee20 a13e a058 eabe c5cb b43e eed2 1780
00000090: b70b 63be fb62 b33f 54cf 21ba c1fe f9be
000000a0: 9caa 47bf 56fc 1d39 2b75 0ebe 12fa 29be
000000b0: e35a 2f80 ae80 ffbd add0 173e 0474 64be
000000c0: 6b8b a43d 7259 debe 10f1 e5b8 d596 fabe
000000d0: dfe2 c7bf 8edc 1980 f60a 7abe 55e7 67bf
000000e0: ab5a 443d ae3b 1dbe 36e3 c83e 5b25 37bd
000000f0: e8ec f13e 479c bcbe f0ef 3280 a0de 5d3e
00000100: 6ad2 07bf 079e 843c 5c5f a3bd fd59 abbd
00000110: 6bb5 d5bc f228 dbbe 76dd 5ebe 7331 2880
00000120: 022b c9be d36b 78bf 5767 da3d 70fe 97bd
00000130: 9b41 ebbe 167d de3d b321 41be 7b3b 9b3b
00000140: a6d8 1200 74ea c8bc fae5 2cbe 1da5 82bd
00000150: d3f5 87be 44e4 59be 2184 31bf 5d2e f23e
00000160: d7da 193f 77ea 4400 e7f6 eebd c595 83be
00000170: be46 353d 3f48 843e 5b5c e0bf c408 30bd
00000180: 1cee 0a3f f06a 28be 18a8 4100 978c 54be
00000190: 9afe b2bf d324 ba3d f026 9bbd a411 553e
000001a0: 49e4 0e3e 34ff 053e 801a 2f3e eeaa 3900
000001b0: 29b7 9dbe 71e8 e1be 8d3e 4f3b c62d 543e
000001c0: ddae 39bf adfa df3d 051c edbe 3b4f 143f
000001d0: 8017 3880 bd37 8bbe e8d6 4b3f 14c8 063d
000001e0: dda5 2b3f 4116 f03e 6382 05be b7d9 ffbd
000001f0: efff ee3e 8e8e 1900 784e 47c0 c98a adbf
00000200: cfbe 993c 9bad 0bbe c507 fb3e 5cb3 ce3c
00000210: 1bd5 25bf 593c 8ebf 97c6 0000 7a0e cbbd
00000220: 916e 3c3e 2850 513c 14e2 603d c425 57c0
00000230: 1afd 2f39 630a 4c3f 6b83 053e 5a8c 2f80
00000240: c17c e6be febb 343f 9b0f 923d 940a b63e
00000250: 9dca a5bd 4bbe 8d3e 8f5b 16be 00e9 9dbe
00000260: 5726 3800 880f 8f3d 5387 edbf 7ac9 b63d
00000270: a772 35bf efaf c23e bdff 19be 5f24 e23c
00000280: 1280 263f 3620 1680 1dbc 24be 4308 83bd
00000290: 0cc3 563d 3260 45be 1aba a1bf 30f4 84be
000002a0: 0f1f d2ba 8e42 d6be 880a 1500 006d e0bf
000002b0: 9106 873f c906 113f 9a9c b13f 30d3 b63e
000002c0: 4ee5 87bb 2e5a 01c0 f631 b13e 3423 2c00
000002d0: 26ee ad81 5803 4500 119c 4b03 84a2 6a82
000002e0: 00b8 2481 4ec4 1484 584e 3e80 ac94 7383
000002f0: 083a 1080 ebcd d23d 9d7f efbe b1f6 fb3a
00000300: adf1 43bf 8e94 61be 26d8 1e3b 886a 853f
00000310: 6ca3 95bf 9789 0680 954c 0ebe 542d 2fbd
00000320: eac7 9bbe dcd6 56be 251d e1bd f3e8 c5be
00000330: 0fbe 2a3e 2561 3b3f aafd 0d00 ade1 133f
00000340: 60a5 03bf 6bf2 093d 206f 7cbe 8700 343e
00000350: 04d0 03bb f0bf 973e 737b 2bbb fa47 3800
00000360: 46be 7c3c 85d9 af3f 6559 593c 8f41 23be
00000370: d032 0abe b105 ceba 583c e7bf 974c 963f
00000380: 171b 2d80 0a4d 1dbd 9950 f4bd 6ee8 073b
00000390: 15ce 0e3e 1eed 953d 9cc3 aebd acff fe3d
000003a0: 486d cf3c 213d 1000 28b6 aebd bec0 a13e
000003b0: aebd 073c 3a44 46bb df0c d0bf d7ea abb7
000003c0: 3e72 4d3e 963e 2c3f fbf5 3580 056f fbbf
000003d0: a01a 1c3f dcbf 343e 92a3 c83e 8dfb 123d
000003e0: 222e 2cbb 65dd 00c0 8496 473f e559 3800
000003f0: c33a 63bd e61b 9e3e da83 273e f9ee c5be
-0.41574338 0.67457855 0.121831045 -0.6326887 -0.8872972 -0.045681287 -0.43851206 -0.027052172
-2.20091e-40 -1.8168842 0.59742314 0.27900004 0.649934 0.23913777 -0.0034130814 -1.7187883
0.84378004 5.981832e-39 1.1581331 -0.88591737 0.00043356407 -0.52043444 -0.9024143 -0.00047183994
0.051160183 -0.21494605 -1.618825e-39 0.15342847 0.17916073 -0.98572063 0.47830862 -0.7790806
0.31470436 -0.4577074 0.35311714 -2.187884e-39 -0.22172438 1.4014581 -0.0006172557 -0.48827174
-0.77994704 0.00015066689 -0.13911884 -0.165993 -4.348872e-39 -0.124757156 0.14825697 -0.22309881
0.08034404 -0.43427616 -0.00010964472 -0.489432 -1.561611 -2.375008e-39 -0.24418244 -0.9058736
0.04793803 -0.15354797 0.39235848 -0.04471336 0.47251058 -0.3683798 -4.677848e-39 0.21666956
-0.5305544 0.016188635 -0.07977173 -0.08366773 -0.026087483 -0.42804676 -0.21764168 -3.691159e-39
-0.39290625 -0.97039527 0.10664242 -0.07421577 -0.4594849 0.10863702 -0.18860511 0.0047373152
1.730758e-39 -0.024525858 -0.16884604 -0.06379149 -0.26554736 -0.21278483 -0.6934224 0.47300997
0.6009955 6.328924e-39 -0.11668187 -0.25700203 0.044256918 0.2583637 -1.7528185 -0.04297711
0.54269576 -0.16447043 6.029608e-39 -0.20756756 -1.3983948 0.09089055 -0.07575786 0.2080751
0.13954271 0.13085634 0.17099953 5.295941e-39 -0.30803803 -0.4412265 0.0031622977 0.20720586
-0.72532445 0.109364845 -0.4631044 0.57933396 -5.151218e-39 -0.27190962 0.79624796 0.032905653
0.6704996 0.46891978 -0.1303802 -0.12492698 0.46679637 2.347026e-39 -3.1141644 -1.3557979
0.018767742 -0.13640444 0.49029365 0.02523201 -0.647783 -1.1112167 7.124e-41 -0.099148706
0.18401553 0.012775458 0.054903105 -3.36168 0.00016783588 0.7970335 0.13038413 -4.366617e-39
-0.45017055 0.70599353 0.07131883 0.35554945 -0.08095286 0.27684245 -0.14683364 -0.30841827
5.156542e-39 0.06985384 -1.8556923 0.08925147 -0.7087807 0.38024852 -0.15038963 0.027605234
0.6503917 -2.031936e-39 -0.16087385 -0.0639806 0.052432105 -0.19274977 -1.2634919 -0.2596755
-0.0016030985 -0.41847652 1.932323e-39 -1.7533264 1.0548879 0.5665098 1.3875916 0.35707998
-0.0041472083 -2.0211291 0.3460843 4.05339e-39 -6.389189e-38 6.337849e-39 5.9835494e-37 -1.7238245e-37
-3.0254056e-38 -1.7487455e-36 -5.721905e-39 -7.158195e-37 -1.490186e-39 0.10293182 -0.4677705 0.00192233
-0.7654064 -0.22029325 0.0024237721 1.0423136 -1.1690497 -6.00371e-40 -0.13896401 -0.042767838
-0.3042596 -0.209804 -0.10991887 -0.3865429 0.16674064 0.73195106 1.284859e-39 0.5776623
-0.5142422 0.033678453 -0.24651766 0.17578326 -0.0020113 0.29638624 -0.002616611 5.168608e-39
0.015426224 1.3738257 0.013265942 -0.15942977 -0.13495946 -0.0015718249 -1.806529 1.1742123
-4.142315e-39 -0.03840355 -0.11929435 0.0020737904 0.13945802 0.07320617 -0.08533403 0.12451109
0.025320664 1.491297e-39 -0.08530837 0.31592363 0.008284969 -0.0030253069 -1.6253928 -2.0494144e-05
0.20063111 0.67283 -4.955522e-39 -1.9643255 0.60978127 0.17651314 0.39187294 0.03588443
-0.0026272614 -2.0135128 0.77964044 5.175036e-39 -0.05547596 0.3088066 0.16358891 -0.38658884

layers.0.fc_self.weight f4 [64, 9]
00000000: 7415 a0bd 6673 40be 5d82 0ebf 6eef 2fbf
00000010: 408b 27be 890f 82bc 9e1b 4580 8a3c 1000
00000020: e146 1e00 13df 00bf d925 973e e428 fd3d
00000030: 9608 a43f ddcd 0dbf 180f 633a 0e31 2abd
00000040: 86f4 263e e5eb 82b7 9696 9dbe 45b3 9a3f
00000050: 0b81 9c3b 5b72 29bf 5c19 56bf 18a4 9039
00000060: f3f7 9a3c 3863 01bf 2482 113a 9a8a 343e
00000070: 2ebb ed3f 2bd8 913d 6140 52bd 7842 55bf
00000080: fd28 9cbe e135 913e f3e0 6cbc 8126 a5b8
00000090: 9891 38bd 05d9 1e3f d238 1d3b f7c6 a3bd
000000a0: ed93 dcbe dbff 6538 03e7 c23d ed88 1dbe
000000b0: ae6b 88ba ac23 d43c 4237 a1bd 5b12 6bbd
000000c0: 5cdc 73bd 436c 4c3f d286 f338 3a89 0380
000000d0: 2ff8 0880 c237 1400 fb01 84be 10e1 dcbe
000000e0: e978 653c 9e4e c4be 5785 0a3f 917e d638
000000f0: 95a3 fabc fec1 95bd ab7e c239 6321 c23e
00000100: 1f2a 36bc 6fd4 c9bc b4b2 8ebe dfba 433c
00000110: cee6 f0ba 8b8b 5d3f 454d 293f 004b 7b3b
00000120: e86d c7be 3dff 0cbe 4f4a 0abf 135c 85be
00000130: 6059 fbbd 4f61 e4bd 28a4 4200 3202 3e80
00000140: a21b 3e80 e2fb c53c 2fef 263f bd75 acbb
00000150: 659d 31bc 2e02 cd3d 0fb4 89bd ea86 fb3e
00000160: c4de 263f 1c2a 193b 3ead 40bf 9818 163e
00000170: efe7 513c b75a a33d 36d6 06bf 3e26 46ba
00000180: 8294 0000 04f3 3380 4a23 1780 3154 20be
00000190: 34ac 97bf ec73 98bd 4bc9 853d 89f2 653f
000001a0: cd1c 0dbe be67 2c00 ca1b 3280 013a 3c80
000001b0: 589c d0be 8882 c93f c91c 8e3c f59d bfbd
000001c0: 58c2 8ebe 8004 d7bd b403 523d f6bf 0ebe
000001d0: 8684 90b9 a8df e5be 6c18 ce3e bc07 493e
000001e0: 845d 48bb e522 1e3e cd0a 3dbe ba46 1e3d
000001f0: db20 8e3b 3487 c0b9 bb3a 95be c55a 8ebd
00000200: 6d82 45bd e50b 6a3d 4a0f c93e 0b93 d7bc
00000210: 07a5 8fbd 2243 3cbe 89b1 9abb fc53 d9bd
00000220: 1574 893d 18e5 243c 6d77 123d e7f4 0fc0
00000230: 1259 6db9 c9f2 06bf f4d5 b0bf e9fa 9536
00000240: efe5 893e 798a 963f f661 d8bc a5e4 d1be
00000250: f968 ccbe c962 8bbe 64ef 233e b6f3 92be
00000260: f272 34ba 5b71 563e d3ea 1abf 7037 9a3a
00000270: 4688 e23e 108d e1be e35c e839 1f85 17bd
00000280: 6129 81be 756e 6d3b 63dd 5dbf 6d11 123e
00000290: 865d 2cbf af66 e3be deb7 edbe 6afa 033b
000002a0: 28fa 173d 290e 553e 2997 2980 1151 4dbf
000002b0: 2d62 933f 9241 4d3e fd99 d93f f1eb e7be
000002c0: d206 af37 7764 bebd d1e3 873d 3f9a afb7
000002d0: ebd5 fb83 214f 6683 5ab4 2387 0d40 a983
000002e0: 8874 ae00 3296 5786 40e5 3180 20bc 0780
000002f0: 6881 3200 be42 c1be 26a3 ef3d 73da e8bb
00000300: 6722 42be d9d9 973f 93f3 a3ba 6140 193f
00000310: 7cfa 3bbe c83a d337 00c7 debd 7acc dcbe
00000320: 5419 303c a593 143f d613 73bf ffd8 aa39
00000330: 6ef9 1fbd 303c 84be f7bd d23b 2ade 0f3e
00000340: 8111 b7bd 5c0a 803b 370b 27be b596 0cbd
00000350: b6c1 4a3a 59bb 1c3c a526 9cbd eab6 443a
00000360: cda6 e2bf 30b5 25bf 7402 bdbd 7ce3 583e
00000370: 2685 ae3d 7425 ca39 f219 c3bd daf8 15be
00000380: 8250 a1b9 f896 d9bd 42ea 823e f3b9 213d
00000390: dcaf c63d 30d0 9b3e ea4a 4bbe 2be4 bf3e
000003a0: 4d27 583f f676 293b 856b e53b ad40 f0bc
000003b0: 9804 843b 4358 803d 1aae 07c0 47f7 cdb8
000003c0: 11cb 1440 1cff adbf 6eca d335 4309 fdbe
000003d0: 00c0 7f3f 208c dc3d 96ff 663f 6649 24bf
000003e0: a0f0 a93a b5fb 7bbd 5c81 563e aedd 33b8
000003f0: fc7f 17bf 8159 c03d ab0c b23c 2d8a ebbe
-0.07816592 -0.18794021 -0.5566767 -0.68724716 -0.16361713 -0.015876548 -6.346556e-39 1.491085e-39
2.780491e-39 -0.50340384 0.29521063 0.12361315 1.281512 -0.5539225 0.0008661612 -0.04155069
0.16304216 -1.5607055e-05 -0.3077895 1.2085959 0.0047761253 -0.6619012 -0.83632445 0.0002758808
0.01891706 -0.5054202 0.00055507035 0.17630997 1.8572748 0.07121309 -0.051330928 -0.8330455
-0.30500022 0.2836142 -0.014457929 -7.874985e-05 -0.045060724 0.62049896 0.0023990166 -0.07996934
-0.43081608 5.483614e-05 0.09516718 -0.15384264 -0.0010408068 0.025895916 -0.07871868 -0.057390552
-0.059536323 0.79852694 0.00011612255 -3.24734e-40 -8.23715e-40 1.856712e-39 -0.2578276 -0.4314046
0.014005878 -0.3834123 0.5410971 0.0001022789 -0.03059558 -0.07312392 0.00037096938 0.37916097
-0.011118441 -0.024637429 -0.27870715 0.011946409 -0.0018379332 0.8654105 0.6613353 0.0038344264
-0.3895104 -0.1376924 -0.54019636 -0.2604681 -0.12272906 -0.11151373 6.120031e-39 -5.694588e-39
-5.703714e-39 0.024167959 0.65208715 -0.005263059 -0.010840748 0.10010181 -0.067237966 0.4912637
0.65183663 0.0023371046 -0.75264347 0.1465782 0.012811645 0.07976287 -0.5267061 -0.0007558799
5.3275e-41 -4.770788e-39 -2.124876e-39 -0.15657116 -1.1849427 -0.07443985 0.06532534 0.89823204
-0.13780518 4.077978e-39 -4.601744e-39 -5.530938e-39 -0.4074428 1.574296 0.01734771 -0.093563
-0.27882648 -0.10498905 0.051273063 -0.13940415 -0.00027564558 -0.448972 0.40253007 0.19631857
-0.0030573318 0.15442999 -0.18461151 0.03864167 0.004337413 -0.00036721828 -0.2914637 -0.06950907
-0.048220087 0.05714025 0.39269477 -0.026315233 -0.07013898 -0.18384984 -0.004720871 -0.10611722
0.06711594 0.010064386 0.035758425 -2.2493227 -0.00022635263 -0.5271421 -1.3815293 4.469756e-06
0.26933238 1.1761009 -0.026413899 -0.40994754 -0.39923838 -0.27223805 0.16009289 -0.28701562
-0.0006883583 0.20941679 -0.60514563 0.0011765789 0.44244593 -0.44052935 0.00044319694 -0.03699219
-0.25226882 0.0036229168 -0.86665934 0.1426446 -0.67330205 -0.4441428 -0.46429342 0.0020138272
0.037103802 0.20806183 -3.819481e-39 -0.8020182 1.1514336 0.20044544 1.7000118 -0.45297197
2.0864802e-05 -0.09296506 0.066352494 -2.0933452e-05 -1.4801567e-36 -6.768176e-37 -1.2315758e-34 -9.947633e-37
1.602118e-38 -4.0547352e-35 -4.582179e-39 -7.10335e-40 4.638197e-39 -0.37746233 0.1170104 -0.0071061193
-0.18958436 1.1863357 -0.0012508504 0.5986386 -0.18357271 2.5180532e-05 -0.108778 -0.43124753
0.010748226 0.5803779 -0.9495214 0.000325866 -0.039056234 -0.2582717 0.006431337 0.14049593
-0.089388855 0.003907485 -0.16312872 -0.034323413 0.00077345537 0.009566152 -0.07624558 0.0007504063
-1.7707154 -0.64729595 -0.092289835 0.21180528 0.0852149 0.00038556347 -0.09526433 -0.1464571
-0.00030768296 -0.10624498 0.2556935 0.039483976 0.09701511 0.30432272 -0.19852796 0.37478766
0.8443497 0.002585826 0.0070013427 -0.029327715 0.004028868 0.062668346 -2.1200013 -9.821221e-05
2.3248942 -1.3593478 1.577964e-06 -0.4942113 0.99902344 0.10768914 0.90233743 -0.641745
0.0012965389 -0.061519343 0.20947784 -4.288338e-05 -0.59179664 0.093920715 0.021734556 -0.46003857

layers.0.fc_self.bias f4 [64]
00000000: 974f c4be 42d5 053e 2c28 163f f7ce 003f
00000010: beac bf3d de15 2dc0 7f68 d13d 768a 223e
00000020: 97db 97be eaf7 8e3f 9725 8dbe c188 30c0
00000030: ae4e 803e 5dc7 0b3d f1c4 7e3e d9a4 d13f
00000040: 733a 803e f0be 093f 6a0c a3bd e177 4a3e
00000050: ba20 7483 7003 d5be 5aae b83e efdb 8f3e
00000060: cfae 8b3e de2d 3d3f f86b cd3f b943 bf3d
00000070: d92f 65be 509f 1bc0 ed7b b13e 96c4 38bf
00000080: 016c 3c3e 989a f693 622b 2abd 1eb1 063f
00000090: 81ab 8bbe 6d58 17c0 d66a 69be df53 cb3e
000000a0: 917f 203f a248 683f 1beb 063e 31ef 9cbc
000000b0: eb7a 393f 6a26 1e3d ae86 a53e f6c1 b23e
000000c0: 4579 b43c 0f4f fcbf 0dae ce3d 4a7b 7a3e
000000d0: 81fd dc3f 2226 1ec0 c668 d43e 0b76 febe
000000e0: 3586 0740 d53c 22c0 af4b 053f 95b5 d83f
000000f0: e807 33be e158 b6bd cc08 3bbd 74c7 a63f
-0.38341972 0.13069633 0.5865505 0.50315803 0.0935912 -2.7044597 0.10225009 0.15873131
-0.2965972 1.1169407 -0.2756774 -2.7583468 0.25060028 0.034125675 0.24879815 1.6378433
0.25044593 0.5380697 -0.07961352 0.19772293 -7.1742724e-37 -0.41604185 0.3607052 0.28097484
0.27281806 0.7389811 1.6048574 0.09339089 -0.22381534 -2.4315987 0.3466486 -0.72174966
0.18400575 -6.225157e-27 -0.04154528 0.5261401 -0.27279285 -2.364772 -0.22794661 0.39712426
0.6269465 0.9073583 0.13175623 -0.019157024 0.7245318 0.038610853 0.32329315 0.34913605
0.022030482 -1.9711627 0.10091791 0.24461094 1.7264863 -2.4710774 0.41486186 -0.49699435
2.1175663 -2.534963 0.5206861 1.6930414 -0.17483485 -0.08903671 -0.045662686 1.3029618

layers.1.fc_neigh.weight f4 [1, 64]
00000000: e25b 053e 12e9 423c 2916 063f b08b 093d
00000010: 6400 233f b54b 9abf a914 1abf dd7a 7c3c
00000020: c96a 31be 0cdc 4e3c aabd dc3e 9c45 62be
00000030: d820 d23d 54e1 b23c 96af 713f 527e 96be
00000040: a11e 353e 4337 acbd f61a fe3d bb7f d03b
00000050: a7ba a184 86d9 a9be 7047 8dbe dcea 23be
00000060: f3e9 8b3e 1699 8bbb f712 bfbd 870e 903c
00000070: 5c83 6e3e 26c6 fabf ee12 bcbd 4ebf acbd
00000080: 457c 3a3b b0e5 0718 cb79 4f3e 5eb1 aebd
00000090: f844 8d3e b457 8bbe bd73 2ebf 0af8 6f3e
000000a0: 6a9f 21bf fe01 c83c 3132 65bf 7776 803f
000000b0: 2271 b7bd 9b94 31bf 6de9 75bf 6a43 373e
000000c0: 56fd 513f ff84 adc0 1635 b73e 204c ac3c
000000d0: e70b 0abc ff46 2ac0 e31e 063e 1dc8 bc3b
000000e0: c540 d2bc 58bb c5c0 aa72 e83b bf57 c2bc
000000f0: 49c0 473f a91c 863b a4f6 9f3e bee9 f6bf
0.13023332 0.011896389 0.52377564 0.033580482 0.6367247 -1.2054354 -0.60187775 0.015410152
-0.17325892 0.012625705 0.43113452 -0.22096866 0.10260171 0.02183596 0.9440855 -0.2939325
0.17687465 -0.08408978 0.12407486 0.006362883 -3.802233e-36 -0.3317377 -0.27593565 -0.1600756
0.27326927 -0.0042601926 -0.09329789 0.017585052 0.23292297 -1.959172 -0.09183298 -0.08434926
0.0028455418 1.7564304e-24 0.20261304 -0.08529924 0.2759168 -0.2721535 -0.6814535 0.23434463
-0.6313387 0.024415012 -0.8952971 1.0036153 -0.08957125 -0.6936738 -0.96059304 0.1789681
0.82027185 -5.422485 0.3578269 0.021032393 -0.008425689 -2.6605833 0.1309772 0.00576116
-0.02566565 -6.179119 0.007093747 -0.023723481 0.7802778 0.004092772 0.3124286 -1.9290082

layers.1.fc_self.weight f4 [1, 64]
00000000: 968d 053f 4415 043c 2f83 50be c396 ff3c
00000010: 1dce 653e 356a c0bf 1c0f b5bd fe44 a5bf
00000020: b983 fdbe fc27 b2bf aad5 81bf d12e 6abe
00000030: d57b 863d 93c4 b83d 260e 8d3f 4c99 a1c0
00000040: b959 063e 7d32 82bf 275a 7bbe 809d 883b
00000050: 52ee 8c07 c77e 5bbe f4ce 19c0 1724 3dbe
00000060: 398d a63d 7605 e6bf 6d5a 80c0 c0f9 4c3c
00000070: 5b66 533e 3ad6 08c0 caa0 76bf 5473 223f
00000080: 32ac b4bf 7394 9218 338c a33d 6c1a 80bf
00000090: ab31 d33d 9ee2 16be 82c5 49bf 2f3b 9fbf
000000a0: 88cc 8ec0 a7fa f8bd 4be9 2ebf 2216 283f
000000b0: 5003 2abd 45ab 12bf 2c31 e3be 72fd 493d
000000c0: 58d1 a13e c033 88c0 039c c1bf 8843 c0bf
000000d0: 8144 ecbe dd20 55c0 fcb1 aa3d 9395 a23b
000000e0: 78d8 b9be ab6c c1c0 83de 693b 5f8c fabf
000000f0: d01d 8a3c 05e0 293b 1fb9 debc 292e 19c0
0.5216917 0.008061711 -0.20362543 0.031199818 0.22441907 -1.5032412 -0.088407725 -1.291168
-0.4951456 -1.3918452 -1.014333 -0.22869422 0.06566588 0.090218686 1.1019943 -5.049963
0.13120164 -1.0171658 -0.24546109 0.004169166 2.120493e-34 -0.2143508 -2.4032564 -0.18470798
0.08132405 -1.7970417 -4.0110383 0.012510717 0.20644514 -2.1380754 -0.96339095 0.63457227
-1.411505 3.789001e-24 0.07985725 -1.0008063 0.10312208 -0.14734885 -0.78817 -1.2439936
-4.462467 -0.12157183 -0.68324727 0.6565877 -0.041507065 -0.57292587 -0.44373453 0.04931397
0.3160503 -4.256317 -1.5125736 -1.5020609 -0.46146014 -3.3301308 0.08334729 0.0049616783
-0.36297965 -6.044515 0.0035685606 -1.9574088 0.016859919 0.002592088 -0.027187882 -2.3934424
