N0-Noise/weight_18/best_model_no_noisse_weight_18.pth (torch, 8143 bytes, 5 tensors)

layers.0.fc_neigh.weight f4 [64, 9]
-0.31799662 -1.7426808 -1.1486491 -1.0289803 -0.31517243 -1.7888991 0.047128346 0.011854511
2.792478e-39 -0.020675499 -0.67891574 0.006834261 -0.039469272 -0.11147489 -0.00029544314 0.2043406
-1.1405214 -4.474162e-39 0.8022711 -1.5104947 0.018085033 0.12035116 -0.45012683 -0.0030642373
0.5782851 0.7532324 3.979542e-39 -1.9002782 1.6880372 0.40019253 0.6794894 0.13196124
-0.0043336297 -1.949404 0.3614552 -5.219052e-39 0.07307492 -0.86998636 0.040012527 -0.023158215
-0.30886266 0.16695888 0.010238289 -0.04072198 -7.23664e-40 -0.7338498 -0.9476958 -0.79422003
-0.6354241 -0.2855402 -0.91138273 -0.3479197 0.5037184 6.133153e-39 9.91312e-40 -6.297697e-39
4.343857e-39 -1.471767e-39 -8.56e-43 1.965366e-39 -0.03591502 -0.21896136 -1.53562e-39 -1.8758001
1.1888645 0.29281366 0.5816156 0.28559545 -0.0033938747 -1.730851 0.836489 -7.58046e-40
-1.1907582 -0.32656145 -1.0753505 0.035460494 0.04069504 0.0022286307 -1.1136845 -0.40569335
4.66436e-40 -0.836666 -0.64830357 -0.78405815 -0.55879754 -0.30641478 -0.49931857 0.75410396
0.5843661 1.254308e-39 -0.1614766 -0.96121365 -2.5284755 -0.15685208 0.9313845 0.05865942
-0.16833289 -0.12633419 -2.455194e-39 0.14049996 -0.37164563 -0.06117081 -0.006276052 -0.29968765
-0.25632885 -0.025848221 0.89040124 2.745089e-39 0.0006097099 -0.23343398 0.033471722 -0.38202998
-0.086886294 -0.41292897 -0.6273602 -1.0212786 3.5783e-40 -0.5203586 0.1525464 0.08618651
0.06456709 -0.98418504 0.34878296 0.5153972 0.6798561 5.312404e-39 -0.07440676 -0.12046409
0.006133443 -0.38826883 -1.0561056 0.0019060954 0.9635926 -0.6263607 3.805981e-39 -0.1331629
0.55358535 0.01951138 0.048674032 -2.7930167 -0.00016178977 -1.9228896 0.22863954 -1.923697e-39
-0.41613662 -0.93763596 0.0032894227 0.019546254 -0.1337164 0.00012590055 -0.19841339 -1.7569352
6.12544e-39 0.13185517 -0.347615 -0.91445416 -0.35862768 -0.41741616 -0.23045225 0.6454205
0.47561255 -6.348916e-39 -0.08374846 -0.027820393 -0.08683747 -0.028584093 -0.016767314 -0.25280422
-0.25766915 -0.39926434 3.857185e-39 0.9512753 -0.82850564 0.00069072336 -0.14870568 -1.07878
-0.00030594046 -0.3471516 -0.096432276 -6.158382e-39 2.2942605 -1.8656373 0.07746478 -0.7472684
-1.0723978 -0.00068666507 2.2682526 1.9010966 -4.700818e-39 -0.93913275 -1.4694782 0.09450443
-0.21241775 0.36774263 0.12713577 0.8518287 0.8815368 -3.898708e-39 0.36131433 0.1356382
0.0110789435 -0.06845623 0.1701696 -0.370352 0.75683504 -0.030180488 3.849067e-39 0.27713367
-0.37939084 0.0050848536 0.5309361 -0.5707318 -0.0027741594 0.17922615 0.5143477 -1.337856e-39
-0.40503356 -0.819825 0.006306119 -0.018892894 -0.10691288 -0.00046274136 0.012030917 -1.9640378
-7.2062e-40 0.3436944 -1.207269 -0.12714705 -0.030187724 -0.14991894 -0.007915524 0.96615005
-0.015470795 2.12958e-40 -0.018649379 -0.06970233 0.0015554925 0.008995013 -0.077056415 2.6863063e-05
0.0050884173 -0.3603196 3.915082e-39 0.045179818 0.6835528 0.00974399 -0.07196877 -2.7919981
-1.3644128e-05 -1.621443 1.0190645 -2.101673e-39 -0.6302773 1.0008281 0.038421903 -0.30914885
00000000: 74d0 a2be 2a10 dfbf ef06 93bf a0b5 83bf
00000010: 485e a1be a5fa e4bf a709 413d 6c39 423c
00000020: 4b68 1e00 aa5f a9bc 6ccd 2dbf f0f1 df3b
00000030: 88aa 21bd f24c e4bd b5e5 9ab9 aa3e 513e
00000040: 9bfc 91bf 25b8 3080 a461 4d3f e457 c1bf
00000050: 1027 943c ab7a f63d 0677 e6be 5fd1 48bb
00000060: 7e0a 143f d7d3 403f 5855 2b00 513c f3bf
00000070: 9a11 d83f 09e6 cc3e 04f3 2d3f d920 073e
00000080: 1f01 8ebb 1286 f9bf a810 b93e 98d4 3880
00000090: 4ea8 953d 6db7 5ebf 2de4 233d 4cb6 bdbc
000000a0: 3f23 9ebe 45f7 2a3e 7fbe 273c 17cc 26bd
000000b0: 48e1 0780 95dd 3bbf 319c 72bf 0152 4bbf
000000c0: 27ab 22bf 5332 92be 6150 69bf 8822 b2be
000000d0: b0f3 003f bcc8 4200 60cb 0a00 6b93 4480
000000e0: e84c 2f00 b006 1080 6302 0080 a466 1500
000000f0: a11b 13bd 6837 60be afb8 1080 381a f0bf
00000100: b62c 983f aceb 953e c3e4 143f 9139 923e
00000110: c56b 5ebb 878c ddbf 2524 563f 2041 0880
00000120: c46a 98bf 1033 a7be 16a5 89bf 063f 113d
00000130: d8af 263d 380e 123b 378d 8ebf 0ab7 cfbe
00000140: 3c14 0500 be2f 56bf 39f7 25bf 09b8 48bf
00000150: 5b0d 0fbf 66e2 9cbe afa6 ffbe f50c 413f
00000160: 0499 153f 80a8 0d00 1f5a 25be 1912 76bf
00000170: 8bd2 21c0 d59d 20be 376f 6e3f dc44 703d
00000180: 755f 2cbe c05d 01be 15bc 1a80 39df 0f3e
00000190: 5648 bebe 3e8e 7abd 57a7 cdbb a970 99be
000001a0: 893d 83be a6bf d3bc 56f1 633f 31e4 1d00
000001b0: f0d4 1f3a 5109 6fbe a519 093d 6f99 c3be
000001c0: 71f1 b1bd 6d6b d3be ae9a 20bf 42b9 82bf
000001d0: 7ce5 0300 3936 05bf 2035 1c3e 8e82 b03d
000001e0: c03b 843d 8df3 7bbf ae93 b23e 12f1 033f
000001f0: 0d0b 2e3f d2d8 3900 9262 98bd e0b5 f6bd
00000200: 0dfb c83b 2ccb c6be 782e 87bf f3d5 f93a
00000210: 01ae 763f 2d59 20bf 8771 2900 db5b 08be
00000220: c5b7 0d3f 54d6 9f3c 6c5e 473d c9c0 32c0
00000230: 1ca6 29b9 3f21 f6bf 7c20 6a3e 7cf2 1480
00000240: dc0f d5be e908 70bf 5b93 573b 771f a03c
00000250: f4ec 08be 2c04 0439 e12c 4bbe 41e3 e0bf
00000260: 3cb3 4200 0b05 073e 98fa b1be ab19 6abf
00000270: 0c9e b7be 92b7 d5be adfb 6bbe 473a 253f
00000280: 7d83 f33e 3222 4580 5084 abbd 98e7 e3bc
00000290: d8d7 b1bd 3029 eabc 9b5b 89bc 8e6f 81be
000002a0: 36ed 83be 606c ccbe 4300 2a00 c786 733f
000002b0: f218 54bf a911 353a 4d46 18be 7715 8abf
000002c0: a266 a0b9 dbbd b1be 497e c5bd 100f 4380
000002d0: 2ad5 1240 34cd eebf dba5 9e3d fb4c 3fbf
000002e0: 5544 89bf 5001 34ba 0d2b 1140 2257 f33f
000002f0: f82f 3380 016b 70bf dd17 bcbf 8a8b c13d
00000300: 0a84 59be c348 bc3e e12f 023e 7211 5a3f
00000310: 65ac 613f 0374 2a80 31fe b83e bee4 0a3e
00000320: 7584 353c c832 8cbd f140 2e3e c79e bdbe
00000330: f1bf 413f 123d f7bc a2e9 2900 77e4 8d3e
00000340: 843f c2be d89e a63b 6eeb 073f 7b1b 12bf
00000350: acce 35bb 0f87 373e 4aac 033f 6691 0e80
00000360: 8f60 cfbe 0de0 51bf 8fa3 ce3b 45c5 9abc
00000370: 24f5 dabd 189c f2b9 531d 453c 9765 fbbf
00000380: ccd8 0780 b6f8 af3e ca87 9abf d632 02be
00000390: 3f4c f7bc 5a84 19be 1db0 01bc 9c55 773f
000003a0: 3879 7dbc a451 0200 95c6 98bc 18c0 8ebd
000003b0: abe1 cb3a d25f 133c c1cf 9dbd fd57 e137
000003c0: bdbc a63b d07b b8be a8a1 2a00 790e 393d
000003d0: 51fd 2e3f 42a5 1f3c 5d64 93bd 19b0 32c0
000003e0: 15e9 64b7 728b cfbf b570 823f 9ce2 1680
000003f0: da59 21bf 231b 803f 4960 1d3d c248 9ebe

layers.0.fc_self.weight f4 [64, 9]
-0.14708287 0.9040274 0.004135568 -0.16145137 -0.396366 6.110936e-05 0.35915187 -1.655114e-39
-5.025793e-39 -0.046135273 -0.91581285 0.0040632123 0.04068586 0.79862535 -0.00057113986 -2.631465e-39
6.204053e-39 5.10836e-40 0.15102775 -0.31842372 0.001995325 -0.15178458 0.14171463 -0.0010605028
0.15816562 -0.14029637 0.0013820415 -0.98115265 1.1263273 0.20876941 1.5949572 -0.6425122
0.0001558695 0.04306562 0.09994383 -2.8150807e-06 -0.4264321 -0.38290974 -0.56192875 0.4471846
0.3918964 -0.21747968 0.5364907 1.4633323 0.0018582017 0.1407746 0.106032506 -0.8832896
0.4213561 -0.10842794 0.0005404842 -0.14195746 0.017657714 0.00552966 -0.23822299 0.023133513
0.016823452 -0.22629012 0.069934376 -0.22056495 0.31839713 0.7266524 0.0037619625 -0.5665265
1.1457019 0.07184171 1.3407708 -0.8238097 0.00054304785 0.18874955 0.18750621 -8.7117695e-07
0.61374855 0.8934638 0.018394688 0.104430206 -0.46825787 -0.0015091277 -1.8483593 -0.0080274055
-0.00053327525 0.12985376 -0.40229392 -0.090408854 0.17170708 -0.15829514 0.0008909878 0.014968745
-0.08489636 0.0038169285 -0.514264 -1.4888556 0.015111109 0.1546547 0.5117763 -0.058315534
-6.261467e-39 5.124652e-39 -9.0356e-40 -0.02262992 0.41679534 0.0032215295 -0.20600024 0.1965296
-0.06760073 0.3441948 0.70013803 0.0004884394 0.4911338 0.57853645 0.0100238435 -0.922834
0.034299456 -0.000114269955 0.4197172 0.36173448 0.0025756662 -0.25027832 0.78275585 0.2694407
0.17358305 -0.8945079 -0.34022212 0.25941768 0.10067882 -0.00014668575 -0.3047528 0.10078403
8.0549005e-05 -0.20510961 1.2779709 -0.0008577902 -0.0015366366 -3.894271e-39 5.992262e-39 -0.37452474
0.4994549 -0.0034672376 -0.045692053 -3.497609 6.339176e-05 0.0001924216 -0.78535336 0.000283125
-0.63954 -1.338542 -0.42381105 0.0015816251 1.1362952 -0.00013651722 1.252349e-39 -5.004621e-39
-1.724948e-39 0.2555647 -0.39977103 0.0018981346 0.088218056 -0.7522734 0.0010032436 0.025623892
-0.25582832 0.0015478698 -0.42149502 -0.71862227 0.047297824 -0.42295206 -0.30033135 1.3852955e-05
0.13931149 -2.323384e-39 -3.509256e-39 -0.1966045 0.6982228 0.0036799838 -0.53329384 -0.4939033
0.00028298292 -0.14137803 -0.70166504 0.0014873756 0.45019373 0.24043286 0.089488626 -0.7767577
-1.232601 0.00057251344 0.46537295 -0.20920168 0.0005280065 -0.5164398 -0.47981068 -0.03768197
-0.40071997 0.9525368 -0.12204872 -6.327598e-39 -5.597512e-39 4.573485e-39 -0.7918401 -1.2533919
0.060649246 -0.017036965 0.19468899 -0.00033554676 0.13732344 -5.17707e-40 -1.20135e-40 0.045575343
0.17088117 0.038410123 -0.034061495 -0.5696836 0.000338875 0.9071163 0.08745973 0.00069657346
-0.38915512 -0.73997664 -0.18736781 0.028475434 0.7813704 -0.0011838998 2.144788e-39 2.430751e-39
1.40143e-39 0.06448021 -1.1613826 0.022890653 0.21548805 0.24130698 0.0031404048 -0.5401418
3.053017e-39 -3.267651e-39 0.014259949 -0.1390688 -1.9966568 -0.0045597744 0.68246025 -2.4825442e-05
-2.618967e-39 -6.09238e-39 -1.321234e-39 -0.1373257 0.23725323 0.007626249 0.080735 -3.5303369
-5.352686e-05 -0.3483035 -0.64673424 0.00030397938 0.25128114 0.48436522 -0.8666959 0.51451784
00000000: e49c 16be 576e 673f a983 873b 8253 25be
00000010: 7cf0 cabe d627 8038 c1e2 b73e c905 1280
00000020: deb9 3680 57f8 3cbd b672 6abf b224 853b
00000030: 37a6 263d b672 4c3f 8cb8 15ba 74a7 1c80
00000040: 608e 4300 0190 0500 05a7 1a3e 6f08 a3be
00000050: 00c4 023b 6b6d 1bbe a41d 113e 9200 8bba
00000060: 2bf6 213e daa9 0fbe 9e25 b53a d22c 7bbf
00000070: 7e2b 903f a6c7 553e 8f27 cc3f ae7b 24bf
00000080: e670 2339 9365 303d 5aaf cc3d b8ea 3cb6
00000090: 4f55 dabe bf0c c4be 90da 0fbf 61f5 e43e
000000a0: a5a6 c83e feb2 5ebe 7457 093f 794e bb3f
000000b0: e78e f33a 3727 103e 9227 d93d 441f 62bf
000000c0: fdbb d73e 780f debd 48af 0d3a 4c5d 11be
000000d0: e9a6 903c 2632 b53b baf0 73be 7e82 bd3c
000000e0: 56d1 893c 99b8 67be c139 8f3d c7db 61be
000000f0: f304 a33e e405 3a3f 428b 763b e107 11bf
00000100: 5ca6 923f bf21 933d 619e ab3f 31e5 52bf
00000110: 535b 0e3a 9047 413e a101 403e d3da 69b5
00000120: a01e 1d3f 0bba 643f 75b0 963c 81df d53d
00000130: 7fbf efbe eccd c5ba 0a97 ecbf 6185 03bc
00000140: 7fcb 0bba 62f8 043e 78f9 cdbe 4728 b9bd
00000150: fbd3 2f3e 1f18 22be 2e91 693a 783f 753c
00000160: 25de adbd 6f25 7a3b cea6 03bf d292 bebf
00000170: 9694 773c cd5d 1e3e c603 033f 45dc 6ebd
00000180: 6c2e 4480 72cd 3700 c2d6 0980 6262 b9bc
00000190: 3366 d53e 4c20 533b baf1 52be 0e3f 493e
000001a0: 4072 8abd 4d3a b03e 3f3c 333f 9d0a 003a
000001b0: e475 fb3e f71a 143f 0c3b 243c d93e 6cbf
000001c0: 967d 0c3d 37a4 efb8 2ce5 d63e 4335 b93e
000001d0: 82cc 283b 7b24 80be b062 483f 22f4 893e
000001e0: c1bf 313e 78fe 64bf 9831 aebe 65d2 843e
000001f0: b230 ce3d a8cf 19b9 8f08 9cbe dc67 ce3d
00000200: 6bec a838 4108 52be 8d94 a33f 53dd 60ba
00000210: f868 c9ba a567 2a80 fd3f 4100 b5c1 bfbe
00000220: 8db8 ff3e 983a 63bb 9727 3bbd d3d8 5fc0
00000230: 31f1 8438 c8c4 4939 eb0c 49bf 6570 9439
00000240: e5b8 23bf 5855 abbf c3fd d8be 884e cf3a
00000250: 1f72 913f 1026 0fb9 0aa3 0d00 d97e 3680
00000260: 74c8 1280 60d9 823e caae ccbe d4ca f83a
00000270: abab b43d fd94 40bf 457f 833a 32e9 d13c
00000280: eefb 82be e4e1 ca3a 32ce d7be a1f7 37bf
00000290: 5dbb 413d 2c8d d8be 08c5 99be fd69 6837
000002a0: aca7 0e3e a64c 1980 6136 2680 b152 49be
000002b0: bbbe 323f e22b 713b f285 08bf e5e0 fcbe
000002c0: 535d 9439 67c5 10be 52a0 33bf 0bf4 c23a
000002d0: cb7f e63e 0834 763e d045 b73d 98d9 46bf
000002e0: dfc5 9dbf ba14 163a 5d45 ee3e f738 56be
000002f0: eb69 0a3a 6635 04bf bfa9 f5be 6958 1abd
00000300: 2b2b cdbe 74d9 733f aef4 f9bd c5e6 4480
00000310: 96f3 3c80 04cd 3100 08b6 4abf 256f a0bf
00000320: 586b 783d 1b91 8bbc 8d5c 473e 53ec afb9
00000330: 849e 0c3e 28a3 0580 e34e 0180 36ad 3a3d
00000340: 79fb 2e3e ef53 1d3d 1184 0bbd c9d6 11bf
00000350: 08ab b139 c638 683f 161e b33d 419a 363a
00000360: 573f c7be 1c6f 3dbf 59dd 3fbe 5045 e93c
00000370: e407 483f 162d 9bba cc5a 1700 f277 1a00
00000380: 9e42 0f00 330e 843d 2fa8 94bf 2e85 bb3c
00000390: e6a8 5c3e 2d19 773e 40cf 4d3b bc46 0abf
000003a0: 923e 2100 e294 2380 90a2 693c 0d68 0ebe
000003b0: 7392 ffbf 296a 95bb b7b5 2e3f 3b40 d0b7
000003c0: 9d84 1c80 1457 4280 1063 0e80 1c9f 0cbe
000003d0: 83f2 723e 9de5 f93b 6458 a53d 0af1 61c0
000003e0: 0782 60b8 d654 b2be 6090 25bf 6c5f 9f39
000003f0: eca7 803e b8fe f73e c8df 5dbf 71b7 033f

layers.0.fc_self.bias f4 [64]
-0.67748517 -2.5633364 0.579674 0.5127019 0.3895901 0.26958826 0.3696185 -0.100027815
0.20826069 0.28080183 -2.230295 1.3635246 0.1307009 0.30800006 -1.1193323 0.7985824
-2.689191 0.37454343 -0.5626073 0.88401234 2.195289 -1.2674737 -0.52832615 0.94517726
-1.9807124 -0.17078252 -2.1051211 1.263284 0.66031945 -0.06556319 -0.025174012 1.8056458
1.2099696 -0.119126536 0.29386327 -2.6051733 0.009822596 2.347724 0.45678982 0.16708261
0.36965063 0.7997032 0.29175332 0.17898639 0.033204455 0.5006335 -0.35577613 -0.42513123
0.25261092 0.21470761 -0.5234501 0.03464721 -0.054903917 -0.31306535 -2.98335 0.174356
-0.8959686 -0.059400935 -2.412932 -0.04051995 0.57274795 1.5157506 -2.2345442e-37 0.40840337
00000000: ab6f 2dbf b40d 24c0 8465 143f 6f40 033f
00000010: 5b78 c73e 7907 8a3e a33e bd3e 62db ccbd
00000020: 4a42 553e 42c5 8f3e 27bd 0ec0 f987 ae3f
00000030: 75d6 053e 2fb2 9d3e 4846 8fbf e56f 4c3f
00000040: b51b 2cc0 28c4 bf3e 0807 10bf a24e 623f
00000050: 9d7f 0c40 943c a2bf 6240 07bf 23f7 713f
00000060: fc87 fdbf 9de1 2ebe 4eba 06c0 4ab3 a13f
00000070: b20a 293f fe45 86bd bb39 cebc 671f e73f
00000080: 49e0 9a3f 9df8 f3bd 3f75 963e 29bb 26c0
00000090: f4ee 203c 1c41 1640 5be0 e93e b417 2b3e
000000a0: d942 bd3e 59b9 4c3f b160 953e 3548 373e
000000b0: 6501 083d 8429 003f 4a28 b6be cdaa d9be
000000c0: 3856 813e 50dc 5b3e d300 06bf 3cea 0d3d
000000d0: eee2 60bd 1a4a a0be 35ef 3ec0 618a 323e
000000e0: 335e 65bf 654e 73bd 7a6d 1ac0 3ff8 25bd
000000f0: 9c9f 123f 1e04 c23f 4013 9882 3f1a d13e

layers.1.fc_neigh.weight f4 [1, 64]
0.77647686 -2.0268242 -0.085208856 0.008624311 0.0030159962 0.21820703 0.0098 0.010914511
0.12689084 -0.09867063 -1.1118652 0.010378594 0.009684077 0.0037799703 -0.45540214 -0.76370114
-2.1412685 -0.117499486 -0.7175375 0.5544339 -0.015267925 -0.20828743 -0.32396132 -0.049923558
-1.7289938 -0.08034847 -3.4937766 -0.20175979 0.0839992 0.9144871 -0.9482924 -0.84271973
-0.21425436 0.599952 -0.17399876 -1.5076236 0.050768282 -0.029886335 0.12820096 -0.21351227
0.048303965 0.0142116165 0.04663593 0.27599165 0.056100387 0.02306417 0.2988041 0.16864777
0.009726569 0.07206777 0.38830706 0.033211026 0.020824896 -0.16687432 -3.0561082 0.29940054
0.4342077 -0.5633628 -0.8728509 0.5119546 0.18084347 -0.15586264 -9.6055725e-36 0.32991937
00000000: 30c7 463f 7db7 01c0 fb81 aebd fb4c 0d3c
00000010: 05a8 453b aa71 5f3e 2e90 203c c7d2 323c
00000020: acef 013e d413 cabd 9951 8ebf fa0a 2a3c
00000030: f7a9 1e3c 61b9 773b 782a e9be eb81 43bf
00000040: 8b0a 09c0 92a3 f0bd 8ab0 37bf 61ef 0d3f
00000050: 5226 7abc 4d49 55be 42de a5be a57c 4cbd
00000060: ab4f ddbf bd8d a4bd 099a 5fc0 1e9a 4ebe
00000070: c607 ac3d d41b 6a3f 4ac3 72bf 7bbc 57bf
00000080: 7f65 5bbe 7496 193f bb2c 32be cff9 c0bf
00000090: 67f2 4f3d 30d4 f4bc 1d47 033e f6a2 5abe
000000a0: 61da 453d d7d7 683c 5105 3f3d c74e 8d3e
000000b0: 85c9 653d 12f1 bc3c dafc 983e 00b2 2c3e
000000c0: 305c 1f3c 4498 933d 2fd0 c63e 4908 083d
000000d0: f998 aa3c 1ae1 2abe 4797 43c0 074b 993e
000000e0: 7950 de3e 8b38 10bf 2873 5fbf 750f 033f
000000f0: 082f 393e 759a 1fbe b649 4c85 31eb a83e

layers.1.fc_self.weight f4 [1, 64]
-1.917053 -2.203032 -0.9942156 0.005854071 -1.0528828 -1.434961 -1.7058214 0.007917555
0.26958603 -1.0438542 -0.63586336 -1.4004887 -1.4119605 0.049641512 -0.2921086 -5.3346553
-2.719189 -1.1435152 -0.15594105 -0.33283207 -0.14366859 -0.10130125 0.8254472 -0.30459517
-2.1409795 -0.08028302 -4.520488 -2.9394011 0.04999151 0.36215734 -1.6969028 -1.2287848
-4.2357078 0.21787973 -1.7778763 -1.8892645 -0.015633179 -3.510541 0.05033735 -0.2507362
0.026361061 -1.4739338 -0.6578327 0.021318216 0.022432143 0.015809724 0.11855937 0.3842402
0.005770801 0.039056484 0.31786984 -0.0062032565 0.12944834 -0.29515353 -3.5223646 -2.2883825
0.11950208 -0.39332536 -0.7166735 -1.8312346 -0.5839539 -1.2959487 -1.6635387e-35 0.13108708
00000000: fe61 f5bf 7afe 0cc0 ea84 7ebf 82d3 bf3b
00000010: ddc4 86bf cdac b7bf 5b58 dabf a2b8 013c
00000020: 2e07 8a3e 049d 85bf f1c7 22bf 3743 b3bf
00000030: 1fbb b4bf e654 4b3d 428f 95be 7fb5 aac0
00000040: 3107 2ec0 b55e 92bf 03af 1fbe f768 aabe
00000050: dc1d 13be 0877 cfbd 8250 533f e6f3 9bbe
00000060: cf05 09c0 6d6b a4bd d6a7 90c0 261f 3cc0
00000070: e6c3 4c3d b06c b93e 1c34 d9bf d248 9dbf
00000080: eb8a 87c0 dd1b 5f3e 7391 e3bf 6bd3 f1bf
00000090: 2711 80bc b4ac 60c0 8a2e 4e3d 7f60 80be
000000a0: 27f3 d73c dda9 bcbf b967 28bf 8aa3 ae3c
000000b0: 9dc3 b73c 6583 813c 41cf f23d 22bb c43e
000000c0: fd18 bd3b b1f9 1f3d d6bf a23e b044 cbbb
000000d0: 1b8e 043e 5d1e 97be 6c6e 61c0 dc74 12c0
000000e0: 82bd f43d f161 c9be ea77 37bf e565 eabf
000000f0: 017e 15bf a6e1 a5bf d5e5 b085 b13b 063e
