N0-Noise/weight_14/best_model_no_noisse_weight_14.pth (torch, 8143 bytes, 5 tensors)

layers.0.fc_neigh.weight f4 [64, 9]
000000 31 5b e5 bc 50 bd a3 bd 24 af f3 bd d5 63 d7 3d
       -0.027997585 -0.07995093 -0.1189864 0.10517088
000010 fa 7b b5 be 83 d3 46 b9 2d 6d 03 be d4 44 c9 bf
       -0.3544615 -0.00018961546 -0.12834616 -1.572413
000020 84 6a 0e 80 1f 66 f9 3f d2 12 fe bf 06 6a 4c 3d
       -1.323908e-39 1.948429 -1.9849494 0.0499058
000030 60 b4 35 bf 24 65 86 be 30 bc 52 ba ca b7 da 3f
       -0.70978355 -0.2624904 -0.00080389064 1.7087338
000040 80 e6 96 3f 11 23 20 00 b8 38 9d be 7f 8e d7 3f
       1.1789093 2.951315e-39 -0.30707335 1.6840361
000050 44 08 c3 3c ac be 41 3f 53 46 6f 3e dc 1c b2 bd
       0.023807652 0.7568157 0.2336667 -0.08696911
000060 27 90 e5 be 65 fc 0f be 42 3e 24 80 1b a5 8e be
       -0.44836542 -0.14061125 -3.328412e-39 -0.2786034
000070 34 fd c5 be 57 48 85 bd 42 f8 9c 3d 46 8e 6d 3e
       -0.3866974 -0.06507938 0.07664539 0.23198804
000080 d8 46 81 3e 08 4a 45 80 d0 4f 08 80 82 4e 10 00
       0.25249362 -6.363207e-39 -7.63315e-40 1.497531e-39
000090 a7 62 51 bf 02 f6 e8 3f 35 42 67 3f dc 86 c9 3f
       -0.81791157 1.8200076 0.903354 1.5744281
0000a0 80 bf df 3d 74 5a 02 bc c1 bd d5 bf 7a c0 ae bd
       0.109251976 -0.007956136 -1.6698533 -0.08532806
0000b0 22 3c 15 80 2e c4 b8 bc 5c 5d 81 bf b9 c5 c9 bc
       -1.950117e-39 -0.022554483 -1.0106616 -0.024630414
0000c0 b2 2f 36 3e d3 88 0d 3e 30 25 d1 bc 8f a7 3c be
       0.17791632 0.13821726 -0.025530428 -0.18423294
0000d0 11 bb 6c bf b8 48 11 80 68 c9 b5 bf 4d 98 da 3e
       -0.9247294 -1.58729e-39 -1.4202089 0.4269432
0000e0 5d d0 4e 3e c3 6f 51 3f ba 5a 35 3f 25 fb 2f bb
       0.20196672 0.8181116 0.7084156 -0.0026852575
0000f0 69 25 ef bf 72 45 a9 3f 59 5f 2e 80 e4 72 95 3c
       -1.8683292 1.3224318 -4.258637e-39 0.01824326
000100 46 7d 1f be 21 5a 56 3c 4d 04 b3 3d eb 19 14 3c
       -0.15575132 0.013083012 0.08741055 0.009039382
000110 eb 96 07 3e 06 f8 98 be c1 1a 4f 3d e3 63 34 80
       0.13241164 -0.29876727 0.050562624 -4.811278e-39
000120 70 29 0d bf 01 4b 99 bf 6f b4 a4 3a 14 4e 9a bb
       -0.55141354 -1.1976014 0.001256598 -0.0047090147
000130 5e fb c6 bd b3 24 1a 39 ca e4 df 3d cc bc 26 c0
       -0.09715913 0.00014700256 0.1093231 -2.6052732
000140 fe 69 26 00 bd 2a e9 3e ca 92 3a 3f c6 81 17 3e
       3.527772e-39 0.4554042 0.7288023 0.14795598
000150 ba 92 67 be cc 05 79 3e 9b 20 e1 be c2 e7 37 3f
       -0.22614565 0.24318618 -0.43970188 0.7183801
000160 1d db 4b be 55 75 07 00 1c 2e 14 c0 6b 4e 81 bf
       -0.19907804 6.84939e-40 -2.3153143 -1.0102056
000170 d0 04 52 bf 83 2d bd bb 42 84 34 3f 59 b0 35 3e
       -0.82038593 -0.0057732477 0.7051431 0.17743053
000180 dd 32 ce 3d 93 13 44 be b3 d7 3b 00 26 74 2f bc
       0.10068295 -0.19148092 5.495673e-39 -0.010708844
000190 b8 24 8f bf 2a f1 25 3d 2e 64 32 bf 45 d3 ae bf
       -1.1183081 0.040513195 -0.6968411 -1.3658224
0001a0 ec 3e c4 bf eb f0 a4 be ad 48 ba bc f8 d7 35 80
       -1.5331702 -0.32215056 -0.022739733 -4.944756e-39
0001b0 c0 61 6e bc 8a 05 d1 bd 40 0a 21 b9 82 75 80 3b
       -0.014549673 -0.102061346 -0.00015357975 0.003920258
0001c0 a9 d0 41 be f9 80 78 b8 1c 49 b0 3d 11 db f8 be
       -0.18927254 -5.9247923e-05 0.086076945 -0.48604634
0001d0 d9 ad 12 80 50 8f 3f 3e 99 50 1c bf b7 ed f2 3c
       -1.715404e-39 0.18707013 -0.6106048 0.029654367
0001e0 fc 12 a2 bf d5 3c df 3e d0 4b a7 bc 86 0b b5 3f
       -1.2662044 0.436011 -0.020421892 1.4144142
0001f0 58 11 14 bf 5d b3 21 00 f5 18 e9 be 14 ff df 3f
       -0.57838964 3.094915e-39 -0.45526853 1.7499719
000200 3d d0 a7 ba 0e b1 05 bf 0b 4d 81 bf ce 42 04 bb
       -0.0012803149 -0.5222329 -1.0101637 -0.002018142
000210 20 f0 40 bf 31 88 d8 bd e9 46 0b 00 65 62 04 3e
       -0.753664 -0.105728514 1.035628e-39 0.1292816
000220 52 7f 09 bf 1f b2 10 3c dd 01 73 bd 8d e6 83 3f
       -0.537099 0.00883153 -0.05932795 1.0304734
000230 cd 29 88 be 48 92 8a 3f a2 b3 a2 be a3 7a 43 00
       -0.2659439 1.0825891 -0.31777674 6.196972e-39
000240 28 9c 86 3f 74 cc 09 bf 0d d7 31 3f 14 41 fd be
       1.0516405 -0.53827596 0.69468766 -0.49463713
000250 e2 50 63 3e 83 2c 16 be 2b 8a 39 3f 5b 14 b8 3e
       0.22198823 -0.14665417 0.7247645 0.3595303
000260 3f 5b 24 00 7d 85 08 3d 29 76 e7 be 83 54 a3 ba
       3.338811e-39 0.03333043 -0.45207337 -0.00124611
000270 41 98 04 3c 0d 1c 09 3f b2 9d 01 be e2 98 80 3f
       0.008092941 0.5355843 -0.12657812 1.0046656
000280 a0 0e 3b 3f e4 80 29 00 31 ba 98 bf 79 d9 49 3f
       0.7306919 3.811493e-39 -1.1931821 0.7884746
000290 3d c0 82 3b f8 42 98 be 4c 25 50 3d 45 eb da b9
       0.0039902017 -0.29738593 0.05081682 -0.0004175549
0002a0 50 c2 00 c0 7d 1e 9f 3f d5 89 3e 00 58 6e fd be
       -2.01186 1.2431179 5.743246e-39 -0.49498248
0002b0 60 3d 42 bf 26 60 6d bf 7e 0b 23 bf 38 fd a7 be
       -0.758749 -0.92724836 -0.6368941 -0.32810378
0002c0 7d e9 a0 be 53 ee 77 3f e2 90 bf 3e 14 29 02 00
       -0.31428137 0.9684803 0.37415224 1.98407e-40
0002d0 1a 58 cf 3b b7 f4 90 3f fd dd 40 3f e8 44 6a 3f
       0.006327641 1.1324681 0.7533873 0.9151139
0002e0 f2 7e 70 3c 47 82 34 3d 69 79 c1 bf 87 3a 5e 3f
       0.014678704 0.044069555 -1.5115176 0.86808056
0002f0 bf 8b 2e 80 23 d7 25 be 70 d7 51 3f c1 8f 49 3d
       -4.274564e-39 -0.1619535 0.81969357 0.04920936
000300 cd 7e 89 3e 86 c1 48 3e ad 41 dd ba c5 fe 9d bf
       0.26854554 0.19605073 -0.0016880535 -1.2343374
000310 51 cf 08 40 dd f5 21 00 82 b5 33 3e 8d 8d 65 bf
       2.1376536 3.11877e-39 0.17549708 -0.89669114
000320 72 af 2c 3c 0a f7 98 bd ae b2 89 3e 5e 5c 30 3a
       0.010539876 -0.07468994 0.26894134 0.0006727631
000330 60 7e 72 3d 40 25 f3 bd b8 bb 40 80 99 2b a8 bf
       0.05920255 -0.11872339 -5.944813e-39 -1.3138305
000340 b7 31 a8 3f e5 e7 2e 3f 2f b7 e2 3f c5 13 dd 3e
       1.3140172 0.6832259 1.7712153 0.43179145
000350 26 aa 98 bc b2 c2 c1 bf 87 46 50 be 59 48 0d 80
       -0.01863582 -1.5137541 -0.20339404 -1.219815e-39
000360 63 30 02 bf f8 bd a6 bd bd d5 88 bc 45 61 a3 3d
       -0.5085508 -0.081417024 -0.01670348 0.07977537
000370 8c 78 49 be f2 ff 1a 3d 74 b9 bb be 14 5d cc 3e
       -0.19674891 0.037841745 -0.36664927 0.39914763
000380 3b 45 02 80 22 f4 8f bf 4c 16 ec 3f 7e db 09 3f
       -2.08506e-40 -1.1246378 1.8444304 0.53850543
000390 67 c1 88 3f 22 2b 16 3f 6d 3f be bb db af 08 c0
       1.0684022 0.58659565 -0.005805901 -2.1357334
0003a0 d5 93 23 be 21 f3 1b 80 9e a0 ee 3f 6a 5c fe bf
       -0.15974362 -2.566777e-39 1.8642766 -1.9871953
0003b0 d6 29 5e 3d 8e aa 65 bf 09 ed ee 3e 92 85 19 bb
       0.054239117 -0.8971337 0.46665218 -0.0023425561
0003c0 e9 cc f3 3f b4 08 27 3f 0d e5 3f 00 83 77 c4 bd
       1.9046909 0.65247655 5.867804e-39 -0.095931076
0003d0 b6 56 92 3e 7e e7 b9 3b 38 fb d5 3d e8 b2 f5 bf
       0.2858178 0.005673348 0.10448307 -1.9195223
0003e0 2d 33 0c b9 ba 01 d8 3e c7 85 80 3e e1 6a 13 00
       -0.00013370505 0.42188817 0.25102064 1.783215e-39
0003f0 04 b9 4d be 8b 9b 27 bf e2 e6 c6 be 6e 5a 68 be
       -0.20090109 -0.65471715 -0.38848025 -0.22690746

layers.0.fc_self.weight f4 [64, 9]
000000 e6 f4 fa 3c dd bb f3 bd 02 c3 24 bf 7f de a2 bd
       0.030634355 -0.119010665 -0.6436006 -0.07952594
000010 e4 a1 53 3f 58 2e f2 38 c7 68 22 00 48 fe 3a 00
       0.826689 0.000115480914 3.159994e-39 5.417678e-39
000020 f7 28 3d 00 24 52 e5 3e 6d 5a 99 bd cf 38 b2 3d
       5.61666e-39 0.4478923 -0.074879505 0.08702242
000030 fb 6c 07 bf e9 b6 23 bf 12 19 ec 39 16 49 f0 3e
       -0.52900666 -0.63950974 0.00045032107 0.4693076
000040 54 c7 ce be 63 e3 9a 37 7b 55 ac 3e c6 32 7d bf
       -0.4038645 1.8464116e-05 0.33658966 -0.989056
000050 df 7a a3 bd 23 96 ab 3e 7e 24 a9 3e a0 58 20 bd
       -0.0798242 0.33512983 0.33035654 -0.03914702
000060 a8 f8 b3 3d 5a 2f 1b be 8b 87 23 b9 1b 27 0c bf
       0.08787662 -0.15154782 -0.00015595385 -0.5474717
000070 7a dc bc be 7e d2 83 be f6 6b 7f 3e 8e 76 72 be
       -0.3688696 -0.2574653 0.24943528 -0.23678038
000080 49 82 97 be 89 fe 27 3f c4 ca b7 3f 82 75 3a 3a
       -0.29591587 0.65622765 1.4358754 0.0007112847
000090 86 42 8d bf 1f 87 a9 3f 83 07 07 3f e7 c8 d7 3f
       -1.1035926 1.3244361 0.52745837 1.6858186
0000a0 eb 6f c5 bd e3 d8 66 3a 96 97 c0 bc c9 91 94 3d
       -0.09640487 0.00088061224 -0.023509782 0.07254369
0000b0 60 08 93 b6 bf 7a a2 3d 29 49 7e bf 5d a2 03 bd
       -4.3819164e-06 0.07933568 -0.99330384 -0.032137264
0000c0 a8 c5 66 3e 0b d7 ea 3e 73 4f 9b bc 21 e7 00 00
       0.22536337 0.4586719 -0.018958783 8.2913e-41
0000d0 4a 51 17 80 cd 33 07 80 9f 53 81 bc 28 19 be be
       -2.141377e-39 -6.61431e-40 -0.015786944 -0.37128568
0000e0 49 c7 2c 3e f3 fe 1f 3f 43 04 d3 be 21 bc de 39
       0.16872896 0.62498397 -0.4121419 0.00042483307
0000f0 a7 b7 ae 3d 3c 4b de 3e e5 0b 3d b5 81 15 0a bf
       0.08531123 0.43416774 -7.0425295e-07 -0.5393906
000100 1c 07 55 be 2c 30 1f 3d 51 df ae 3e 0d 04 9e be
       -0.20803493 0.0388643 0.34154752 -0.30862466
000110 ce e1 8f be de b3 e9 bd 7c 80 19 80 ae 9a 2f 00
       -0.28101963 -0.1141126 -2.341979e-39 4.371757e-39
000120 ff 0b 2c bf 48 11 c4 bf 35 d3 26 3c 52 a0 3b 3c
       -0.67205805 -1.5317774 0.010182192 0.011451798
000130 a0 c6 9d 3f 4f 44 a7 b8 9a ea 39 00 e0 86 2a 80
       1.232624 -7.975904e-05 5.318782e-39 -3.905475e-39
000140 7c 09 42 00 87 48 ac bf 39 0e 06 3d 2e a7 52 bd
       6.064545e-39 -1.3459634 0.032728408 -0.051428966
000150 d1 6d 47 be f7 ab 81 3e 02 11 a2 be 26 7e 2a 00
       -0.19475485 0.2532651 -0.316536 3.902344e-39
000160 39 75 35 80 38 1f 27 80 43 40 68 3e 11 98 21 bf
       -4.909333e-39 -3.592784e-39 0.22680764 -0.6312266
000170 6f 3d 9b 3b 97 38 a5 bd a8 e8 1f 3f 97 bc 35 be
       0.004737548 -0.08067434 0.6246438 -0.17747723
000180 23 28 5c 3e b8 65 2b be 6d af d8 b8 84 b9 20 be
       0.21499686 -0.16738021 -0.00010332358 -0.15695769
000190 76 1f 7e 3f b3 61 a1 3b 3b 1f ed be e0 2e e4 be
       0.99266756 0.0049249767 -0.4631289 -0.44567013
0001a0 92 c5 79 b9 6a 33 ae 3d cb f3 91 3d 45 98 a1 38
       -0.00023820091 0.085059 0.07126578 7.705441e-05
0001b0 e0 0d 0e be 1c 31 6d bf 28 81 03 c0 69 7a 25 bb
       -0.1387248 -0.9265306 -2.054758 -0.0025249964
0001c0 2d 19 82 3f 2e 18 ec b7 37 93 2e 00 7a e6 13 80
       1.0163933 -2.8144652e-05 4.277244e-39 -1.827554e-39
0001d0 0a dd 39 00 c0 c4 11 bf 1d 7a 1f bf c9 5c 05 bd
       5.313917e-39 -0.5694084 -0.62295705 -0.03255919
0001e0 0f 56 8f be 67 c2 ae 3f f7 58 9b 39 3e a0 3a 3e
       -0.27995345 1.3653077 0.00029630188 0.1822519
0001f0 26 3d f4 be 1b 23 a2 37 a2 bf ff bd f9 c3 a5 3f
       -0.47702903 1.9328252e-05 -0.12487723 1.2950431
000200 50 70 dc 3b e0 b5 89 be 8f 67 18 bf 75 33 5d 39
       0.006727256 -0.26896572 -0.5953302 0.00021095372
000210 d6 c2 27 3e 88 b5 0b 3d 2c 35 ab b6 72 a9 0d bf
       0.16382918 0.03410867 -5.102387e-06 -0.5533668
000220 a7 36 f8 be 2c a8 d1 3b f4 5c 90 3d db 8c af 3e
       -0.48479196 0.0063982215 0.070489794 0.34287152
000230 30 30 48 b9 c4 11 97 be 6a 77 7f be b7 41 a5 39
       -0.00019091438 -0.29505742 -0.24947897 0.00031520214
000240 56 1e 84 bd cd c6 5f 3f fa 63 4d 3e 30 d9 3e be
       -0.064510986 0.8741272 0.2005767 -0.18637538
000250 8f 04 ea be 9c a4 1c 3d 39 6f 80 3b 6b 34 b5 bd
       -0.45706603 0.03824292 0.003919509 -0.088478886
000260 02 68 1b 35 4d f9 30 3e b8 88 5f be 09 81 0e bf
       5.789335e-07 0.172826 -0.21829498 -0.5566564
000270 53 dc df be 9f 20 0c 3f 65 8a 1f bd 9a 21 4d bd
       -0.43722782 0.54737276 -0.038950343 -0.050080873
000280 cd 68 90 3c 3b f2 da 3a d1 db 6a bd 7e 2e 2a 3f
       0.017628098 0.001670427 -0.05733854 0.6647719
000290 d2 6b 0a 3d f5 2a 0c 3f 42 d1 3f bf 32 9a ce 39
       0.03379423 0.5475305 -0.7492868 0.00039406266
0002a0 3e e5 07 3d f2 24 b2 3e 7f 84 b8 b6 8b 99 71 3d
       0.033177607 0.34793812 -5.499052e-06 0.05898432
0002b0 01 f5 b9 be 04 56 f0 bb 1c 19 e9 be ea 80 eb 3d
       -0.36319736 -0.0073344726 -0.4552697 0.11499198
0002c0 d6 ca 99 3a 78 4c 59 3e 1a 4d f3 3e 54 9b 20 3a
       0.0011733423 0.21220577 0.4751976 0.00061266613
0002d0 6a c0 2e 3f dc 9d 2b 3f 16 77 42 3f b5 0e 32 3f
       0.6826235 0.6703775 0.7596296 0.6955369
0002e0 5a 0b 83 be 70 bf d9 bc 6b ca 7b bd 08 03 7d 3e
       -0.25594598 -0.026580542 -0.061472338 0.24708188
0002f0 cb ba d1 33 82 67 f6 3e e7 58 de 3e 06 ce a5 bf
       9.766298e-08 0.48125845 0.43427202 -1.2953498
000300 63 76 59 3e ce f8 02 bf e6 42 5b 3a 8e 8a 9c be
       0.21236567 -0.51160896 0.00083641557 -0.3057446
000310 ab c9 3c 3f 26 d4 94 b8 d4 26 0a bd 38 4d 13 3d
       0.7374522 -7.096706e-05 -0.033728436 0.035962313
000320 64 c9 07 3c 63 1c 45 be 38 d3 dd bd 97 93 30 ba
       0.008287761 -0.1924911 -0.108313024 -0.000673586
000330 f6 4e a0 3e 66 49 81 bf cb e9 6d 39 43 d0 b7 bf
       0.31310242 -1.0100524 0.00022689176 -1.4360431
000340 61 a0 71 3f b9 3a 83 3e 09 7c 04 40 8f 49 3d 3f
       0.94385344 0.2563074 2.0700705 0.73940367
000350 01 6e 21 3b 37 4c 2a bd 88 d2 40 80 5e 85 24 00
       0.0024632218 -0.04157659 -5.952996e-39 3.353921e-39
000360 dd 74 50 bd ed a2 3e 3f f5 5c cb 3d 0f f1 67 bd
       -0.0508927 0.74467355 0.099298395 -0.056626376
000370 08 00 3c be c9 72 cf bd 49 00 03 3d b2 cd 8c 3b
       -0.18359387 -0.101293154 0.031982694 0.0042969817
000380 50 89 bd b7 01 d5 ac be 79 14 77 3f 10 fc 17 3e
       -2.2594497e-05 -0.3375626 0.96515614 0.14842248
000390 37 de e4 3f f5 1c 50 bf 71 19 3c 3a 67 7e a1 bc
       1.7880315 -0.81294185 0.0007175422 -0.019713594
0003a0 b3 df 24 3e 71 5a 24 b5 93 06 3b 3e e1 21 4c 3e
       0.1610096 -6.122637e-07 0.18264227 0.19934799
0003b0 5f ef b5 3c fa 10 2b bf da 11 cf be 68 e8 4f 3a
       0.022208868 -0.6682278 -0.40443307 0.00079310546
0003c0 7a d1 0d 3e 9c d1 9e be c8 75 2b 39 98 01 44 3c
       0.1384944 -0.31019294 0.00016351708 0.011963271
0003d0 50 e5 30 3d 9f 81 b3 3b 8d 65 d7 bc 1e 2e ff bf
       0.04318744 0.0054780985 -0.02629354 -1.9935949
0003e0 43 58 ce 37 b5 6b c0 3e 70 66 a8 bf 7a 2c ef 36
       2.4598214e-05 0.37582174 -1.3156261 7.127933e-06
0003f0 13 cf 1c bf 52 3c e9 be 3a d7 0d 3d a7 c1 90 be
       -0.6125347 -0.45553833 0.034629084 -0.28272745

layers.0.fc_self.bias f4 [64]
000000 bf c7 26 c0 cd 17 dc 3f 37 aa 35 3e ea a3 87 3e
       -2.6059415 1.7194763 0.17740713 0.26492244
000010 5f d6 86 3e aa bf a4 bf 35 7e 1e bd b5 ce 1f bf
       0.26335427 -1.2870991 -0.03869458 -0.62424785
000020 91 45 3e c0 6c 0c a3 be 86 70 57 3e 67 40 73 bd
       -2.972996 -0.31845415 0.21039018 -0.05938759
000030 26 85 18 c0 ea bf 96 3e 6d e6 ee bd 75 74 94 3e
       -2.3831267 0.29443294 -0.11665044 0.289951
000040 34 df 81 3f 2c 3d 12 3d a0 09 77 3e 9a c1 cc 3e
       1.0146241 0.03570287 0.24124765 0.39991456
000050 22 21 5a 3f 4d 42 95 3e 9e ee ea 3f dd 55 02 bf
       0.85206807 0.29152146 1.835407 -0.50912267
000060 9a 08 28 bc 3e 1b 53 3e 3b e0 b0 3f 21 0e c7 3f
       -0.010255957 0.20615861 1.381843 1.5551187
000070 98 07 cd bf b2 58 bc 3f 66 32 cc 3f 59 3a fd 3d
       -1.6017942 1.4714568 1.595288 0.123646446
000080 26 9d 92 3e 48 02 47 86 00 3e ff bf 89 bb 23 c0
       0.2863552 -3.7429416e-35 -1.9940796 -2.5583212
000090 79 ef bf 3d 93 8b 7e 3e 39 90 f8 bd a3 e3 09 3f
       0.09371848 0.24857931 -0.12136883 0.5386297
0000a0 bd e0 85 3f 7c 10 03 3f 70 41 c1 3e 08 1f 93 bd
       1.045921 0.5119703 0.37745237 -0.07183653
0000b0 a3 a4 1c c0 d5 96 a6 3e 53 6d 73 bf 7b 3e f6 3f
       -2.4475486 0.3253695 -0.9508869 1.9237818
0000c0 80 20 9b 3f d4 05 12 3f c2 ca 09 3f c4 d1 43 3f
       1.2119293 0.57040143 0.5382501 0.7649195
0000d0 0f 77 ae 3b 17 d3 2a 3f e6 f9 0f be 27 44 f9 3e
       0.0053242515 0.6672835 -0.14060172 0.4868481
0000e0 08 a0 ac bd c7 b0 d6 3f ca 22 1a 3f b5 84 af 3e
       -0.08428961 1.6772698 0.60209334 0.34280935
0000f0 61 30 ac 3f d5 d4 92 3f 45 dc ce 3f 33 0b 31 3e
       1.3452264 1.1471201 1.6160971 0.17289428

layers.1.fc_neigh.weight f4 [1, 64]
000000 88 91 74 bf 93 52 60 bc 8d 63 a8 3e 9e 9d 68 3c
       -0.95534563 -0.013691562 0.3288845 0.014197735
000010 cd 4a 5d 3b 60 fd 8f bf 9d e7 59 3c f7 e2 57 be
       0.0033766509 -1.1249199 0.01329985 -0.21082674
000020 43 2b e8 bf 50 55 8d 3e 18 40 6d 3e 1a 32 3e 3f
       -1.8138202 0.2760415 0.23168981 0.742952
000030 10 48 eb c0 f7 3b 87 be fc 23 ee 3e ba 65 6c bf
       -7.3525467 -0.26412937 0.4651183 -0.9234272
000040 d6 b3 02 bb 9d 69 e8 be 21 1a 9f 3d ba bf 5c bd
       -0.0019943616 -0.45393077 0.077686556 -0.053893782
000050 a8 18 7e 3b 27 32 60 3d 05 76 05 be a4 29 7d 3b
       0.003877202 0.05473533 -0.13033302 0.0038629556
000060 58 ec 2e 3d b7 c8 9c 3b 5b 04 e3 bc 8a 6a 3f be
       0.042705864 0.0047846693 -0.027712038 -0.18692985
000070 31 45 51 be 6d 41 5b be 9f 23 8b bc 00 85 48 3e
       -0.2043655 -0.21411677 -0.016984759 0.19581985
000080 4c c1 71 be d9 e2 a9 87 83 e8 33 c0 77 e7 69 bf
       -0.23608893 -2.5561623e-34 -2.8110664 -0.9136881
000090 23 c3 0a bf b6 66 7b 3c 50 c9 29 3f 79 ec 9a c0
       -0.54204005 0.015344312 0.66322803 -4.8413663
0000a0 92 5d 1d 3f bb 28 62 be ce c3 ea 3b e7 15 cd 3e
       0.614709 -0.2208585 0.007164455 0.40055773
0000b0 6f 87 a2 bf ee 1e 1e bf 78 1c d3 be 34 1c 9b 3b
       -1.2697581 -0.61765945 -0.41232657 0.0047335867
0000c0 84 09 84 bc 6f 52 30 3e 01 45 01 3e 77 51 a9 be
       -0.016117819 0.17218946 0.12623979 -0.33069965
0000d0 cc 6e 8d 3f 31 8a 41 3d 2e a7 8f 3f b7 50 a1 3d
       1.1049438 0.04725093 1.1222894 0.07876723
0000e0 0d a9 24 bd 3b fa 30 be b1 16 13 be 80 69 1a 3e
       -0.040200282 -0.17282955 -0.14364125 0.15079308
0000f0 6d 5d c8 be 3d 08 2e bc 6e 44 8b be 24 60 b8 be
       -0.39133778 -0.010622081 -0.27200645 -0.3601085

layers.1.fc_self.weight f4 [1, 64]
000000 74 7a d9 bf 17 cb b4 bd 11 97 a3 3d 11 17 db bf
       -1.6990495 -0.08827799 0.07987798 -1.7116414
000010 07 56 0d 3b 35 86 f5 be 4e 7a 11 3c 83 b4 64 bd
       0.002156617 -0.47953954 0.008879257 -0.055836212
000020 ec 29 0d c0 a9 a5 16 3e 71 f1 d5 3e 43 6f cb bf
       -2.2056837 0.14711632 0.41785768 -1.5893329
000030 59 93 a6 c0 b7 77 25 bc ad 32 86 3d a1 d2 33 be
       -5.205487 -0.010099343 0.065526344 -0.17560817
000040 50 6f f6 ba d7 5f c7 bf 71 16 07 3d a4 46 8a bf
       -0.0018801484 -1.5576123 0.032980386 -1.0802808
000050 95 cb d2 b9 30 ba 16 3d f2 56 2b bf 44 a5 29 3b
       -0.00040206002 0.036798656 -0.66929543 0.002588586
000060 9e 45 5e 3e ff 7b 4e 3b c9 3d a9 bd a2 1a 54 c0
       0.21706244 0.0031507013 -0.08263738 -3.3141255
000070 aa fc 70 bd a2 62 91 c0 bd 32 1d be b9 a5 ee 3d
       -0.05883471 -4.54329 -0.15351386 0.11652703
000080 3a bf 80 bd e5 5d ee 09 94 24 57 c0 e7 10 10 bf
       -0.062864736 5.7384714e-33 -3.3616076 -0.5627579
000090 b1 14 9f be aa f5 29 3c f8 ef 7d c0 db 81 34 c0
       -0.31070474 0.010373512 -3.9677715 -2.8204257
0000a0 6d 05 da be 30 5d 23 c0 70 9a b2 3b f0 4e 14 3e
       -0.42582265 -2.5525627 0.0054505393 0.14483237
0000b0 1c cc 8b bf cd fb 6e c0 67 92 b1 be 10 ce a0 bd
       -1.0921664 -3.7341187 -0.3468201 -0.07851803
0000c0 8f 54 46 bf f1 78 4e 3d c1 12 72 3d 09 70 89 3d
       -0.77472776 0.050408307 0.059099916 0.06710822
0000d0 ca 63 a5 3e e6 e8 40 c0 b0 c1 36 3e 0f aa 4e 3d
       0.32302696 -3.014215 0.17847323 0.05045515
0000e0 5f 6f 15 bf ee e7 95 c0 32 b1 4f bd b0 27 c2 3d
       -0.58373064 -4.6845617 -0.050706096 0.09480226
0000f0 5b 7f 1a c0 e0 69 5a bc 34 23 4d c0 94 03 72 be
       -2.4140232 -0.013330907 -3.2052736 -0.23634177
