N0-Noise/weight_5/best_model_no_noisse_weight_5.pth (torch, 8135 bytes, 5 tensors)

layers.0.fc_neigh.weight f4 [64, 9]
-0.06974949 0.29989243 -0.24726248 0.0766267 -0.5168945 -4.101755e-05 -0.45470133 -1.7434758
3.804845e-39 1.7177023 -2.0700848 0.036547184 -0.8304848 0.3851024 -0.00069307827 1.5619256
0.7192591 -4.95879e-40 -0.10304905 1.8132331 0.041389722 0.9775897 0.10368512 -0.091773346
0.19680573 0.051506348 5.780028e-39 -0.24051172 -0.3114162 0.034145303 0.076108165 0.13994949
0.25741565 0.005274754 -2.5497253e-09 9.65038e-40 -0.9235542 0.937784 0.9007222 1.0660492
-0.25604406 -0.004814592 -1.0807581 0.28838018 4.411778e-39 0.08225223 -0.2548398 -0.0006403058
0.014652154 0.6758639 -0.14338422 0.5044345 -0.61691034 4.04593e-39 -3.1470237 -0.6635052
-0.76295525 0.26684463 1.0930201 0.0048298035 -0.7981416 0.07514232 1.766946e-39 -0.14572152
-0.51804507 -0.0107319495 0.14887162 0.053688828 0.25840387 0.066175796 0.08743919 2.335344e-39
-0.6244689 -1.335249 0.0008646189 0.0038175886 -0.10065362 2.8901064e-05 0.05745489 -2.7522988
-5.973032e-39 -0.112399146 0.39076787 0.120919205 -0.18250856 0.028015789 -0.5910752 0.026912272
-0.06638195 1.777952e-39 -2.0400612 0.21804252 -0.2568836 0.10726047 0.18740585 0.20174573
0.118080534 -0.16093437 -3.052248e-39 0.15998363 -1.1053712 0.03855564 -0.47766903 -1.0262338
-1.3892801 -0.263115 -0.06488061 5.424852e-39 -0.006958846 -0.09738041 -0.00040489584 0.0068188384
-0.21232474 -9.158561e-05 0.08150992 -0.4779897 -7.34495e-40 0.005314879 1.0895989 -0.032284535
0.024962962 -0.016853696 -0.011089371 -0.15376459 0.70965093 -5.56511e-39 -0.4879218 1.1407154
0.0008563631 -0.26822954 -0.66321117 1.8013614e-05 -1.0042031 0.109638244 1.456018e-39 -0.38372493
-1.196895 0.03455991 -0.5699077 1.1843913 -0.019090455 -1.9303555 0.3622318 -3.752247e-39
1.0193877 -0.9067516 0.693093 -0.7924841 0.7764187 -0.15107323 1.053672 0.22156613
-8.9311e-40 -0.60555506 -1.5848527 -0.1251708 0.20555358 0.21868476 0.20469539 3.5367436e-09
3.5367436e-09 -1.31726e-39 -1.1448522 0.33863595 0.06435203 -0.20975368 0.035330225 -0.0007146584
-1.899154 1.515347 -4.626363e-39 -0.25360018 -0.18574737 -0.48902977 -0.2528993 -0.07415251
-0.32840008 1.4931748 -0.03163293 -2.688268e-39 -0.79392755 0.9539633 0.82531446 0.5427651
-0.45003828 0.037794627 -1.3322175 0.908828 6.095044e-39 0.4730148 0.28273395 0.041353427
0.25058568 0.22356656 -0.0004982459 -0.9201003 2.3959613 -6.64735e-40 0.4952663 -1.066755
0.017183427 -0.22421414 -0.5009818 0.0001347266 0.054376926 -0.11641447 4.424796e-39 1.1716659
-1.1564782 0.57594603 -0.69029796 0.55060863 -0.14166312 0.81968164 0.24194518 3.68473e-39
-0.5987583 -1.1564908 0.08408506 -0.57337815 -0.5589936 -0.64134926 -0.5982321 0.610793
-2.254402e-39 -0.5517367 1.0911143 0.46265155 0.7628193 0.10471534 -0.0065909913 -1.2879461
0.26623175 9.569e-41 1.8183026 -1.9689026 0.09618844 -1.0808383 0.8122617 -0.0017475632
1.7213762 0.50752187 -4.501804e-39 -0.04703142 -0.14684077 0.001957701 -0.06451043 0.13617094
0.00038096623 -0.05203779 -0.046773702 6.90203e-40 -0.5597534 -0.5538 -0.07544402 -0.35730568
00000000: d2d8 8ebd 808b 993e 6032 7dbe 76ee 9c3d
00000010: 3353 04bf 420a 2cb8 9dce e8be 372a dfbf
00000020: 5c6e 2900 abdd db3f 457c 04c0 80b2 153d
00000030: a79a 54bf 242c c53e b2af 35ba 2eed c73f
00000040: 5d21 383f 4f66 0580 610b d3bd 0618 e83f
00000050: 4588 293d 5243 7a3f dd58 d43d aaf3 bbbd
00000060: 7187 493e 52f8 523d 5ef0 3e00 b448 76be
00000070: f271 9fbe f2db 0b3d 99de 9b3d eb4e 0f3e
00000080: fccb 833e d8d7 ac3b 3e37 2fb1 2282 0a00
00000090: 0c6e 6cbf 9d12 703f bb95 663f 4d74 883f
000000a0: 3518 83be bac3 9dbb 4856 8abf 91a6 933e
000000b0: 3e0a 3000 db73 a83d 5d7a 82be 32da 27ba
000000c0: 970f 703c 6b05 2d3f 50d3 12be 9f22 013f
000000d0: d6ed 1dbf 680e 2c00 d668 49c0 7adb 29bf
000000e0: 0951 43bf dc9f 883e 15e8 8b3f 5443 9e3b
000000f0: 0253 4cbf 37e4 993d 873d 1300 0638 15be
00000100: 9a9e 04bf 0fd5 2fbc cd71 183e d1e8 5b3d
00000110: 834d 843e 2d87 873d 5113 b33d fd6d 1900
00000120: 32dd 1fbf 70e9 aabf 98a7 623a 8230 7a3b
00000130: 7c23 cebd 9070 f237 d255 6b3d aa25 30c0
00000140: 620a 4180 8631 e6bd ba12 c83e 7da4 f73d
00000150: 86e3 3abe 5e81 e53c b450 17bf 2077 dc3c
00000160: 43f3 87bd 355c 1300 5d90 02c0 8a46 5f3e
00000170: 3f86 83be 61ab db3d 52e7 3f3e 6f96 4e3e
00000180: 35d4 f13d fbcb 24be 6d3c 2180 c0d2 233e
00000190: ce7c 8dbf 85ec 1d3d 0991 f4be a15b 83bf
000001a0: eed3 b1bf 02b7 86be 20e0 84bd 4812 3b00
000001b0: 0807 e4bb 616f c7bd 3348 d4b9 9070 df3b
000001c0: a86b 59be a611 c0b8 acee a63d 11bb f4be
000001d0: 79ff 0780 7028 ae3b fa77 8b3f ca3c 04bd
000001e0: 207f cc3c c310 8abc 31b0 35bc 7774 1dbe
000001f0: afab 353f 4399 3c80 e3d0 f9be f602 923f
00000200: 8e7d 603a 6255 89be 35c8 29bf f11b 9737
00000210: ba89 80bf 048a e03d c9da 0f00 9877 c4be
00000220: db33 99bf b18e 0d3d 79e5 11bf 229a 973f
00000230: 9663 9cbc e415 f7bf 7276 b93e bddb 2880
00000240: 4c7b 823f df20 68bf 8b6e 313f 3de0 4abf
00000250: 60c3 463f f1b2 1abe b9de 863f 3be2 623e
00000260: a1b9 0980 a805 1bbf 74dc cabf c62c 00be
00000270: a37c 523e e6ee 5f3e ab9b 513e 0d0b 7331
00000280: 0d0b 7331 fc57 0e80 848a 92bf b161 ad3e
00000290: ffca 833d abc9 56be 6db6 103d ea57 3bba
000002a0: 7a17 f3bf e4f6 c13f 6b60 3280 e2d7 81be
000002b0: 8f34 3ebe 1c62 fabe 047c 81be 45dd 97bd
000002c0: 0e24 a8be 5a20 bf3f 8891 01bd cc45 1d80
000002d0: d63e 4bbf f036 743f cf47 533f a7f2 0a3f
000002e0: 6b6b e6be 8ace 1a3d 1a86 aabf f4a8 683f
000002f0: 815e 4200 ff2e f23e 81c2 903e 3662 293d
00000300: c44c 803e a2ee 643e b79c 02ba b18b 6bbf
00000310: 6e57 1940 033d 0780 8b93 fd3e 6e8b 88bf
00000320: 42c4 8c3c 6498 65be 5840 00bf 6545 0d39
00000330: 57ba 5e3d b66a eebd 882e 3000 26f9 953f
00000340: 7a07 94bf 3371 133f 5eb7 30bf b0f4 0c3f
00000350: 2310 11be a8d6 513f 7ac0 773e 871f 2800
00000360: 3948 19bf e407 94bf ca34 ac3d e9c8 12bf
00000370: 341a 0fbf 772f 24bf bd25 19bf ee5c 1c3f
00000380: 5b8c 1880 9e3e 0dbf a2a9 8b3f aae0 ec3e
00000390: 2048 433f ff74 d63d 3ef9 d7bb 6bdb a4bf
000003a0: 874f 883e bf0a 0100 24be e83f 0005 fcbf
000003b0: 72fe c43d e958 8abf 62f0 4f3f 7e0e e5ba
000003c0: 0e56 dc3f f4ec 013f 3305 3180 05a4 40bd
000003d0: 6d5d 16be c64c 003b 0b1e 84bd 6570 0b3e
000003e0: 6cbc c739 9425 55bd c895 3fbd 0184 0700
000003f0: 004c 0fbf d6c5 0dbf 6582 9abd c5f0 b6be

layers.0.fc_self.weight f4 [64, 9]
0.06493518 -0.065637775 -0.18026876 -0.0485963 0.781073 0.00012759601 3.549708e-39 -1.961319e-39
-4.8779e-39 0.38682032 -0.23099689 0.05641405 -0.51320994 -0.15776753 0.0005913114 -0.005796266
-0.42127225 5.7438934e-05 0.077291 -0.50166565 -0.05707832 0.19309844 -0.35071287 -0.036448725
-0.08534593 -0.15087186 -4.8270642e-05 -0.4140998 -0.3126225 -0.1733248 0.25464168 -0.26768664
-0.2898024 0.39906362 1.1867294 0.0004417288 -1.2695355 0.8947709 0.09860796 1.3679171
-0.050676342 -0.00010295282 0.22463588 -0.02305309 -4.104818e-08 0.15034163 -1.0957111 -0.016445309
-0.02062875 0.5252442 -0.02876012 5.798097e-39 3.626126e-39 3.52834e-39 0.6401059 -1.4907365
0.40982953 -0.2859288 0.19809152 -0.003934888 0.095794804 -0.035987176 -2.1818641e-06 -0.3029851
-0.45162585 -0.029736849 0.46044052 0.24850582 -0.32058856 -5.8581e-39 -1.27927e-40 -5.997852e-39
-0.68620056 -1.5527077 0.010237592 0.00260514 1.2577126 -0.00022684027 6.238497e-39 -2.549682e-39
3.285926e-39 -0.7592403 -0.5281752 0.07676792 -0.2443188 -0.40253687 -0.090195656 -0.3919285
2.461497e-39 -1.805664e-39 0.19338009 0.19280925 0.004441708 0.025650404 -0.15560943 -0.19674388
0.14366694 -0.14429148 -2.529608e-05 -0.13406034 0.98276526 0.004417933 -0.45465857 -0.46426594
-0.00013937692 0.033486284 0.0557947 -3.477608e-39 -0.111531235 -0.9636252 -1.9550524 -0.0023941726
1.0147672 -2.0185912e-06 1.513331e-39 -3.51072e-39 1.686279e-39 0.5215038 -0.093032755 -1.7948734
0.10003064 0.5958512 0.0009961298 -1.4643472 -2.360972e-39 5.128944e-39 -0.002016723 1.2540659
0.01044871 -0.19865234 -0.68670785 9.639014e-05 0.17944726 -0.07320115 -5.4220476e-05 -0.3843592
0.46242172 0.0015181038 -0.2775462 -0.2539786 6.841349e-06 -0.0139832115 -0.20277002 0.00054869667
-0.08097158 0.49903128 0.13360803 -0.3311201 0.54340106 0.03702762 -0.05515407 -0.062648304
1.2058522e-06 -0.73048705 -1.5195544 -0.03288955 -0.12969643 0.6660375 -0.20482145 5.49786e-39
3.343022e-39 4.72984e-39 0.06325733 0.1810151 0.032112453 0.65152293 -0.5046034 0.00042920955
0.11255484 0.19617316 -6.7010888e-06 -0.47327954 -0.6225941 -0.0139838355 -0.2278143 0.5479568
0.00034293887 0.054061368 -0.031294387 0.00068244216 0.52362436 -0.04164974 0.5294047 0.5965896
0.5603555 -0.021730565 0.031736404 0.11144994 3.9506025e-07 0.2374689 0.2705943 -1.6201243
0.1565468 -0.48148954 0.0001838857 -0.5106243 0.35013962 -2.3246954e-05 0.035836395 -0.011181993
0.013207192 -0.24867573 -0.14090511 -5.431142e-05 0.7678406 -0.16408956 9.1070266e-05 -0.08763596
0.145239 0.075824164 -0.37332556 0.3581861 0.041105174 -0.028899308 -0.030986404 4.833269e-07
0.11980049 0.2862982 0.017807132 -0.32922933 0.042918526 0.0002612965 0.5353755 0.72720855
0.001409629 -0.32113776 0.49863046 -2.5448568 1.5623617 -0.97349244 0.0027844335 0.010145763
1.474251e-39 -1.25203e-39 0.24023893 0.12973416 0.04867014 -0.74274004 -0.1472974 0.00082024315
-0.062372897 -0.16700578 4.0492556e-05 -0.009119471 -0.015392498 0.004279309 -0.056093868 -0.06520508
-0.0004053805 0.22848874 -0.1602709 7.5970835e-05 -0.6936586 -0.48872375 0.040121254 -0.39143613
00000000: bcfc 843d 196d 86bd 6098 38be ea0c 47bd
00000010: 66f4 473f 4bcb 0539 24a7 2600 5c5b 1580
00000020: 9a1d 3580 500d c63e 738a 6cbe 6b12 673d
00000030: ba61 03bf d08d 21be 3c02 1b3a 9aee bdbb
00000040: ffb0 d7be 96ea 7038 be4a 9e3d 296d 00bf
00000050: f5ca 69bd 99bb 453e a390 b3be 424b 15bd
00000060: d9c9 aebd 277e 1abe 3576 4ab8 e404 d4be
00000070: 0e10 a0be 0e7c 31be 6560 823e 390e 89be
00000080: fb60 94be 1152 cc3e c0e6 973f d697 e739
00000090: 2480 a2bf b50f 653f f8f2 c93d e817 af3f
000000a0: ff91 4fbd 60e8 d7b8 f306 663e d5d9 bcbc
000000b0: f44c 30b3 28f3 193e 4340 8cbf 50b8 86bc
000000c0: a0fd a8bc 6776 063f 589a ebbc bc22 3f00
000000d0: 2a7c 2700 946b 2600 fbdd 233f 74d0 bebf
000000e0: 2dd5 d13e 4265 92be 81d8 4a3e 3cf0 80bb
000000f0: 1130 c43d 4a67 13bd 246c 12b6 dd20 9bbe
00000100: 813b e7be b19a f3bc dcbe eb3e 4f78 7e3e
00000110: 2f24 a4be 00ca 3f80 9c64 0180 924f 4180
00000120: d7aa 2fbf 20bf c6bf 93bb 273c ffba 2a3b
00000130: bafc a03f f9db 6db9 64ee 4300 7ac3 1b80
00000140: d3c7 2300 935d 42bf 7d36 07bf 8038 9d3d
00000150: b52e 7abe 5019 cebe 80b8 b8bd daaa c8be
00000160: a7cd 1a00 75a9 1380 6e05 463e ca6f 453e
00000170: bf8b 913b cc20 d23c 1458 1fbe 3a77 49be
00000180: 6d1d 133e 25c1 13be eb32 d4b7 1d47 09be
00000190: 8196 7b3f 4fc4 903b 02c9 e8be 44b4 edbe
000001a0: b525 12b9 ea28 093d fc88 643d 28de 2580
000001b0: 7d6a e4bd 24b0 76bf 283f fabf 8de7 1cbb
000001c0: e4e3 813f 2277 07b6 8d7a 1000 763a 2680
000001d0: a95c 1200 4681 053f f587 bebd 69be e5bf
000001e0: dddc cc3d b489 183f 9290 823a bb6f bbbf
000001f0: 6eb5 1980 69d9 3700 ff2a 04bb 3b85 a03f
00000200: 1131 2b3c 856b 4bbe 16cc 2fbf 1025 ca38
00000210: 06c1 373e 7cea 95bd cb6a 63b8 bbca c4be
00000220: 8ac2 ec3e 1cfb c63a 891a 8ebe 7c09 82be
00000230: be8e e536 d719 65bc f2a2 4fbe 69d6 0f3a
00000240: 6ed4 a5bd 0781 ff3e 8bd0 083e 9388 a9be
00000250: 551c 0b3f 46aa 173d 3ce9 61bd c14d 80bd
00000260: c4d8 a135 3301 3bbf c280 c2bf 31b7 06bd
00000270: 24cf 04be 6f81 2a3f b7bc 51be ccdd 3b00
00000280: fc66 2400 df80 3300 0f8d 813d 065c 393e
00000290: 5988 033d 35ca 263f b02d 01bf 8807 e139
000002a0: 2783 e63d 9ee1 483e ead9 e0b6 b251 f2be
000002b0: 5462 1fbf 751c 65bc 2748 69be e646 0c3f
000002c0: 7acc b339 746f 5d3d 8b2e 00bd ebe5 323a
000002d0: 3f0c 063f eb98 2abd 1187 073f 19ba 183f
000002e0: 7573 0f3f 4c04 b2bc 08fe 013d de3f e43d
000002f0: ab18 d434 0c2b 733e 568b 8a3e 3c60 cfbf
00000300: ce4d 203e cc85 f6be 71d1 4039 46b8 02bf
00000310: 8045 b33e 7402 c3b7 2fc9 123d ae34 37bc
00000320: fa62 583c daa4 7ebe 6e49 10be 71cc 63b8
00000330: 3491 443f 1807 28be fafc be38 7b7a b3bd
00000340: 88b9 143e b349 9b3d 8724 bfbe 2b64 b73e
00000350: e65d 283d 3ebe ecbc 33d7 fdbc f9bd 0135
00000360: f659 f53d ad95 923e 43e0 913c bf90 a8be
00000370: 56cb 2f3d 9ffe 8839 5e0e 093f 572a 3a3f
00000380: 4dc3 b83a 2b6c a4be 7e4c ff3e efde 22c0
00000390: 78fb c73f cd36 79bf 0b7b 363b 6a3a 263c
000003a0: 9d0d 1000 26a2 0d80 3201 763e 08d9 043e
000003b0: 575a 473d 3624 3ebf 21d5 16be 9605 573a
000003c0: b97a 7fbd 9003 2bbe 8dd6 2938 d569 15bc
000003d0: d130 7cbc 7239 8c3b afc2 65bd 3e8a 85bd
000003e0: 4089 d4b9 f4f8 693e 0e1e 24be 8852 9f38
000003f0: 9c93 31bf 003a fabe 2f56 243d 516a c8be

layers.0.fc_self.bias f4 [64]
-2.414293 1.6740943 0.21920657 0.4813297 -0.20196053 -0.7582653 -0.060561717 -0.83642876
-2.843747 -0.040903877 0.38713324 -0.050932456 -2.301817 -0.31796092 0.015160694 0.20180947
0.8749376 -1.8821594 0.104671575 0.014599171 0.36239225 0.4038922 1.8430052 0.70571065
0.29847497 -0.2039938 1.3691279 0.7773678 -1.3063002 1.3719649 0.7140798 -0.10304249
-0.18850306 -9.8953615e-36 -1.9087391 -2.66252 0.055573262 -0.013293795 0.5970206 0.6754646
1.0447572 1.3129839 -0.05524967 0.23040524 -2.3773313 0.2863099 0.47142127 0.12794499
1.1277632 0.86104065 0.65668404 -0.110533215 -0.3305425 0.65165496 -0.07721052 0.08666669
-0.20880532 1.4133941 0.65229493 0.3750405 1.231136 0.6597771 1.9052881 0.4424431
00000000: c783 1ac0 b948 d63f b077 603e d970 f63e
00000010: bece 4ebe ad1d 42bf 900f 78bd 3220 56bf
00000020: f3ff 35c0 d38a 27bd 5436 c63e 8d9e 50bd
00000030: f850 13c0 c6cb a2be 8f64 783c 24a7 4e3e
00000040: e9fb 5f3f 99ea f0bf 0d5e d63d 5c31 6f3c
00000050: 7a8b b93e f5ca ce3e 98e7 eb3f 74a9 343f
00000060: b6d1 983e c0e3 50be 953f af3f 9301 473f
00000070: d834 a7bf 8c9c af3f efcd 363f f107 d3bd
00000080: f206 41be 7973 5285 9051 f4bf ba66 2ac0
00000090: caa0 633d 38ce 59bc 58d6 183f 3feb 2c3f
000000a0: 9bba 853f db0f a83f 7a4d 62bd 5aef 6b3e
000000b0: 3226 18c0 3697 923e 215e f13e 0304 033e
000000c0: 8b5a 903f 296d 5c3f 721c 283f 3d5f e2bd
000000d0: de3c a9be dcd2 263f 8d20 9ebd 4e7e b13d
000000e0: 10d1 55be 19ea b43f cdfc 263f 4f05 c03e
000000f0: dd95 9d3f 27e7 283f 7be0 f33f e787 e23e

layers.1.fc_neigh.weight f4 [1, 64]
-0.9527925 -0.02928954 0.2834686 0.0017298221 0.0055240854 -0.7502015 0.016226575 -0.5585671
-2.0577874 -0.044221427 0.07760521 0.74070066 -7.3186646 0.13667636 0.22888468 -1.0489335
-0.002355546 -1.2830828 0.050115228 -0.5603705 0.00553076 0.077937335 -0.024223873 -0.0019251042
0.02039078 0.00904389 -0.029174654 -0.16479455 -0.210238 -0.22254986 0.0012614075 0.72443146
0.02147744 -6.2992003e-32 -3.257241 -0.70136356 -0.64794123 0.0246189 -1.9026711 -0.9927816
0.37646687 -0.35942334 0.012330395 0.32370976 -1.5790092 -0.7812284 -0.2844509 0.13930519
-0.030730922 0.489268 0.118794754 -0.20464763 1.4493644 0.013349522 0.47717768 0.39830282
-0.12866226 0.3064451 -0.19860801 0.104770675 -2.9412613 -0.036349602 -0.1509749 -0.41009402
00000000: 36ea 73bf 9ef0 efbc cc22 913e 33bb e23a
00000010: 6303 b53b 350d 40bf 98ed 843c 41fe 0ebf
00000020: cab2 03c0 8721 35bd 7bef 9e3d 8f9e 3d3f
00000030: 8032 eac0 e3f4 0b3e bf60 6a3e 7443 86bf
00000040: 815f 1abb 0f3c a4bf a045 4d3d 7174 0fbf
00000050: 613b b53b 9c9d 9f3d 2571 c6bc c753 fcba
00000060: 910a a73c d32c 143c afff eebc e7bf 28be
00000070: a148 57be 1ce4 63be d055 a53a 5774 393f
00000080: 75f1 af3c 5e89 a38b a376 50c0 908c 33bf
00000090: 7adf 25bf 93ad c93c ba8a f3bf ef26 7ebf
000000a0: 44c0 c03e 5606 b8be 6d05 4a3c 49bd a53e
000000b0: f91c cabf 96fe 47bf 8ca3 91be 05a6 0e3e
000000c0: 6abf fbbc 5681 fa3e aa4a f33d 268f 51be
000000d0: c684 b93f f4b7 5a3c a250 f43e 59ee cb3e
000000e0: 0ac0 03be 5fe6 9c3e e65f 4bbe 0292 d63d
000000f0: a03d 3cc0 52e3 14bd 2a99 1abe d8f7 d1be

layers.1.fc_self.weight f4 [1, 64]
-1.1592981 -0.10324616 0.08330342 -1.4871455 0.0035631487 -1.6506742 0.043041337 -0.57460725
-2.3156283 0.313227 0.048354886 -1.7006704 -5.6304646 0.079205714 0.097858705 -0.7947952
-0.0026554621 -1.3808129 0.02607496 -2.7562973 -0.0008094443 0.058012825 -0.5953468 -0.0026338997
-2.1851716 0.008691996 -0.08489208 -2.185059 -0.055351447 -3.8262906 -1.5882381 0.09300472
0.0021902372 -1.4039908e-31 -3.8445814 -0.41581455 -0.31945455 0.015707418 -0.84057015 -5.179881
-0.31095955 -4.8781657 0.00876873 0.12902352 -1.31725 -3.1241715 -0.008019806 0.0050369184
-0.8427389 0.11924751 0.058324017 0.57857436 -0.05177362 -1.7111557 0.19766207 -0.14552887
-0.24563055 -0.48259735 -0.0848732 0.05989869 -2.8263752 -0.018118411 -2.9017763 -0.19644843
00000000: e163 94bf b972 d3bd fc9a aa3d c95a bebf
00000010: b783 693b 4b49 d3bf 1d4c 303d 7619 13bf
00000020: 4133 14c0 4a5f a03e c60f 463d 91af d9bf
00000030: c42c b4c0 9b36 a23d 256a c83d b377 4bbf
00000040: 4307 2ebb 7abe b0bf 289b d53c 2d67 30c0
00000050: e330 54ba db9e 6d3d a668 18bf 819d 2cbb
00000060: dad9 0bc0 e068 0e3c e6db adbd 02d8 0bc0
00000070: 33b8 62bd f2e1 74c0 634b cbbf 4279 be3d
00000080: 158a 0f3b 993f 368c 9f0d 76c0 a5e5 d4be
00000090: 8c8f a3be d8ac 803c 9b2f 57bf 96c1 a5c0
000000a0: 1736 9fbe ef19 9cc0 b8aa 0f3c be1e 043e
000000b0: a69b a8bf 6df2 47c0 8165 03bc bc0c a53b
000000c0: bdbd 57bf 0a38 f43d 2ae5 6e3d 731d 143f
000000d0: 9310 54bd 2607 dbbf ed67 4a3e 8505 15be
000000e0: 9386 7bbe 0017 f7be 00d2 adbd 5458 753d
000000f0: 55e3 34c0 106d 94bc b4b6 39c0 c729 49be
