N0-Noise/weight_8/best_model_no_noisse_weight_8.pth (torch, 8135 bytes, 5 tensors)

layers.0.fc_neigh.weight f4 [64, 9]
-0.37651253 -1.6844807 -1.1211244 -0.9012266 -0.3666103 -1.9067885 -0.07800933 0.11386683
-3.8145e-41 -0.008012451 -0.55046195 0.0056728586 -0.00328218 -0.16418847 -0.0006633562 0.17039403
-1.0798354 5.615187e-39 0.7957053 -1.4868453 0.025188422 -0.12921344 -0.27748364 -0.0002632828
0.61529857 0.17444928 -6.109807e-39 -1.9788452 1.4868317 0.33510262 0.3484883 -0.020809768
-0.0031043347 -1.8512326 0.5825057 2.48809e-39 -0.11843665 -0.90621763 0.047474872 -0.060208958
-0.35777527 0.1539382 -0.08289727 -0.09765484 -2.040885e-39 -1.1133442 -2.0317922 -1.5063038
-1.2226901 -0.7506742 -2.0684247 -0.6586509 0.4125611 -3.367651e-39 -2.425292e-39 -3.91264e-39
4.53169e-40 7.69889e-40 -1.167224e-39 -5.2405e-39 -0.107924886 -0.26518527 4.265756e-39 -1.7669333
0.8716435 0.3040582 0.64253205 -0.02339161 -0.0020289647 -1.7542907 1.2151978 -1.963163e-39
-1.0745888 -0.2710424 -1.0739275 0.061961878 -0.02138564 0.0023475145 -1.0661633 -0.35921246
2.288124e-39 -0.10521158 0.45642695 0.00978574 -0.010175071 -2.4185257 2.034701e-05 0.33993956
0.47790164 -3.986548e-39 -0.078944564 -0.5555736 0.21552408 0.0054514604 0.87811047 0.02248048
-0.47784677 -0.27801663 5.195896e-39 -0.0582938 -0.47198266 0.021763306 0.10118215 0.07656495
-0.108152516 -0.047534462 0.785479 2.657e-41 0.08207026 0.28948283 -0.6155823 -0.09038872
-0.9028588 0.3515276 0.1627982 -0.2665976 2.403726e-39 -0.6821731 0.38839498 -0.107751936
0.362641 -0.500778 0.11420316 0.039617233 0.44661063 -2.562894e-39 0.048278116 -0.47410795
0.006060678 -0.47892377 -0.80148464 0.0015108711 1.2436638 -1.0430555 -6.283368e-39 -0.13244003
0.6899292 0.016302893 0.09036248 -2.8247938 -0.00013964646 -1.9985739 0.4186983 -8.30684e-40
-0.4744905 -1.0437913 0.0016156127 0.014201957 -0.18068506 0.00013763417 -0.116365515 -2.0421646
-3.963909e-39 -0.2513845 -0.5275682 -0.9532857 -0.44324172 -0.2997662 -0.22370854 0.45205104
0.38907546 3.733426e-39 -0.038259007 -0.013985231 -0.063576974 -0.014302276 -0.008680914 -0.25335193
-0.1753424 -0.39634743 -1.103412e-39 0.46661246 -1.0700914 0.0128727425 0.2732807 0.50263155
-0.00017896052 0.55849016 0.44322187 3.930967e-39 3.0510745 -2.2474785 0.080334306 -1.1197369
0.19842158 -0.005506952 1.2658854 0.052529424 1.941336e-39 -0.22456416 -1.485625 0.06321911
-0.15000907 0.2056413 0.12162814 2.6500018 1.2532892 6.190641e-39 0.19522454 0.032897227
0.012404797 0.14846645 0.26802543 -0.3489736 0.75295264 0.103031546 -1.11153e-39 0.2721649
-0.43329418 0.014352761 0.3004507 -0.18005084 -0.001582768 0.6084012 0.27079412 4.071156e-39
-0.4398156 -0.7918499 0.004519867 -0.0173687 0.0058038263 0.00012447147 0.021696128 -1.8104303
3.455249e-39 0.73888874 -0.49118763 -0.09274731 -0.1792314 -0.07275764 -0.13285981 0.82714516
-0.23518582 -2.953976e-39 -0.00846358 -0.023132537 0.00024627103 0.0040992056 -0.038699787 3.0216413e-06
-0.018244812 -0.16725236 -6.174267e-39 -0.2531409 1.7709552 -0.000538597 -0.6085601 -0.9131634
0.00023009641 -0.103744164 -0.23225698 -6.72349e-40 -0.24796624 1.3453673 -0.006844042 -0.658997
00000000: 40c6 c0be 109d d7bf 0181 8fbf c9b6 66bf
00000010: 58b4 bbbe a511 f4bf 5bc3 9fbd 0333 e93d
00000020: 556a 0080 a846 03bc 13eb 0cbf 63e3 b93b
00000030: d819 57bb 0621 28be 15e5 2dba c67b 2e3e
00000040: 0c38 8abf db24 3d00 58b3 4b3f f250 bebf
00000050: f357 ce3c 8750 04be 5612 8ebe 3809 8ab9
00000060: 3584 1d3f d5a2 323e a887 4280 cd4a fdbf
00000070: 8050 be3f 9292 ab3e 0f6d b23e 3f79 aabc
00000080: 1872 4bbb 31f5 ecbf 181f 153f c817 1b00
00000090: ea8e f2bd e1fd 67bf 0375 423d ab9d 76bd
000000a0: 522e b7be faa1 1d3e 0bc6 a9bd 43ff c7bd
000000b0: 2839 1680 1082 8ebf e208 02c0 90ce c0bf
000000c0: 1c81 9cbf 2f2c 40bf 1261 04c0 589d 28bf
000000d0: 353b d33e a4ab 2480 ba68 1a80 d99a 2a80
000000e0: 40ef 0400 2362 0800 bfb5 0c80 6210 3980
000000f0: b907 ddbd 5dc6 87be 3173 2e00 df2a e2bf
00000100: 0724 5f3f 84ad 9b3e fb7c 243f c39f bfbc
00000110: 61f8 04bb 998c e0bf 9a8b 9b3f 8060 1580
00000120: 208c 89bf 12c6 8abe 7576 89bf bdcb 7d3d
00000130: f030 afbc c2d8 193b 0a78 88bf b2ea b7be
00000140: 5cea 1800 2b79 d7bd cbb0 e93e 5e54 203c
00000150: 57b5 26bc 20c9 1ac0 dfae aa37 8f0c ae3e
00000160: 86af f43e e068 2b80 b0ad a1bd 123a 0ebf
00000170: 58b2 5c3e 2aa2 b23b d9cb 603f fc28 b83c
00000180: 55a8 f4be 3258 8ebe 0b94 3800 7bc5 6ebd
00000190: b6a7 f1be f648 b23c 9638 cf3d 16ce 9c3d
000001a0: 117f ddbd 7fb3 42bd 2715 493f 114a 0000
000001b0: 7414 a83d 1837 943e cd96 1dbf b91d b9bd
000001c0: c121 67bf 6dfb b33e 92b4 263e 7b7f 88be
000001d0: 9c2c 1a00 e5a2 2ebf b5db c63e 0cad dcbd
000001e0: 15ac b93e fd32 00bf 59e3 e93d ae45 223d
000001f0: 26aa e43e 4ee8 1b80 46bf 453d 47be f2be
00000200: a798 c63b 7f35 f5be 192e 4dbf 6c08 c63a
00000210: 6030 9f3f d882 85bf 796b 4480 5c9e 07be
00000220: 339f 303f a58d 853c f70f b93d 6cc9 34c0
00000230: 106e 12b9 45d1 ffbf a05f d63e 9c0b 0980
00000240: 6bf0 f2be f49a 85bf f7c2 d33a 53af 683c
00000250: 8105 39be e451 1039 0b51 eebd d3b2 02c0
00000260: c429 2b80 78b5 80be b60e 07bf 880a 74bf
00000270: 94f0 e2be f57a 99be da13 65be 3c73 e73e
00000280: e634 c73e 46a7 2800 7ab5 1cbd 4f22 65bc
00000290: a534 82bd 1854 6abc 643a 0ebc 58b7 81be
000002a0: f58c 33be 0dee cabe dd03 0c80 d4e7 ee3e
000002b0: c1f8 88bf 32e8 523c 73eb 8b3e 76ac 003f
000002c0: 59a7 3bb9 36f9 0e3f faed e23e f0cd 2a00
000002d0: ce44 4340 b0d6 0fc0 5086 a43d 8a53 8fbf
000002e0: 072f 4b3e a973 b4bb 8808 a23f 1829 573d
000002f0: a823 1500 26f4 65be f628 bebf 0579 813d
00000300: fa9b 19be a293 523e 2d18 f93d a199 2940
00000310: c86b a03f fd68 4300 f1e8 473e 3ebf 063d
00000320: 7d3d 4b3c 9707 183e a13a 893e abac b2be
00000330: 81c1 403f 3402 d33d 7e1a 0c80 3359 8b3e
00000340: bcd8 ddbe d827 6b3c add4 993e 3f5f 38be
00000350: e274 cfba 2ec0 1b3f 87a5 8a3e ba54 2c00
00000360: 832f e1be adb6 4abf 641b 943b ce48 8ebc
00000370: 062e be3b 8e84 0239 14bc b13c 2ebc e7bf
00000380: d49f 2500 d027 3d3f f27c fbbe 4df2 bdbd
00000390: 7088 37be f501 95bd 670c 08be c9bf 533f
000003a0: 8dd4 70be 7c2a 2080 d4aa 0abc 7280 bdbc
000003b0: f01d 8139 a152 863b ab83 1ebd 67c7 4a36
000003c0: 2576 95bc 3444 2bbe 583b 4380 af9b 81be
000003d0: a9ae e23f a230 0dba 98ca 1bbf 14c5 69bf
000003e0: 0946 7139 d277 d4bd c6d4 6dbe 3c52 0780
000003f0: ddea 7dbe ff34 ac3f fc43 e0bb 07b4 28bf

layers.0.fc_self.weight f4 [64, 9]
-0.15000065 0.9404241 0.005012525 -0.16985416 -0.43327382 -0.0001121033 0.5167542 4.426521e-39
5.063556e-39 -0.020841947 -0.88962907 0.0037621553 0.008585866 0.831804 -0.0007838732 4.456551e-39
-3.885296e-39 -4.643474e-39 0.1209747 -0.4268312 0.00079770444 -0.22701778 0.45226285 -0.00043014434
0.12040185 -0.25933528 0.0007867591 -0.94058174 1.0977867 0.21348003 1.4072279 -0.10882679
-0.00013954517 0.056782622 0.07217204 -5.2484484e-06 -0.46426466 -0.6027182 -0.49384984 0.5099785
0.36723673 -0.20433901 0.44089633 1.1409565 0.0018475107 -0.17611581 0.4999945 -0.15202406
0.31278032 0.15774971 9.98965e-06 -0.18824627 0.24412487 0.003367007 -0.06354435 0.15563862
0.020383546 -0.31233096 0.13337241 -0.39873487 0.05908392 0.5471513 0.0024802724 -0.4934278
1.0202993 0.008270104 1.298023 -0.75151724 0.00046388534 0.3981314 -0.04562091 -2.628617e-06
0.6275297 0.9136646 0.028682502 0.07330149 -0.39427152 -0.0016475787 -1.5380766 0.10566452
-9.8022065e-05 0.009258892 -0.011127769 0.0065658153 0.048885193 -1.7954459 -8.677078e-05 -0.24303897
-0.70567703 9.466488e-05 1.2312129 -1.9633077 -0.77353656 -0.0137020815 -0.8208357 -0.0133259045
-0.068384714 0.09677322 -1.0346565e-05 0.009971038 0.18497954 0.0025008535 -0.17178717 0.047489166
-0.009365254 0.0071897795 0.42034894 0.00070016715 0.3705995 1.3678353 -0.025440147 0.43458474
-0.8997518 -0.3395848 -0.15273565 0.04739191 -5.5968572e-05 -0.39880016 1.2786894 0.21577795
0.48178244 -0.11243208 -0.25127795 0.09507358 0.08719972 -0.00024586442 -0.4621156 0.1125566
7.646219e-05 -0.20996025 1.2337708 -0.0005962719 0.6541573 6.195077e-39 -3.228282e-39 -0.6156676
0.4336026 -0.0011564986 -0.08959444 -3.511022 8.642101e-05 0.011736327 -0.8367282 6.446741e-05
-0.58494574 -1.4997432 0.008791088 -0.000671705 1.1827306 -0.00014980756 4.43165e-39 -1.600857e-39
6.188131e-39 0.26253715 -0.3288343 -0.0022521883 0.082546264 -0.73439205 0.00079630443 0.12555745
-0.2792689 0.0012938875 -0.406029 -0.73249865 0.046469115 -0.45446315 -0.23104931 -5.8064437e-05
0.0757397 -1.002912e-39 6.294452e-39 -0.024724212 0.29863617 0.02954381 -0.51841563 -0.41877416
0.00011799806 0.0015324771 0.03169377 0.00030831067 0.5658763 -0.29239085 0.008568993 -0.87164277
-0.5552865 0.0024746095 0.1260992 -0.36421412 5.9538415e-05 -0.07617809 -0.26010203 -0.5051077
-0.33107182 1.065468 -0.11702653 0.6731714 4.405528e-39 3.455929e-39 -1.2259897 -0.98948777
0.053588577 0.28125608 0.38349095 0.00057692087 -0.14220789 -2.227291e-39 2.878644e-39 0.03936748
0.19243473 0.04105848 -0.0088595245 -0.8828606 0.00023122848 0.21191788 -0.3276599 0.00027301055
-0.51358354 -0.7716505 -0.6777125 0.027968887 0.7837031 -8.042264e-05 4.11909e-40 -6.238934e-39
4.95426e-40 -0.39633673 -0.64543957 -0.025858158 0.4509637 0.6969423 7.436069e-05 0.1788476
-0.12237797 5.0336774e-05 0.0038608734 -0.07876803 -2.0707908 -0.0016616568 0.66317004 2.413997e-05
-2.785828e-39 1.28817e-39 -9.06542e-40 -0.049894933 1.0467038 0.0022992892 -0.09505397 -0.74491847
-5.5834073e-05 -0.06485845 0.18568224 -3.228622e-39 -0.27037662 0.6011718 0.0060608108 0.598118
00000000: c599 19be a2bf 703f 1b40 a43b 40ee 2dbe
00000010: 11d6 ddbe 0019 ebb8 014a 043f 5733 3000
00000020: 2223 3700 bbbc aabc bbbe 63bf 7e8e 763b
00000030: bbab 0c3c 1bf1 543f d77c 4dba 0d87 3000
00000040: a04e 2a80 1e90 3280 95c1 f73d 9e89 dabe
00000050: 0a1d 513a 5977 68be ff8e e73e ff84 e1b9
00000060: 3f95 f63d 98c7 84be 823e 4e3a f7c9 70bf
00000070: 4684 8c3f 829a 5a3e 0b20 b43f 94e0 debd
00000080: df52 12b9 e594 683d efce 933d d41b b0b6
00000090: 19b4 edbe bd4b 1abf e3d9 fcbe f38d 023f
000000a0: 7406 bc3e 3f3e 51be 2abd e13e dd0a 923f
000000b0: 2c28 f23a b457 34be 47ff ff3e 32ac 1bbe
000000c0: be24 a03e 2489 213e 3899 2737 a1c3 40be
000000d0: dffb 793e 01a9 5c3b 8a23 82bd bb5f 1f3e
000000e0: 65fb a63c d8e9 9fbe c792 083e fa26 ccbe
000000f0: fb01 723d 1c12 0c3f 118c 223b 92a2 fcbe
00000100: 2b99 823f 557f 073c 9e25 a63f 6f63 40bf
00000110: a335 f339 e1d7 cb3e fedc 3abd 4c67 30b6
00000120: c9a5 203f ece5 693f 91f7 ea3c 171f 963d
00000130: f5dd c9be 91f3 d7ba b2df c4bf a466 d83d
00000140: 3291 cdb8 9cb2 173c 3f51 36bc 0d26 d73b
00000150: d73b 483d 2cd1 e5bf b5f8 b5b8 35df 78be
00000160: 40a7 34bf d286 c638 6298 9d3f ab4d fbbf
00000170: 7e06 46bf b27e 60bc 4a22 52bf e554 5abc
00000180: 490d 8cbd 0a31 c63d 2996 2db7 915d 233c
00000190: 476b 3d3e 5ce5 233b fae8 2fbe 0084 423d
000001a0: b970 19bc 3e98 eb3b fa37 d73e 6c8b 373a
000001b0: 38bf bd3e 3a15 af3f db67 d0bc e481 de3e
000001c0: 2256 66bf 0fde adbe bc66 1cbe 051e 423d
000001d0: ccbf 6ab8 892f ccbe 18ac a33f e5f4 5c3e
000001e0: 30ac f63e ca42 e6bd 81a7 80be f0b5 c23d
000001f0: c495 b23d 5de7 80b9 6a9a ecbe 1384 e63d
00000200: 535a a038 d2ff 56be 34ec 9d3f 214f 1cba
00000210: da76 273f 5b75 4300 2327 2380 649c 1dbf
00000220: 2901 de3e a795 97ba 4a7d b7bd 96b4 60c0
00000230: ed3c b538 b949 403c d233 56bf ad32 8738
00000240: 01bf 15bf 96f7 bfbf 7f08 103c 5c15 30ba
00000250: b763 973f a915 1db9 a341 3000 8a6e 1180
00000260: fe61 4300 456b 863e f85c a8be 7399 13bb
00000270: 040e a93d 1e01 3cbf 16bf 503a 2292 003e
00000280: 55fc 8ebe a997 a93a 08e3 cfbe 0885 3bbf
00000290: 6656 3e3d 65af e8be 3198 6cbe 378a 73b8
000002a0: 6a1d 9b3d b6eb 0a80 5f8a 4400 6e8a cabc
000002b0: d7e6 983e dc05 f23c e3b6 04bf 9169 d6be
000002c0: ba75 f738 66dd c83a 54d1 013d c2a4 a139
000002d0: 45dd 103f 41b4 95be f664 0c3c fb23 5fbf
000002e0: 4227 0ebf 0f2d 223b 2620 013e 467a babe
000002f0: e3b8 7938 4203 9cbd 182c 85be bd4e 01bf
00000300: 3f82 a9be 4161 883f 9bab efbd f654 2c3f
00000310: d2f8 2f00 b9a1 2500 3bed 9cbf 124f 7dbf
00000320: b27f 5b3d cc00 903e ed58 c43e 813c 173a
00000330: f29e 11be c840 1880 7d58 1f00 cb3f 213d
00000340: 9c0d 453e f02c 283d 8a27 11bc 2703 62bf
00000350: ec75 7239 0001 593e 0ac3 a7be db22 8f39
00000360: 367a 03bf e38a 45bf 917e 2dbf 021f e53c
00000370: c4a0 483f 93a8 a8b8 3c7c 0400 9cef 4380
00000380: 0c65 0500 a6ec cabe 873b 25bf 7dd4 d3bc
00000390: b7e4 e63e d06a 323f 17f2 9b38 d323 373e
000003a0: 4da1 fabd b320 5338 b506 7d3b 2251 a1bd
000003b0: d687 04c0 f3cb d9ba 83c5 293f 3180 ca37
000003c0: c155 1e80 e506 0e00 12df 0980 a15e 4cbd
000003d0: 64fa 853f acaf 163b a8ab c2bd fab2 3ebf
000003e0: 612f 6ab8 82d4 84bd 7c23 3e3e 1628 2380
000003f0: ce6e 8abe 65e6 193f c499 c63b 431e 193f

layers.0.fc_self.bias f4 [64]
-0.616537 -2.6943004 0.32342997 0.15745042 0.23262772 0.26943555 0.2023696 -0.34949714
0.10591996 1.2502772 0.42692846 1.2762307 0.23868638 0.29677373 -0.7452437 0.8485538
-2.7516687 0.3727948 -0.5762189 1.1937282 1.3645525 -1.1212664 -0.17108993 1.1443421
-1.8887615 -0.0009836854 -2.2521677 -0.09586127 -0.053021304 -0.15173247 -0.17791332 1.8284804
1.2793031 -0.074598655 0.3066696 -2.665969 0.70178956 2.0641072 0.36567464 0.60839516
0.09266562 1.0189561 0.47220263 0.13723004 0.16552487 0.28466836 1.1137329 -0.27696934
-0.08584708 0.13124578 -0.4542587 0.43338475 0.11830719 -0.18259655 -2.2744381 0.15798873
-0.9698173 -0.119265854 -2.3625762 1.5418001 0.28273997 -0.01008795 -1.4452801e-30 0.27786684
00000000: 5ed5 1dbf 6b6f 2cc0 9d98 a53e af3a 213e
00000010: f635 6e3e 75f3 893e fa39 4f3e 4af1 b2be
00000020: 90ec d83d 1509 a03f 5e96 da3e 875b a33f
00000030: 346a 743e baf2 973e 4bc8 3ebf d23a 593f
00000040: 571b 30c0 f6de be3e 1583 13bf 16cc 983f
00000050: a8a9 ae3f a885 8fbf 3332 2fbe cd79 923f
00000060: f0c2 f1bf 01ef 80ba 8423 10c0 ea52 c4bd
00000070: de2c 59bd c25f 1bbe e92e 36be a50b ea3f
00000080: 34c0 a33f 2ec7 98bd cc03 9d3e 3c9f 2ac0
00000090: 7ba8 333f 551a 0440 b539 bb3e c9bf 1b3f
000000a0: 79c7 bd3d 276d 823f 8bc4 f13e 0886 0c3e
000000b0: 5a7f 293e 0dc0 913e cd8e 8e3f edce 8dbe
000000c0: 98d0 afbd 4b65 063e 9994 e8be 9be4 dd3e
000000d0: 0a4b f23d 97fa 3abe 6590 11c0 ccc7 213e
000000e0: f245 78bf a841 f4bd 7334 17c0 b559 c53f
000000f0: 4bc3 903e ee47 25bc 9682 ea8d 9044 8e3e

layers.1.fc_neigh.weight f4 [1, 64]
0.6238988 -3.1233096 -0.17493989 0.009399769 -0.0023934334 0.094566174 0.015608157 0.010395721
0.10726031 -0.18902667 0.013790721 0.042184338 0.057126436 0.021218818 -0.34039724 -1.0323087
-2.4142516 -0.102145605 -0.5849611 -0.0626429 -0.04506474 -0.2556946 -0.34828633 -0.045564797
-2.2222784 -0.43789852 -5.5279403 0.31951153 0.41440076 1.3023088 -0.50758684 -1.9281514
-0.20337515 0.68633556 -0.17438436 -1.2796708 0.1048866 -0.0021799968 0.085545935 -0.037810367
0.03862193 0.018491484 0.04233582 0.2511728 0.02925062 0.020115988 -0.008624745 0.33012038
0.013212585 0.40742192 0.38008422 -0.5748016 -0.027061822 -0.06539207 -0.86220586 0.32559502
0.5196071 -0.5108723 -1.0073787 -0.14541951 0.36857694 -0.3949662 -3.1950005e-27 0.17350517
00000000: d5b7 1f3f 4ee4 47c0 7123 33be 7d01 1a3c
00000010: 26db 1cbb e9ab c13d 5bb9 7f3c d052 2a3c
00000020: 4bab db3d 3590 41be 7af2 613c 7cc9 2c3d
00000030: 69fd 693d 16d3 ad3c 8c48 aebe b122 84bf
00000040: 1983 1ac0 b731 d1bd 03c0 15bf ec4a 80bd
00000050: ce95 38bd 67ea 82be 9652 b2be 27a2 3abd
00000060: cf39 0ec0 3c34 e0be e3e4 b0c0 0497 a33e
00000070: 562c d43e 0eb2 a63f 36f1 01bf aacd f6bf
00000080: 9341 50be b0b3 2f3f d091 32be 41cc a3bf
00000090: c9ce d63d 47de 0ebb b532 af3d 0bdf 1abd
000000a0: 0732 1e3d 747b 973c 5368 2d3d b999 803e
000000b0: ff9e ef3c 49ca a43c cd4e 0dbc 8a05 a93e
000000c0: 9979 583c 9b99 d03e 669a c23e 3326 13bf
000000d0: c1b0 ddbc 47ec 85bd 86b9 5cbf 64b4 a63e
000000e0: f904 053f 87c8 02bf c9f1 80bf dae8 14be
000000f0: 1eb6 bc3e 0339 cabe 4f22 7d93 57ab 313e

layers.1.fc_self.weight f4 [1, 64]
-1.9662611 -3.261288 -0.5894154 0.00487404 -1.1790104 -1.8797711 -1.5248682 0.006421379
0.22001606 -3.3962715 0.008733443 -0.70317507 0.03043013 0.15486403 -0.17803162 -5.3265777
-2.8717315 -1.4703424 -0.03329357 -0.451492 -0.05485013 -0.092779696 0.7327166 -0.27283365
-2.364343 -0.080846556 -6.0194044 0.123077825 -0.04560942 -0.22924948 -0.7479259 -2.2365272
-4.17425 0.23565748 -2.2763743 -1.8906264 0.05635326 -0.530072 0.03454427 -0.08001305
0.014028828 -1.1731777 -1.1902983 0.022641381 0.020544305 0.010221948 -0.3642135 0.061461546
0.007828052 0.09459256 0.36983067 -0.23513797 -1.5084902 -0.18227224 -0.6068853 -2.2213998
0.32263443 -0.36638483 -0.75993854 -3.3345156 -1.8142948 -3.2676637 -5.982011e-27 0.045824163
00000000: 72ae fbbf f1b8 50c0 ede3 16bf 69b6 9f3b
00000010: d0e9 96bf 579c f0bf e22e c3bf 6e6a d23b
00000020: e44b 613e 835c 59c0 b716 0f3c 4803 34bf
00000030: 9c48 f93c ad94 1e3e ec4d 36be 5373 aac0
00000040: 73ca 37c0 2e34 bcbf d75e 08bd f629 e7be
00000050: 88aa 60bd 4803 bebd 5193 3b3f dab0 8bbe
00000060: 6551 17c0 e192 a5bd f69e c0c0 3a10 fc3d
00000070: f1d0 3abd 60c0 6abe 1278 3fbf 4323 0fc0
00000080: 7593 85c0 3250 713e 1eb0 11c0 0c00 f2bf
00000090: add2 663d ccb2 07bf 4b7e 0d3d e2dd a3bd
000000a0: 2bd9 653c b02a 96bf b25b 98bf 6b7a b93c
000000b0: 884c a83c f579 273c 317a babe 1abf 7b3d
000000c0: 3b41 003c beb9 c13d 725a bd3e 02c8 70be
000000d0: 3516 c1bf 93a5 3abe d65c 1bbf 6a2b 0ec0
000000e0: 5730 a53e cb96 bbbe 558b 42bf b468 55c0
000000f0: d03a e8bf 6721 51c0 ccf8 ec93 1eb2 3b3d
