N0-Noise/weight_7/best_model_no_noisse_weight_7.pth (torch, 8135 bytes, 5 tensors)

layers.0.fc_neigh.weight f4 [64, 9]
000000 9f 05 a9 3e 9a 27 a9 3f 45 1a 0a bc 81 00 5f bd
       0.330121 1.321521 -0.008429115 -0.05444384
000010 61 95 88 be aa e3 02 3b 72 4f 21 bf 57 e1 60 3f
       -0.26676467 0.0019972124 -0.6301185 0.8784384
000020 e3 08 0d 80 a4 5c 84 be 99 aa a7 3f ce 2d f5 3c
       -1.19705e-39 -0.2585193 1.3098937 0.029929068
000030 a5 72 02 3e 58 7b 64 bf 4c 02 02 bb ec 1b 62 3e
       0.12739046 -0.8925071 -0.0019837795 0.22080964
000040 9f 32 6a be 14 22 2b 80 6e f6 61 3e e2 4e 37 bf
       -0.22870873 -3.961151e-39 0.22066662 -0.7160474
000050 3b 8e ae 3a 38 fb f1 be e4 d6 4b be 8f 96 a1 3a
       0.0013317534 -0.47261977 -0.19906193 0.0012328195
000060 c8 ca dc 3e 60 da 6b bf a8 37 22 80 ee e8 61 bf
       0.4312346 -0.9213009 -3.142373e-39 -0.8824605
000070 4e ca b7 bf 28 bd 16 c0 ff 1d 4d 3e d0 b4 85 3f
       -1.4358613 -2.3552952 0.20030974 1.0445805
000080 99 63 a1 3d 77 87 14 38 25 46 52 3a c6 f3 08 80
       0.07880325 3.541211e-05 0.00080213166 -8.22133e-40
000090 3f 40 9f 3e 61 8a 6b bf 2c 44 aa 3c ed 26 64 be
       0.31103703 -0.92008024 0.02078446 -0.22280474
0000a0 e0 b7 82 3e 51 be b6 be ef 3f 27 3f 22 e4 85 bd
       0.2553091 -0.35692075 0.6533193 -0.065376535
0000b0 82 4f 03 80 c2 f8 93 bf 7d 82 ab 3e 73 4f 24 3e
       -3.04029e-40 -1.156029 0.33497992 0.16045932
0000c0 b0 75 f2 3e c1 b8 10 3c 66 df d6 b6 31 4a 9c bf
       0.47355413 0.008833111 -6.403704e-06 -1.2210141
0000d0 d1 71 9f 3f 10 5f 19 00 c0 c7 11 00 f0 34 27 00
       1.2456609 2.32999e-39 1.63286e-39 3.600575e-39
0000e0 58 75 ac 80 20 21 2e 00 78 c5 2e 00 88 e0 4c 00
       -1.58378e-38 4.236316e-39 4.295271e-39 7.060044e-39
0000f0 70 2d 40 80 c0 c4 7d 80 b0 88 39 80 e8 30 30 3c
       -5.893772e-39 -1.1550018e-38 -5.283658e-39 0.010753848
000100 f5 b6 0c 3f 27 57 2f 3c 71 99 a9 3d 5d 43 12 c0
       0.5496667 0.010701931 0.0828122 -2.2853615
000110 59 85 80 ba 82 36 c2 bf 73 ed 5d 3f 9c af 24 00
       -0.0009805366 -1.5172884 0.86690444 3.369075e-39
000120 94 d0 2a 3f 9e ce 53 3f 9d ea 97 3c a4 b2 a2 be
       0.66724515 0.8273715 0.01854449 -0.31776917
000130 f1 6d aa be 63 2d 59 3b 02 40 27 3e 0f 0b 88 3a
       -0.33287004 0.0033138625 0.16333011 0.0010379272
000140 fa fa 2a 80 03 6c b3 bb 89 ca 43 3c e1 d8 ca 39
       -3.947124e-39 -0.0054755225 0.011950144 0.0003869003
000150 47 30 58 3c e4 0b f9 bc ea 89 f8 b8 01 30 85 3c
       0.013195104 -0.030401178 -0.0001185125 0.016258242
000160 b9 e1 72 be 14 fb 0b 00 2a 3d 25 bf 4d 10 e2 be
       -0.23718919 1.10026e-39 -0.64546454 -0.44153062
000170 19 dc 46 bf f7 46 b8 be c7 95 9d be 20 74 66 be
       -0.7767959 -0.35991642 -0.30778334 -0.22505236
000180 75 d8 94 bd 0f e3 6d 3f 15 62 26 80 9e 3e 8d bf
       -0.072678484 0.9292459 -3.524934e-39 -1.1034734
000190 38 60 70 3f 11 70 e0 3e 1b 24 97 3f c4 fe b7 3e
       0.9389682 0.438355 1.1807894 0.35936558
0001a0 90 7b ef bb 70 58 52 bf 68 c3 b1 3f 12 64 17 00
       -0.007308431 -0.82166195 1.3887758 2.148115e-39
0001b0 ba b4 ae be d2 7a d6 bf 8e 99 00 c0 ce c6 8e 3e
       -0.34122258 -1.6756232 -2.0093722 0.2788605
0001c0 2a 67 cb 3e ad 34 3f 3d da fc 12 bf c5 2e 33 bf
       0.39727145 0.046681095 -0.5741707 -0.6999324
0001d0 da ed 0b 00 eb 90 fa bb 4c 84 46 be 31 93 91 3a
       1.095516e-39 -0.00764667 -0.19386405 0.0011106489
0001e0 eb ef 3e 3c 8b ea 48 be b9 8f 2f ba 63 cb 12 bd
       0.011653881 -0.19620721 -0.00066971366 -0.035838496
0001f0 24 a3 11 bf c4 c7 2c 00 ba 0e 2d 3f a0 82 75 3f
       -0.5688956 4.112424e-39 0.67600596 0.9590244
000200 6c 24 0d 3d da 7a be be 7c 0b 20 bd e2 b0 ae be
       0.034458563 -0.37203103 -0.039073452 -0.34119326
000210 f5 7d d5 3e fd 1e 13 be 20 8c 17 00 87 18 46 bf
       0.4169766 -0.1436729 2.162484e-39 -0.77381176
000220 03 a1 f9 3e cc 81 3c 3d da 0c 75 3e 6a c0 1e be
       0.48755655 0.04602222 0.23930684 -0.15503088
000230 3d aa a9 39 6d 89 92 bf 34 dd 85 3f 87 c1 1a 80
       0.0003236103 -1.1448189 1.0458131 -2.457147e-39
000240 cf 75 c8 3d a0 03 d7 3d a1 6b c8 3e 99 53 53 3e
       0.09788095 0.10498738 0.39144614 0.20637359
000250 d3 21 b9 3e 2e e5 a8 3e 69 63 16 3e 2b 7e d3 3e
       0.36158618 0.3298735 0.1468636 0.41307196
000260 58 34 0a 00 ef 84 65 3d 3f e1 d2 3d 10 2c 66 be
       9.37132e-40 0.05603498 0.102968685 -0.22477746
000270 7e a7 e1 3d 93 d3 85 3f ab cd 1a 3c 83 d4 7c c0
       0.11018275 1.0455192 0.009448449 -3.9504707
000280 e2 58 49 bf 2b c7 0f 00 e0 6e 36 00 00 88 2e 00
       -0.7865125 1.44898e-39 4.998891e-39 4.27322e-39
000290 68 14 2f 00 70 58 02 00 80 94 27 80 a8 5d 8e 80
       4.323589e-39 2.15396e-40 -3.634856e-39 -1.3074238e-38
0002a0 b8 d5 32 80 a0 a4 3b 80 14 fc 17 00 49 a3 0a be
       -4.668443e-39 -5.47735e-39 2.202645e-39 -0.13538851
0002b0 41 ee 25 3f 3d 9f ac 3c ce cf bf bd e4 2a fe bf
       0.6481667 0.021072024 -0.093658075 -1.9856839
0002c0 3d 9e 9b b9 69 9f cc bf 3c e5 9b 3e 7b c7 08 00
       -0.000296818 -1.5986148 0.3044833 8.06244e-40
0002d0 bc f6 b8 3d d1 c4 00 3e 27 d6 1e 3c a8 4a 8e 3e
       0.09031436 0.1257508 0.009694613 0.27791333
0002e0 60 2d 80 bf a6 e2 38 b9 87 97 07 bf 74 f3 f8 3e
       -1.0013847 -0.0001763204 -0.5296559 0.4862324
0002f0 84 0b 02 00 79 da 84 bd d4 de 1a be 63 dd 29 3b
       1.87802e-40 -0.06486983 -0.15124065 0.002591931
000300 1e a7 00 bd 1c d6 e3 3d a4 4c b5 39 ef e2 39 3d
       -0.031409375 0.111248225 0.00034580112 0.045382436
000310 40 0b 78 bd 7e 5e 00 80 97 36 23 bf 3c 5b de bf
       -0.060557604 -3.3897e-41 -0.6375517 -1.7371593
000320 7e e9 a1 bf fb 3a 71 bf 80 22 8e be ee 5f f5 bf
       -1.2649381 -0.9423062 -0.27760696 -1.91699
000330 49 d5 3d 3d c1 5e 3d be a3 88 1c 80 8d 22 4b bd
       0.046345983 -0.18493177 -2.62041e-39 -0.049593497
000340 7d 8e a7 bf 61 66 b6 3d 4a 6e 67 3e 31 3a b1 bd
       -1.3090359 0.08906246 0.22600666 -0.08653677
000350 a6 23 c1 3d 1c f3 ff 3e 50 14 80 be 79 48 1b 00
       0.094306275 0.49990165 -0.25015497 2.505557e-39
000360 07 32 b3 be ba bc 60 bf 9b 7c b0 3d 2b cb fb be
       -0.34999105 -0.87787974 0.086175166 -0.49178442
000370 41 b9 12 3f ee 50 61 3e 5b 6a bd 3d 8a bb 42 be
       0.57313925 0.22003528 0.09248801 -0.19016853
000380 ea 64 17 00 4f 19 67 3f 50 28 7a be 44 df db ba
       2.148418e-39 0.9027299 -0.2442944 -0.0016774912
000390 00 ee 4f be 8b 16 e7 bf cc 17 cb ba e2 d3 03 bf
       -0.20305634 -1.8053755 -0.0015494763 -0.5149518
0003a0 1a 11 1d 3f 79 f0 40 80 91 84 92 3d 0f 36 aa be
       0.6135422 -5.963737e-39 0.07154191 -0.33244368
0003b0 61 bb a4 3a 5a 87 15 be bf 30 44 3d 14 2d cb bd
       0.001256805 -0.14602414 0.04789805 -0.09920707
0003c0 e4 1b 5f 3d 82 ee 47 3f 65 33 43 00 54 94 2a bf
       0.054469958 0.7809831 6.171415e-39 -0.6663258
0003d0 6f 3f 71 3f 1d a5 02 bf 37 66 a4 be 71 6e 4b bf
       0.94237417 -0.5103319 -0.32109234 -0.79465395
0003e0 84 4c 37 3a cc 5f d8 bf 40 b4 56 c0 7a d6 38 80
       0.0006992298 -1.6904235 -3.3547516 -5.219727e-39
0003f0 72 75 6b 3e d2 fd 2a bf 11 92 97 3b 7a 8e bc bd
       0.2299402 -0.6679355 0.004625567 -0.09206863

layers.0.fc_self.weight f4 [64, 9]
000000 9e 49 e1 bf 99 fe 9a bc 13 67 00 be 23 08 b9 3d
       -1.7600591 -0.01892023 -0.1253932 0.09034755
000010 84 bd ed 3d d5 65 61 bb ab 91 0a 00 9e 50 1d 80
       0.11608413 -0.0034392972 9.70611e-40 -2.69215e-39
000020 a5 d8 0e 80 b8 b8 a3 3e 6c 6c e2 be c5 bb a7 bd
       -1.363414e-39 0.31976867 -0.44223344 -0.08190111
000030 12 20 9b be 43 50 d0 bd 43 b5 3f b8 c1 2d f2 bd
       -0.30297905 -0.10171559 -4.570676e-05 -0.11825133
000040 a0 18 ca bb 83 f6 3b ba 4a d1 2c be a5 17 22 be
       -0.0061674863 -0.0007170217 -0.16876712 -0.15829332
000050 f0 ce 42 bb dd b6 3a be 76 db 52 3f 96 66 02 ba
       -0.0029725395 -0.1823382 0.8236612 -0.0004974393
000060 c1 3c 8f bd 98 ff 07 bf b8 43 ed 39 99 93 7c bf
       -0.0699401 -0.5312438 0.00045254617 -0.98662716
000070 bd 10 eb bf 50 1d bc bf f7 90 45 be 46 f1 7c 3f
       -1.8364483 -1.4696445 -0.19293581 0.98805654
000080 17 47 a0 bd 8c 6b 16 00 be e1 07 00 41 cc 2d 00
       -0.07826059 2.058961e-39 7.2383e-40 4.20587e-39
000090 2c 8a c2 be 82 5c 4d bf dd ff 9d 3b 1f a6 ba 3d
       -0.37996042 -0.8021928 0.004821761 0.09113716
0000a0 5f dc 82 3f eb fc be 39 46 59 16 3e 76 aa c2 bd
       1.0223502 0.00036428063 0.14682493 -0.09505169
0000b0 80 36 75 38 a6 bf b7 be fa d5 13 3f a3 3a 91 3d
       5.846331e-05 -0.35888404 0.5774838 0.07091262
0000c0 20 68 0d 3f bf 31 88 bf 44 f1 26 39 b1 91 f6 3c
       0.5523701 -1.0640181 0.00015920872 0.030098768
0000d0 85 df 4f 3e fb 6e c7 b7 00 f4 7b 80 c0 b8 72 80
       0.2030011 -2.3774328e-05 -1.1383297e-38 -1.0535522e-38
0000e0 9c 5c 85 82 b8 2f 6c 80 58 d0 63 80 88 60 17 82
       -1.9595749e-37 -9.935352e-39 -9.166454e-39 -1.1121431e-37
0000f0 10 0d 1b 00 a0 34 34 80 88 54 15 80 62 4f 72 be
       2.484244e-39 -4.794324e-39 -1.95887e-39 -0.23663095
000100 5a e0 3b 3e 0c 1c 17 3c 9b 4f 04 bd 50 3b 30 c0
       0.18347302 0.0092229955 -0.03230248 -2.7536201
000110 01 24 1f ba ce 52 00 be d7 be 48 bf 4e 7e 88 37
       -0.00060707337 -0.12531587 -0.784162 1.6271279e-05
000120 2b d6 a3 bf c4 84 68 3e 5f 04 95 bd 44 34 64 be
       -1.2799734 0.22706896 -0.07276224 -0.22285563
000130 8a f9 0c 3d 26 4f 64 bc 7a f8 1f 80 06 a6 32 00
       0.034417666 -0.013934886 -2.936037e-39 4.651333e-39
000140 4d ef 2b 00 52 8c 93 3c f6 31 5a 3d 04 32 dd bf
       4.034771e-39 0.018011246 0.053270303 -1.7280889
000150 69 3b 0e bc 60 fd 15 3f 5e 4e ab 38 78 19 23 80
       -0.008681157 0.58589745 8.1685124e-05 -3.223379e-39
000160 72 45 18 80 91 3c 27 00 b6 ba 36 3e bc 79 75 be
       -2.228964e-39 3.603311e-39 0.17844662 -0.23972219
000170 65 e5 a0 3b 6f 20 11 3e b9 24 98 bf 46 7b 61 3a
       0.0049101585 0.14172529 -1.1886207 0.0008601438
000180 9a ac 83 3d 31 bc 5d be 95 68 ac 3a ae f9 53 be
       0.064294055 -0.2165382 0.0013153726 -0.20700714
000190 44 f8 1a 3f ec 25 12 c0 6c 23 af 3f 13 7f 44 bf
       0.60535073 -2.2835646 1.3682685 -0.767564
0001a0 46 5b 14 3b 1d f3 20 bd 8e 59 cf 3c 63 39 45 b7
       0.002263741 -0.03929435 0.025311258 -1.1755476e-05
0001b0 de e7 84 bf 5a 63 cd bf a0 7e 6f 3d d8 0b 9f be
       -1.038326 -1.6045945 0.05847037 -0.31063724
0001c0 66 56 c1 3f 96 9d 3a bd f0 8b 07 00 63 66 28 00
       1.5104492 -0.045560442 6.93049e-40 3.710149e-39
0001d0 b1 62 0a 00 ca 3f bb 3b 46 b1 1c bf d9 8a b5 38
       9.53759e-40 0.0057143914 -0.61208 8.656615e-05
0001e0 fb c7 f1 bb 0a 64 1e 3f ad b1 3d ba 82 d5 3a 00
       -0.007378576 0.618714 -0.00072362536 5.403051e-39
0001f0 ef 8b 34 00 77 b4 04 80 cc 0b 11 bf 72 6b 24 bd
       4.825645e-39 -4.3208e-40 -0.56658626 -0.04014153
000200 7f 6f a4 3c df 75 69 be fc 11 2b 3d f5 42 9f bd
       0.020072697 -0.2279887 0.041765198 -0.07776443
000210 52 11 12 80 a2 49 1f 80 1a 68 08 00 fe d2 b8 be
       -1.659252e-39 -2.873315e-39 7.72029e-40 -0.36098474
000220 a1 52 5f 3f 7c 6d 0b 3d e8 38 35 3d c1 02 6c bf
       0.87235457 0.03403996 0.044243723 -0.921917
000230 ed 1f 53 39 c5 f0 4b 3e a2 ff 16 be 07 e4 9e b8
       0.00020134421 0.19916065 -0.14745954 -7.5765005e-05
000240 65 97 d6 bf 0f c7 f3 3e 8b 3a 2f be fd 3f 09 3e
       -1.6764952 0.47612807 -0.17112176 0.13403316
000250 15 84 12 bf 43 a8 a3 be 5c a2 1e bd b4 cb d6 3c
       -0.5723279 -0.3196431 -0.038729057 0.02622018
000260 3b 7d fa b7 d2 c3 04 bf 57 13 98 3f 10 1f ad bb
       -2.9860637e-05 -0.518613 1.1880902 -0.005283244
000270 94 01 8a bd f1 82 b9 bf 27 28 1e bc 65 cc 25 bd
       -0.06738582 -1.4493085 -0.009653128 -0.04047813
000280 48 4d 71 bf 46 27 8e 39 18 19 40 80 08 d5 3e 80
       -0.94258547 0.00027113612 -5.886474e-39 -5.770222e-39
000290 44 51 03 83 50 48 33 80 08 ea 54 80 08 72 df 80
       -3.859073e-37 -4.709551e-39 -7.798136e-39 -2.0520222e-38
0002a0 90 1a 3b 80 48 e9 9c 80 00 af 19 80 aa 06 b0 be
       -5.427823e-39 -1.4410023e-38 -2.358666e-39 -0.34380084
0002b0 c3 88 fe 3e bf 4b c7 3a 5f 2c 7f 3d 9c 70 72 c0
       0.49713716 0.0015205069 0.062298175 -3.7881231
0002c0 d2 39 50 39 3e 69 b1 bc 18 7f dc be 4b a4 e3 3a
       0.00019857966 -0.021656629 -0.43065715 0.0017367689
0002d0 2e a2 d6 3c 9a 93 90 bd ce 58 87 3b 08 dd 84 be
       0.02620038 -0.07059403 0.0041304594 -0.25949883
0002e0 a9 98 bc bf 94 59 b8 38 ff f4 1f 40 42 4d d1 3e
       -1.4734088 8.790489e-05 2.4993284 0.40879256
0002f0 a7 06 bb 36 6e 52 93 3c 48 62 f5 bc c6 c1 be 39
       5.5738087e-06 0.017983641 -0.02995409 0.00036383996
000300 0a e0 88 bd a1 d5 81 bd 16 e7 e8 b9 20 4e 25 3f
       -0.06683357 -0.063395746 -0.0004442266 0.64572334
000310 f9 28 80 3e 3e b8 2b 3a e6 8f 34 be a2 a7 57 3f
       0.2503126 0.00065505865 -0.17633018 0.8424016
000320 bf 5f ef 3a fd 14 4a 3e e9 50 ee be 56 63 12 b9
       0.0018262787 0.19734569 -0.46546105 -0.0001396065
000330 67 20 ce 3e a3 b1 d0 bc 58 a3 8b 39 2a ca 4a bf
       0.40259096 -0.025475329 0.00026633847 -0.7921473
000340 54 e0 97 bf 22 07 cc bf cf 02 4a be 1c 39 c7 3f
       -1.1865335 -1.5939677 -0.19727634 1.5564303
000350 54 25 bf bd 5e 88 36 00 10 93 3a 00 94 58 1c 80
       -0.09333292 5.008036e-39 5.379215e-39 -2.60317e-39
000360 0c a4 c2 bd 58 a2 a4 bf a6 70 38 3c 6d 74 e2 be
       -0.09503946 -1.2862043 0.011257326 -0.4422945
000370 25 4d de 3e 02 e3 6b be dc 27 16 80 1e c7 32 00
       0.43418232 -0.23035815 -2.03468e-39 4.663205e-39
000380 14 82 36 00 66 4a c4 be ae 20 8e 3e ef 86 66 bb
       5.00578e-39 -0.38338012 0.27759308 -0.0035175642
000390 79 d1 8a 3e cf 32 c4 be 3d 5e 96 39 bb ee 61 bd
       0.2711294 -0.38320014 0.00028680442 -0.05515931
0003a0 45 ca a1 3c d8 4a bc 39 36 0e ee 3c ac 52 cd 3e
       0.01974977 0.00035913917 0.02905951 0.40102136
0003b0 b4 80 d0 3c b0 d9 84 3d de d1 13 3e 37 b6 1d be
       0.025451995 0.06486833 0.14435527 -0.1540154
0003c0 e2 b5 ba 3d c9 de b3 3e 3b 3b 53 3a ec 43 a7 3d
       0.09116723 0.3513091 0.0008057837 0.08167252
0003d0 5e ce c2 bd a4 d0 1c bf 32 7f 0f 3e 04 de 6f 3f
       -0.09512018 -0.6125586 0.14013365 0.93698144
0003e0 02 27 be b9 2e 98 41 00 8d d7 41 00 c2 e7 17 80
       -0.00036268687 6.023899e-39 6.046632e-39 -2.195355e-39
0003f0 8c 0e fa be f2 67 10 be c4 ad 7b 3b 4a 5e 5c be
       -0.48839223 -0.14102152 0.0038403133 -0.21520343

layers.0.fc_self.bias f4 [64]
000000 29 0e 44 bf 56 40 06 3c 82 e8 11 3f f1 ea 1f c0
       -0.76584107 0.00819405 0.56995404 -2.4987147
000010 87 47 59 bd c9 ef 8e 3e 68 a2 c9 80 9a 92 85 3f
       -0.05304673 0.27917317 -1.8517195e-38 1.0435364
000020 35 6d d9 bd 98 40 19 c0 24 f1 c0 3e 30 eb c6 3d
       -0.10616533 -2.3945675 0.37683976 0.09712827
000030 f9 07 4c c0 bd b6 05 c0 62 99 41 be 58 90 c1 3e
       -3.1879866 -2.0892785 -0.18906167 0.37805438
000040 dc 14 ca 3e f3 32 7a 3f 18 35 f7 80 d6 62 f6 3e
       0.3946904 0.9773399 -2.2702414e-38 0.4812228
000050 73 49 07 40 b5 50 56 3f 1d 15 9e be d6 b3 48 c0
       2.113858 0.837169 -0.30875483 -3.1359763
000060 b1 5d aa be 4e 82 cc 3d 88 a1 78 3f ce 39 38 bf
       -0.33274606 0.09985791 0.9712148 -0.719632
000070 13 25 e7 3f 5d a5 2b 3f 61 58 b7 3e 24 cd 8e 3d
       1.8058189 0.670492 0.35809615 0.06972721
000080 aa 39 b5 bc e4 c3 16 3f 1a 68 6f 3f 12 94 01 c0
       -0.022122223 0.58892655 0.9351822 -2.0246625
000090 d5 0e ae 3e f7 b9 b7 3f 2d 64 1e 3f ed 66 30 3f
       0.3399569 1.4353627 0.61871606 0.6890705
0000a0 a5 ef 84 3d 17 68 01 bf f9 1d c9 3f f3 52 09 3e
       0.06491021 -0.50549453 1.5712272 0.13410549
0000b0 5a 16 12 c0 f9 ea c6 bf e5 6c 1c 3f fd 02 74 3f
       -2.2826142 -1.5540458 0.6110366 0.9531706
0000c0 f6 9a a8 be aa 90 ed 3d cc 01 a4 3e fa ae 62 3f
       -0.32930726 0.11599858 0.3203262 0.88548243
0000d0 61 3e 03 3f 2a d7 c1 3f 11 44 4f 3c d5 c5 0a bf
       0.5126706 1.5143788 0.012650506 -0.5420812
0000e0 ef 45 e9 3f 96 b2 3b 3f 24 80 27 3e 40 c2 08 c0
       1.8224467 0.73319376 0.16357476 -2.136856
0000f0 6d e0 69 3f 99 23 81 bd 35 ce 2f 3e 7c c8 1b 3f
       0.9135807 -0.06305618 0.17168505 0.6085279

layers.1.fc_neigh.weight f4 [1, 64]
000000 fb f2 14 3f 90 a6 e7 3e 5d d5 05 bf b8 fb 8c bf
       0.5818326 0.45244265 -0.5227869 -1.1014318
000010 59 ea 17 bf 98 9e ff 3c 23 18 5c 03 eb d5 ae be
       -0.5934196 0.031203553 6.4679897e-37 -0.3414758
000020 f4 d2 a8 3e 52 e3 84 c0 82 02 3f be fd 61 4a 3c
       0.32973444 -4.152749 -0.186533 0.012352464
000030 a2 1f ea be 05 db 65 c0 cd 83 ce 3e 76 81 c2 3d
       -0.4572726 -3.591493 0.4033493 0.09497349
000040 3e c2 0b 3d 0f 7c 5b bf 38 32 ae 00 68 d4 50 bf
       0.03412079 -0.85736173 1.5997391e-38 -0.81574106
000050 f5 58 ab bc 4c ea bd bd f8 1b 20 3f e9 ec 8e be
       -0.020916441 -0.09273204 0.62542677 -0.27915123
000060 64 31 e8 be 62 bf c6 3e b9 59 00 3d 5c 52 04 bf
       -0.45350182 0.38817888 0.031335566 -0.5168817
000070 e3 22 36 be 3e 9c 2d 3d fb ba 6b 3c cc 16 7b 3f
       -0.17786746 0.042385332 0.014387841 0.9808166
000080 e3 83 17 3f 47 68 aa 3d 9d 86 a8 bb 0c 83 37 be
       0.5918562 0.083206706 -0.0051430003 -0.17921084
000090 ef c7 2a be 37 2c b8 bb a7 4e c0 3d 0c f2 09 bd
       -0.16677831 -0.005620505 0.09390002 -0.0336781
0000a0 16 36 e2 be 69 a5 1e bf 52 83 b1 bf bc 9e c3 3e
       -0.4418189 -0.61971146 -1.3868201 0.38207042
0000b0 08 06 2e c0 d4 de d9 bf ad b3 b9 3e fb 5f 83 3e
       -2.719118 -1.7021127 0.36269894 0.25659165
0000c0 f5 6a 02 3f 5f 6a 88 3e 92 81 af 3c aa 8f a8 3d
       0.50944453 0.26643655 0.021424089 0.08230527
0000d0 ae 89 bf bd 11 c2 55 be 29 05 01 3f 53 8f 1a bf
       -0.09352432 -0.20874812 0.503985 -0.60374945
0000e0 01 b2 07 be de 01 1e bd 09 3b 83 bf 2a 4b 23 bd
       -0.13251497 -0.038576 -1.0252391 -0.039866604
0000f0 b5 59 a6 3d b1 b3 40 bf 32 bd 2a 3f ae f3 8f bc
       0.08122579 -0.7527419 0.6669494 -0.01757225

layers.1.fc_self.weight f4 [1, 64]
000000 97 79 32 3e 67 e0 1e 3f 58 88 ae be 1c db 4a bf
       0.17429195 0.6206116 -0.34088397 -0.79240584
000010 c2 5f ef bd 50 fa bb 3c f0 00 06 00 c2 47 8e c0
       -0.11688186 0.022946507 5.51349e-40 -4.4462595
000020 dc 13 2e 3d 4d 5a ae c0 20 58 e8 bf f7 f7 29 3c
       0.042499408 -5.448523 -1.8151894 0.010374061
000030 8f 6e e8 be 84 2d 91 c0 a1 d1 a6 3e 95 52 84 3d
       -0.4539685 -4.536806 0.3258181 0.06461064
000040 c9 a3 c8 3c 9f 0a 89 be b0 e1 00 80 2f c7 aa c0
       0.024492161 -0.26765916 -8.0961e-41 -5.3368144
000050 33 67 0c c0 3f 74 ee bf 57 f9 27 c0 57 fe a6 be
       -2.1937988 -1.8629225 -2.6245935 -0.3261592
000060 f4 11 a4 3d 72 7c 91 be 7b d5 ff bf b5 a2 04 bf
       0.08011237 -0.28415257 -1.9987024 -0.5181077
000070 d1 21 98 bf 64 e5 b2 3c 65 38 d9 3d 88 00 aa bf
       -1.188532 0.021837898 0.106064595 -1.3281412
000080 98 42 bb 3d a3 2c 41 3d 8c 64 99 bb 22 5e 14 bd
       0.09143561 0.04716171 -0.0046811756 -0.036222585
000090 a2 55 6b bf 67 4a a7 bb 0c 9e 0c 3e 36 0c 4c be
       -0.9192754 -0.005105305 0.13732165 -0.19926533
0000a0 c1 ec f9 be f2 85 59 bc fc 8e c9 bf 2d 6e 1b 3e
       -0.4881344 -0.013276564 -1.574676 0.15178747
0000b0 b3 95 34 c0 5a 2a 99 bf 18 60 b6 3d 0d ec 10 3e
       -2.821637 -1.196605 0.08905047 0.14152546
0000c0 07 e6 31 be 4d c4 ef bc ad f9 68 3c 90 27 a7 3d
       -0.17372905 -0.029268408 0.014219684 0.08161843
0000d0 e7 23 53 bf 9a bd 85 c0 b2 cb 30 3e cc 24 e9 3d
       -0.8247666 -4.1793947 0.17265204 0.113839716
0000e0 b4 59 14 bf 4a 31 44 bf f5 b2 42 bf e5 f6 a5 bc
       -0.57949376 -0.7663771 -0.76054317 -0.02025933
0000f0 29 ff 9d bf f9 5d f1 bd c9 96 5a 3e 70 dc ae bf
       -1.2343494 -0.11785502 0.21346582 -1.3661022
