N0-Noise/weight_15/best_model_no_noisse_weight_15.pth (torch, 8143 bytes, 5 tensors)

layers.0.fc_neigh.weight f4 [64, 9]
00000000: f41e 843e 946e 4bbf 371a aa3c 4131 703e
00000010: 3e9e 473f 7b8d cabe 04ff 8b3f 6c81 8f3e
00000020: 290c 1780 684c b2be 33ba b5bf 112c 983d
00000030: 5148 1e3b ef74 37be 07b8 b63d 8ba4 e4bd
00000040: 9fee 80be 7341 2680 71ee 39be 1266 ab3f
00000050: b2aa 7d3c a36c 5ebe 906b 22bf cf97 64ba
00000060: e3f1 abbf e403 aa3f 7483 0100 f142 12c0
00000070: ade0 e7be bafa 783d da94 26be edea 35bf
00000080: f8ac 4bba 4c30 15be ddc1 49bf 230e 3c00
00000090: fccb e13e 61ee a83f f05a 853c abbf a8bf
000000a0: 7ebd aabe d395 afbb 6674 ea3e abf3 f83e
000000b0: 371b 3600 f23b 21be 18fb a1bf 889c febf
000000c0: e85e 8cbd 301a 5c3f 9219 383e cfb3 db35
000000d0: 7324 0936 85e9 1200 5644 1e3f 47f8 b8be
000000e0: a293 02bb 491f 763e bafc ebbe 6145 50be
000000f0: 7173 213e 1e8c 1ebe 1872 1180 cf20 f93e
00000100: ca88 4b3f 8ddc 233d 6c75 b2be 267d a23e
00000110: f5af 01bf 0629 533e ab3b 86be 5729 2a80
00000120: 908e 93be b8ba edbe 7bc9 aebf 0143 09be
00000130: 5d7e 203f b48d e73d fd64 043e 4757 2a3e
00000140: d63e 2d00 7ba5 4bbf 66f9 aa3f df14 4a3f
00000150: 4d47 da3f c16a 443e e414 9ebb 1438 afbf
00000160: d779 443f 0f24 4480 fc06 17bf c88d 503f
00000170: 6e7d 703e 8b1e 8c3f 6a9d ba3e 81ec b8bb
00000180: 632e 49bf 0227 0340 25ef 2980 978d 92be
00000190: bb3f d93f fe9f feba f50c 2bbf 61f6 53bf
000001a0: 6791 d439 3196 20bd 3efb 95be e534 0400
000001b0: 3f11 d5bd 4c4b a8bd 6d0a f9bb 6954 8cbe
000001c0: 6507 f0bd 7e6d e5be c69c b6bb 16a4 d93e
000001d0: 878f 1080 b02b b4bd 64d5 d5bf a984 0dbd
000001e0: ca52 86be 100e ec3d 0fec af3e 760e 0a3f
000001f0: eb8d b53e 6986 4380 4c5e b2bf cea8 80bf
00000200: d2cd 68bf 3b01 28bf fd89 bcbe 30d5 66bf
00000210: e77b cfbc b24b 7e3f 3db4 3380 0dea 733e
00000220: a1f0 39bf ade0 503b 74fc 2ebe 9cd1 ee3e
00000230: ceb8 fa39 9a1c ed3e 67a6 37bf f6ef 2b80
00000240: 7498 61be d771 d43e 5841 3a3c 8d1a b83d
00000250: 19a1 58c0 9ac1 bab8 dfe5 943f 04a9 453e
00000260: 69e1 1d80 aca3 803d 8e6f 433e 7db3 0dbe
00000270: 2b0b a7be 88bb 463f e35b a53c 40dc 5fbf
00000280: 5f46 bbbf 1fa3 3280 bb6b 36be 3eee 0abf
00000290: 03f2 533b be3e 813c 9ba0 20be 570b e538
000002a0: 3ef5 6a3e c42d bcbf cf4e 0780 f19a c4be
000002b0: b89f 023f 0ca1 6b3c 5703 d2bd 63d2 e8be
000002c0: 5963 e538 bdf4 bdbf c2e9 913f da1d 3280
000002d0: 2df1 0fbf 07c0 92bf 31d2 11bc cf73 a33e
000002e0: 68e3 b3be 971b 0cb8 a4bc f23e 3b8e eabf
000002f0: 3f1b 1100 911a 30bf 72ab 9dbf a61a 92bf
00000300: 9cf1 77bd 0d2e ad3e 878e 16b9 2e25 d73e
00000310: 3389 2dc0 9cc5 1f80 210f 44be fe54 e63e
00000320: d411 8cbe ff49 0fbe 5e09 43bf 4d6a 9e39
00000330: 1057 3ebf ce8f 0cc0 2a84 3b00 f35b 13be
00000340: 235d 0340 607b e2bc d28b 8c3e a3af 583f
00000350: 398b 28bd 57b0 72bf 7b92 233f eea2 1400
00000360: 7a06 8ebd f5f8 d0be 3af4 0a3a 7a55 6d3c
00000370: f9a5 c5be 8d41 7037 f32e b4bd e891 82bf
00000380: 406f 3e80 a67f 103e 0504 acbf b0f1 363d
00000390: 1e8e b9be f6b7 eabf 9ce0 c0bf a847 c5bc
000003a0: 5952 d8bc d3fe 1900 54d4 833e ca28 c8bf
000003b0: c0b5 583d af7a 64be fca4 033f c1b4 95bd
000003c0: 3dfe a43e f1c5 c13e d864 2200 56c4 ee3e
000003d0: 93f0 12bf 8933 2dbc 9029 56be d87d 463c
000003e0: a33f e5bd 3f52 483f 93d6 fabd de67 3300
000003f0: 445b 933c be9f 333e a5e3 993b 9e1b 2d3e
0.25804865 -0.79465604 0.020764453 0.23456289 0.77975833 -0.39561066 1.09372 0.2802843
-2.116579e-39 -0.34823918 -1.4197448 0.0743028 0.002415199 -0.179157 0.08921819 -0.111641966
-0.25182053 -3.513228e-39 -0.18157364 1.3390524 0.015482591 -0.21721129 -0.6344538 -0.0008720131
-1.3433193 1.3282437 1.38992e-40 -2.2853358 -0.45288602 0.060785986 -0.1626772 -0.71061593
-0.000776961 -0.14569205 -0.78811437 5.515201e-39 0.4410094 1.3197747 0.016278714 -1.3183492
-0.33347696 -0.0053584366 0.4579193 0.48623404 4.96888e-39 -0.15745524 -1.2654753 -1.989152
-0.068540394 0.8597746 0.17978504 1.6369103e-06 2.0435807e-06 1.73681e-39 0.6182302 -0.3612692
-0.0019924422 0.24035372 -0.46091253 -0.20338966 0.15766694 -0.15483138 -1.602133e-39 0.48657843
0.795056 0.040005255 -0.3485521 0.31736106 -0.50659114 0.20621118 -0.26217398 -3.871921e-39
-0.28819704 -0.46431518 -1.3655237 -0.13404466 0.62692815 0.113063246 0.12929149 0.16634856
4.155139e-39 -0.7954938 1.335736 0.78938097 1.7053009 0.19181348 -0.0048242677 -1.3688989
0.7674841 -6.257749e-39 -0.5899503 0.8146634 0.23485348 1.0946821 0.36448222 -0.005643428
-0.78586406 2.0492558 -3.851044e-39 -0.2862365 1.6972574 -0.0019426343 -0.66816646 -0.8279782
0.00040544124 -0.039205734 -0.29293245 3.86317e-40 -0.1040368 -0.08217487 -0.00760012 -0.2740815
-0.117201604 -0.44810098 -0.005572888 0.42508 -1.520856e-39 -0.08797395 -1.6705747 -0.034550343
-0.26235038 0.1152612 0.34359786 0.53928316 0.35459837 -6.201196e-39 -1.3935027 -1.0051515
-0.90939057 -0.6562688 -0.36824027 -0.9016905 -0.025327636 0.9933425 -4.748268e-39 0.23819752
-0.72632796 0.0031872198 -0.1708849 0.46644294 0.00047821406 0.46310884 -0.71738285 -4.035008e-39
-0.22030813 0.41493103 0.011368118 0.08989439 -3.3848326 -8.905232e-05 1.1632651 0.19302756
-2.744091e-39 0.06281218 0.19085523 -0.13838 -0.32625708 0.776299 0.020185417 -0.8744545
-1.463085 -4.650292e-39 -0.17814533 -0.5426978 0.0032340295 0.015776988 -0.15686266 0.00010921683
0.22945115 -1.4701467 -6.7112e-40 -0.3839946 0.5102496 0.014381658 -0.10254543 -0.45473012
0.00010938076 -1.4840313 1.1399462 -4.602484e-39 -0.5622738 -1.1464852 -0.008900211 0.31924292
-0.35134435 -3.3404296e-05 0.47409546 -1.8324655 1.570977e-39 -0.6879054 -1.2317946 -1.1414382
-0.06053315 0.33824196 -0.0001435821 0.42020553 -2.711499 -2.917789e-39 -0.19146396 0.4498672
-0.27357352 -0.13993071 -0.7618617 0.0003021531 -0.74351597 -2.1962771 5.465706e-39 -0.14390545
2.0525596 -0.02764672 0.27450424 0.84643 -0.041148398 -0.94800323 0.63895386 1.895158e-39
-0.06934829 -0.4081494 0.0005300675 0.014485711 -0.3860319 1.4320377e-05 -0.08798017 -1.0200777
-5.73371e-39 0.14111194 -1.3438727 0.044664085 -0.3624124 -1.833739 -1.5068545 -0.02408202
-0.026406454 2.387301e-39 0.2574793 -1.5637448 0.052907705 -0.22312425 0.5142362 -0.07309867
0.32225218 0.3784633 3.158583e-39 0.46634167 -0.5739834 -0.010571369 -0.20914292 0.012114964
-0.11193778 0.782505 -0.12247958 4.720871e-39 0.017987855 0.17541406 0.004696327 0.16905066

layers.0.fc_self.weight f4 [64, 9]
00000000: d53c cebe 9fc7 23bf 44e0 6ebc ba72 adbd
00000010: c2d4 193f 0b65 cf38 98a8 a93e c824 e1bd
00000020: 8c4a b039 71ca 3abf a847 67bf 1941 80bf
00000030: 2207 223f 744f d33d 8818 1fbe 926c ff3e
00000040: 9a2e c93f ccea 153c 4cd0 2cbf 442a d53e
00000050: 9f12 b33b a80b 673e 6678 15bf cae0 a539
00000060: ca39 96be 354d 03be 46d4 21ba d35d 9abf
00000070: 5050 963e 46b0 e23c ba56 153e 28d7 d6be
00000080: 144f d339 45a0 1b00 91ac 4300 6b3b 3500
00000090: 8e3b 8bbf 3dd5 a43d d734 7a3a e08e 95be
000000a0: 1158 c3be 0d89 b5b9 a3ae 0480 6f67 3600
000000b0: 032e 3e00 d81a 0fbf 6295 f9bf 11fa 81bf
000000c0: a19e 973d f0b4 873f a46e 36be 7c2a 1300
000000d0: 478c 3a00 d255 3e00 b04a 0cbf 4135 adbe
000000e0: 04b3 833d 31e0 983e 8b88 ec3d 96bf 13be
000000f0: cfed 9a3e 6a3f 513f 9f2c 613c 0405 7cbf
00000100: c65d a9bd b21a 93bd 01f7 9ebd 3b97 de3e
00000110: 97a3 87bd 84f6 1280 6ac0 3180 f310 3000
00000120: b2c5 11bf 6d5b 92bf 79f3 943d 38a0 17be
00000130: a9be 853f 22c7 dfbd bd8b 3ebf 1c90 1b80
00000140: 78e9 0900 a88b e5be 40a9 803f cd5b 4fbe
00000150: 8839 d33f d8ef 46bf 9b02 31bb 7337 3abe
00000160: 411e a93d e255 18b8 8d41 b63e 689e b93e
00000170: 87ec 20c0 1caf 6b3f 9252 72bf 7e91 0c3b
00000180: 72b4 f7bd 943d 9c3e aaf8 1cb8 4611 aabd
00000190: 64e4 6d3f 809f 353b f972 06bd 1d60 37bf
000001a0: 57c5 41b8 3765 b5bc 70e4 093d 1989 c0ba
000001b0: c2c1 033e 0159 543f 7c25 203c 6da7 1fbe
000001c0: 56fc 2f3e 0612 f1bd ecad 5f3d 7c3b e83e
000001d0: 8c10 5e3b c0bb dabe 19cf bebf ab99 f03c
000001e0: 6615 a43e 0fa4 6a3f 4163 b0be c2ba 3900
000001f0: 4c3d 4300 c458 1c80 1e38 2c3e 8ca4 babd
00000200: 4e6a 6a3c 4a0e 753e f7b6 7d3d 931f 9139
00000210: dfe4 073f ff74 363f 6257 f53b c53c e1be
00000220: 88cb 533d 68cc 863b e9ce d5bd fa70 8bbe
00000230: e4ab 23ba 2087 d6be c4c2 6dbf e700 d73a
00000240: 43ae b2be 4e62 8c3e 6a15 cf3b 02c6 9b3c
00000250: 072e 43c0 3543 7db8 f5e0 3ebc d94e bfbf
00000260: f06f 0c37 54b8 30be 3244 6c3f f504 c7ba
00000270: 1160 d23e 6d75 a4bf b589 a3bc 5d6c a9bd
00000280: 55bf 69bf 40d9 d93a cc33 81be 8072 59bf
00000290: 9520 803b a179 31bb a3e0 593f a683 e7b8
000002a0: 14e5 4280 8cbf 0380 5a31 2980 3360 24be
000002b0: 4574 cd3e 3aea d43c 9cb3 973e 21e4 f1be
000002c0: 8c72 e338 144d fa3c f882 b43d 0569 feb9
000002d0: 4eef 99be 0e7c 933d 7945 193a 5293 f73e
000002e0: b470 e03d c8df 21bb c3cf 1a00 585d 2d00
000002f0: 22bd 3700 66df 24bf b7b6 7dbf 4fdf 84bf
00000300: e8df 753d 70c0 813f 5fbd 1039 7078 1980
00000310: 8e71 0380 992f 2500 11cc 2c3d 1884 5ebc
00000320: 8a94 9ebf ba7f 493d 17f7 863f ef50 09b8
00000330: fb32 0400 0ea0 0d00 18fa 4400 d633 69be
00000340: d28a 163f 5f06 e53c 3b51 bb3e 9df4 c03d
00000350: c63d abbd df80 9dbe 52c2 c43d 7ec8 83b9
00000360: d278 03bc 7061 b1bf c960 773b 0930 15bc
00000370: 5ada 813f 00b1 28b8 a72e 2380 7c7f 1000
00000380: e0e8 3180 5fb9 55be a46b 863f 5650 ef3a
00000390: 9588 ccbe 5aa9 05bf 5267 a9b9 3865 ba3c
000003a0: a9a7 dd3d 718a 1a80 f437 793d 71c8 8dbe
000003b0: 9ff4 613b cf68 5e3e cb25 41bf 0421 7639
000003c0: 8d41 12bd 7f15 c5be 8717 3b3c 5fdc 7fbc
000003d0: a042 5fbe ea45 6bbe 2d8c 533b 12e1 023f
000003e0: 57cb a3bc c2ae 193e 97dd cdbd f297 143a
000003f0: e7e9 fd3c ad2c 07bc bd01 463b 2a4f 0ebe
-0.40280786 -0.6397647 -0.014579836 -0.08469148 0.6009027 9.88935e-05 0.3313644 -0.109933436
0.00033624878 -0.7296515 -0.90343714 -1.0019866 0.63292134 0.10317889 -0.15536702 0.4988752
1.5717347 0.009150218 -0.67505336 0.4163381 0.0054648663 0.2256304 -0.5838684 0.00031638733
-0.29340965 -0.12822421 -0.0006173294 -1.2059883 0.2935815 0.027671944 0.14583865 -0.41961026
0.00040303974 2.537052e-39 6.214883e-39 4.888596e-39 -1.087755 0.080484845 0.0009544617 -0.29210567
-0.38153127 -0.0003462512 -4.2999e-40 4.996222e-39 5.710307e-39 -0.55900335 -1.9498713 -1.0154439
0.07403303 1.0602093 -0.17815644 1.760115e-39 5.376781e-39 5.724587e-39 -0.54801464 -0.33829692
0.06430629 0.29858544 0.11549481 -0.14428553 0.3025956 0.8173739 0.013743549 -0.98445153
-0.08269839 -0.07182826 -0.07761956 0.43474755 -0.06622999 -1.741472e-39 -4.568964e-39 4.414184e-39
-0.56942284 -1.1434151 0.07273001 -0.14807212 1.044881 -0.109266534 -0.74431974 -2.531255e-39
9.10272e-40 -0.44833112 1.0051651 -0.20249863 1.6501932 -0.7770972 -0.002700961 -0.18185215
0.082577236 -3.631961e-05 0.35596886 0.36253667 -2.5144365 0.9206407 -0.9465724 0.0021449025
-0.12094964 0.3051573 -3.7424885e-05 -0.08304076 0.9292662 0.0027713478 -0.03282449 -0.7163103
-4.6198573e-05 -0.02214299 0.03366512 -0.0014689296 0.12866881 0.8294831 0.009774562 -0.15591212
0.17186102 -0.11771016 0.054609224 0.45357883 0.0033884374 -0.42721367 -1.4906951 0.02937015
0.32047576 0.91656584 -0.34450725 5.30162e-39 6.174967e-39 -2.603237e-39 0.16818282 -0.09113416
0.014307572 0.23931232 0.061942067 0.0002768008 0.53083605 0.7127227 0.0074872235 -0.43991676
0.051707774 0.0041137226 -0.104398556 -0.27234632 -0.000624357 -0.41899967 -0.92875314 0.0016403467
-0.34898576 0.2741875 0.0063196914 0.019015316 -3.0496843 -6.0382492e-05 -0.011650314 -1.4945937
8.370713e-06 -0.17257816 0.9229156 -0.0015183972 0.41088918 -1.2848336 -0.019963125 -0.08272622
-0.91307575 0.0016620532 -0.2523483 -0.8494034 0.003910134 -0.0027080553 0.85108393 -0.0001103946
-6.14332e-39 -3.4422e-40 -3.78296e-39 -0.16052322 0.4012777 0.025990594 0.2962922 -0.4724436
0.000108455395 0.030554332 0.08814043 -0.000485249 -0.30065387 0.07201396 0.0005846839 0.48354584
0.109589964 -0.0024700034 2.462254e-39 4.166083e-39 5.1188e-39 -0.6440338 -0.99106926 -1.0380648
0.060027987 1.0136852 0.00013803456 -2.339092e-39 -3.16242e-40 3.414988e-39 0.0421868 -0.013581298
-1.238908 0.049194075 1.0544156 -3.273872e-05 3.8563e-40 1.251278e-39 6.33453e-39 -0.2277368
0.58805573 0.02795714 0.3658541 0.09421656 -0.08361392 -0.30762383 0.09607376 -0.00025135645
-0.008024411 -1.385786 0.0037746897 -0.009105691 1.0144761 -4.0219165e-05 -3.230978e-39 1.515101e-39
-4.583479e-39 -0.20871495 1.0501599 0.0018258195 -0.39947954 -0.52211535 -0.00032311172 0.022753343
0.10822994 -2.437386e-39 0.060844377 -0.27691987 0.003447808 0.21719669 -0.7544829 0.00023472687
-0.035707045 -0.38492963 0.011419184 -0.015616505 -0.21802759 -0.22975889 0.0032279596 0.5112468
-0.01999442 0.15008071 -0.100520305 0.00056683936 0.030995322 -0.008250398 0.0030213438 -0.13897386

layers.0.fc_self.bias f4 [64]
00000000: 9254 64be 6b54 af3e 936a d63e cef6 efbe
00000010: 3e40 b7be bf0c 2dc0 83ae a13e 9f4c b5be
00000020: a07d a2bf d6ea 833b aa55 043f 6cec 9f3d
00000030: ae8a 8b3f e64a 0dc0 a8e0 0c3f 4e6b a43f
00000040: eb9b c43f dbfe 763f 3887 2cc0 96ed 7d3e
00000050: c25e debf 8a8e 28c0 2478 08c0 b568 e73e
00000060: 31f1 13c0 2b0d bebd a16d 023f a102 4fbd
00000070: aae0 0440 db2e 86bf 9856 b6be 4d0f b03f
00000080: 69ed d53f 37e3 dd3d dc8a 9196 2741 363f
00000090: e008 ed3e 1f0b 2b3f c55b 393e 3564 0b90
000000a0: d9a9 fe3e fb94 6d3f d13a 923e 7ad0 c03d
000000b0: 8c30 1d3e 638a 323f fb78 a83f a64d d53c
000000c0: 95d5 b8be 36a3 1cc0 7c4b c43e 676f 823e
000000d0: e1fb a23e 9911 bbbe 536c 3cbe 1ecb f0bf
000000e0: 138b e03e 2537 063d b09d 73bd c58d 473f
000000f0: 62c2 5b3f db08 193e 0bc4 1a86 6e89 863f
-0.22297886 0.34244093 0.41878185 -0.46867985 -0.357912 -2.703903 0.31578454 -0.3541002
-1.2694588 0.0040257974 0.51693213 0.07808766 1.0901697 -2.2076964 0.550303 1.2845247
1.5360082 0.9648263 -2.695753 0.24797663 -1.7372668 -2.6337 -2.1323328 0.45197073
-2.3115962 -0.09279855 0.5094853 -0.050539616 2.0762124 -1.0483049 -0.3561294 1.375467
1.6713077 0.108343534 -2.3513646e-25 0.71193165 0.46295834 0.66813844 0.18101414 -2.7490113e-29
0.49738958 0.9280545 0.28560498 0.09414764 0.1535055 0.6974241 1.316192 0.026038002
-0.3610045 -2.4474616 0.3833884 0.25475618 0.31832793 -0.36536863 -0.18400697 -1.8811986
0.43856105 0.032767434 -0.059476554 0.779507 0.8584348 0.14944784 -2.910821e-35 1.051069

layers.1.fc_neigh.weight f4 [1, 64]
00000000: 7299 3abf cfc0 593b 30d4 743e 8c01 193f
00000010: 413c 8e3f 072b eabe 88d5 f3bb 923c 2e3e
00000020: 2255 0cbe c7e8 be3b 215a 5f3c 23a3 ba3e
00000030: c982 233c eba0 1bbf 1300 61bc 0d73 76bf
00000040: 61f5 1ebf 89a1 2fbf a69c 54c0 1f6b 123e
00000050: 4241 ebbd c8b8 6ac0 cfec 6fbf 9378 183e
00000060: 522b 81c0 6088 4f3f fef9 61be 9c52 81bf
00000070: 372f b3bd e2ac 34bf 218c 3ebf 3f78 fdbc
00000080: ffda 90be 5e6a 2c3f 4464 3b16 bc52 133e
00000090: df94 ce3c 7011 263c b717 3bbe 64f3 820f
000000a0: 2c88 f13d a453 283d bc39 6dbd 481f 34bf
000000b0: c531 5b3d fe07 5f3c dc97 b8bb d1d0 813c
000000c0: 4dad 24bc 5fc9 2ac0 9306 083f b49c 253e
000000d0: 0100 8a3c ed20 553b b50e 31bf 4344 3abe
000000e0: 4128 db3d d518 0e3f 0007 503d ff03 94ba
000000f0: c1fa 373d 4563 f53b b3dc 890b 74e8 33bd
-0.7289039 0.0033226495 0.23909068 0.59767985 1.1112138 -0.45735952 -0.0074412264 0.17015293
-0.1370435 0.005826089 0.013632328 0.36452588 0.009979912 -0.60792416 -0.013732928 -0.96269304
-0.6209317 -0.6860586 -3.322061 0.14298676 -0.11487056 -3.6675282 -0.93720716 0.14889745
-4.036538 0.81067467 -0.2206802 -1.0103335 -0.0874924 -0.705763 -0.7443257 -0.030941127
-0.2829208 0.67349803 1.5137378e-25 0.1438703 0.025217472 0.010135993 -0.18270765 1.291274e-29
0.11793551 0.04109539 -0.057916388 -0.7036023 0.05351426 0.013612745 -0.0056333374 0.015846642
-0.010051084 -2.6685407 0.5313503 0.16173059 0.016845705 0.0032520846 -0.69163066 -0.18190102
0.10701037 0.5550664 0.050787926 -0.0011292695 0.044916872 0.0074886405 5.310255e-32 -0.043922856

layers.1.fc_self.weight f4 [1, 64]
00000000: 9d4b e6be cca8 92bf b9a9 713d 7152 103f
00000010: c157 153f cd0b aabe 00b2 13c0 b07a 763e
00000020: 8c59 49bd 1c65 943b f391 473c 4382 183e
00000030: e6fc 00c0 6c24 d9be 0fb1 6abf 2537 08c0
00000040: ca5b 88c0 77ed 2ebe a564 83c0 d6a0 5b3d
00000050: e19a 9dbd b3f4 39c0 926e 61bf 20ba c33c
00000060: 2ea8 87c0 6177 ddbf 7860 eebf 6ad3 27bf
00000070: 99ef 72c0 8ee7 bcbf 6d32 03bf 3eeb 16bf
00000080: 5277 91c0 78f2 86bc c656 a717 1e37 783d
00000090: 2aed 0f3e 319b 013c cf2b dbbd c832 2310
000000a0: 8c96 bdbd 49d5 2d3d f660 5dbf c851 0bbf
000000b0: 75e9 ff3e 9208 573c ed4a 8fbf cdd6 653c
000000c0: e6f4 01bd 3de8 88c0 00eb c73e 8d80 923e
000000d0: f037 75bd 8c56 2a3d fcc6 d3be 921e 26be
000000e0: dd0d ae3c 2c46 ae3e 9666 fa3c 423c 8ebf
000000f0: 0771 253d 11b4 d03b 23a5 590c c8c9 febf
-0.44979563 -1.1457763 0.05899975 0.56375796 0.58337027 -0.33212128 -2.3077393 0.24070239
-0.049157664 0.0045286547 0.012180793 0.14893441 -2.0154357 -0.424106 -0.9167642 -2.1283658
-4.2612047 -0.17082773 -4.1060357 0.053620182 -0.076955564 -2.9055603 -0.8805934 0.023892462
-4.2392797 -1.7302057 -1.862319 -0.6555697 -3.7958739 -1.4758165 -0.5124882 -0.589527
-4.5458155 -0.01647304 1.0814027e-24 0.06059944 0.14055315 0.007910536 -0.10701715 3.2185202e-29
-0.0925723 0.042439733 -0.86476076 -0.54421663 0.499828 0.013124602 -1.119474 0.014028263
-0.031727694 -4.2783494 0.39046478 0.286137 -0.0598678 0.041586444 -0.4136275 -0.16222599
0.021246845 0.34037912 0.030566495 -1.1112139 0.040390994 0.006369122 1.6766766e-31 -1.9905329
